model_round_3.pt (torch, 251468 bytes, 10 tensors)

conv1.weight f4 [6, 3, 5, 5]
00000000: 28e1 653d 68ed a2bb daf6 843d 62af 133d
00000010: 32d5 243d 5fb1 a4bd 8aeb 883c 32d7 123d
00000020: cad5 ccbd 7c38 51bd d41a d93b bba7 1dbd
00000030: 0bf6 2e3d 3ba7 8d3d 4610 9a3c 7007 0abd
00000040: 6f48 c0bd b316 6c3d 747e 94bc 0e26 cf3c
00000050: fae1 f5bd b6ec 3b3d 9ff6 d53c 58f5 7d3a
00000060: 095b 313d 4421 983c fd67 813d aab6 5f3d
00000070: 27b4 8ebc badc 38bd ce11 423d 4789 0cbd
00000080: 747f e53d 3201 f83d cddc 34bd 208e 8dba
00000090: 7c19 6bbd a455 1abd f299 123c 6017 0bba
000000a0: 01e0 273d 8b27 53bd c1a8 b03d bea5 53bc
000000b0: 7184 b0bc 5681 56bc ea5b 1f3d 7eae e6bc
000000c0: e815 453a d884 babb a78c 293d 488b bbbb
000000d0: 9ce9 65bb 588a c73d b058 c13b ac52 493c
000000e0: 5820 d83c 4b30 543d 74e8 44bc 8ad7 be3c
000000f0: 353b aa3d ac75 56bd 2823 d0bc 6243 873d
00000100: 44e2 5b3c e8c3 d9bb 99cc 2abd 6493 33bc
00000110: 0e34 603d 885a 8e3c 40b1 cb3d 58c9 c43b
00000120: 94af c53c 4c38 e03b 78eb f9bc 1557 cdbd
00000130: 9e83 f8bd 4c53 c0bc 6af0 723d acb0 59bd
00000140: 20b8 093c 4515 50bd 25b8 063d acc1 90bd
00000150: 5fa8 823c ce7f 573d 9f14 07be 6b28 123c
00000160: 7611 f1bd 9c25 1fbd 062c f0bc 78db 9ebd
00000170: 721e b4bd 2b72 e63c 11fd b23c 0837 37bb
00000180: dec0 473d c610 43bd bc92 4e3c 3753 443d
00000190: fc7a 31bc 58e1 87bd 8847 fdbc a0c0 883c
000001a0: 72ff cc3c 0489 073d 8825 2e3b 96a3 83bc
000001b0: afb9 233d 4746 43bd c4d8 b0bd b3f6 35bd
000001c0: 605d 12bd 0083 a8bd 5675 d2bd 0215 213d
000001d0: 32be c33d 28c7 bbbd f745 393d ace2 f9bc
000001e0: 683f 22bb 5878 56bd 52bd c03d e2e2 883d
000001f0: 9814 1e3d 52bc bd3c d691 ea3c 1889 bf3d
00000200: b676 4a3c dfc3 573d bd0e 7d3d 02ab 263d
00000210: f1d4 393d 0261 b83c e627 cc3d f28d e03c
00000220: fc67 123d 4bfc be3d 7f1b 403d 0ad3 febc
00000230: 2661 e1bc 2c05 fb3c 56a0 573c 8a0f 4ebd
00000240: 82a6 543c 26f5 c8bc a685 603d 0e78 5f3d
00000250: fc8b 67bb f2e6 9e3d 706b afbd 3a85 d4bb
00000260: e60f 05bd e218 383d 3dea 023c f034 51bd
00000270: d2c5 8dbc 767c a4bd 3234 3a3c 4c73 02bc
00000280: ac97 013d a81c b93c 20cb abbc 4d15 6b3d
00000290: 36b6 df3c a2b8 7f3c 39b8 3ebd bc8e 383c
000002a0: 1fed 99bd 9b46 8a3c 504e e7bb e828 e0bb
000002b0: ea4a e63b a493 d1bd 62bc 223d 6e11 aebc
000002c0: 60a4 143d 68a3 babb c0f5 583a e92c cb3d
000002d0: f6ac d53c 0080 71bd 2498 473d 9c35 903d
000002e0: 402b e03b d23f cabd b090 6bbb a0c7 9bbc
000002f0: 9af2 f9bc 29b3 1bbd 437e 9fbc 78b8 753d
00000300: d016 da3b 71fe b43c 9f0c 90bd 5f8b a0bd
00000310: 03c3 7c3d 32ab 783c 228d c23c 7c35 63bc
00000320: 026b dbbc ce4e 13be 8173 02be c4ea f2bd
00000330: 7da6 0f3d 6f05 183d 07f2 62bd 7260 fa3c
00000340: 644d 2dbc 21f2 22bd 2089 c1bb f0d8 673c
00000350: 6465 33bd 9874 aabc 0387 f8bc 1236 19bd
00000360: cd30 95bd 71c1 b3bd 182e c53b 1abb cbbb
00000370: 2ea0 97bc 192c 10bc e0cd 7c3b df2a c4bc
00000380: fd1a d3bc 9c8e 023e dc28 533d b917 c73d
00000390: 5e13 e13c a486 f73c 1eba 1c3d da44 da3c
000003a0: fc9c e8bc ed18 b2bd a6c7 48bd 7009 9abd
000003b0: 4e53 233d 6b19 5a3d 9eaf 653d e96d 1c3d
000003c0: 7dcb ae3c 6296 8ebd 7b71 90bd 0058 a1b7
000003d0: e3b2 8cbd 022a a03d 8082 0dba 9f84 803c
000003e0: 4dfb 7dbd 9fee aabc 6d91 17bd 84dc 13bd
000003f0: d01d 58bc 08f3 893d 7c8b a93d ad8a c6bd
0.05612293 -0.0049721487 0.06492396 0.03605593 0.04024238 -0.08041643 0.016713876 0.035849757
-0.100017145 -0.05107926 0.0066255126 -0.03849004 0.042715114 0.06916662 0.018806588 -0.0336985
-0.093888156 0.057638835 -0.018126704 0.0252867 -0.12005992 0.045880042 0.026118575 0.0009687743
0.04329971 0.01857055 0.06318662 0.05461756 -0.017419888 -0.045132376 0.04738026 -0.034310605
0.112059504 0.12109603 -0.044155885 -0.0010799803 -0.05739735 -0.03767933 0.008947836 -0.00053059123
0.04098511 -0.051551383 0.08625937 -0.012917934 -0.021547528 -0.0130923595 0.038906015 -0.028159376
0.0007518218 -0.0056921057 0.041393902 -0.0057233907 -0.003508187 0.09743184 0.005900465 0.012287777
0.02638261 0.05180387 -0.012018312 0.023296136 0.08312074 -0.052358314 -0.025407389 0.06604649
0.013420645 -0.0066456683 -0.041699026 -0.010960434 0.054737143 0.017377153 0.09945917 0.0060054474
0.024131574 0.0068426486 -0.030507788 -0.10026375 -0.12134479 -0.023477219 0.059311308 -0.053147003
0.008405715 -0.050801534 0.032890458 -0.0706819 0.015949426 0.05261212 -0.1319146 0.008920769
-0.117709085 -0.038854226 -0.029317867 -0.07756704 -0.087948695 0.028130611 0.021849187 -0.0027956385
0.048767917 -0.04762342 0.012608226 0.047930922 -0.010832544 -0.06634778 -0.030917898 0.016693413
0.02502415 0.033089653 0.0026572663 -0.016069215 0.039972004 -0.047674444 -0.08635095 -0.044424724
-0.03573358 -0.08228111 -0.10276286 0.039326675 0.09557761 -0.091688454 0.04523274 -0.030503593
-0.0024757031 -0.052360862 0.0941111 0.066838995 0.03859386 0.023161087 0.028633993 0.093523204
0.012357404 0.05267703 0.061781634 0.04069043 0.045369092 0.022507194 0.099685475 0.027411435
0.0357437 0.09325465 0.046901222 -0.03110649 -0.027512144 0.030642115 0.013160786 -0.050307788
0.012979152 -0.024530958 0.054814957 0.054557852 -0.003533124 0.07758893 -0.08565414 -0.0064856084
-0.032485865 0.044945605 0.007990417 -0.051075876 -0.017306242 -0.080315515 0.011364983 -0.007962059
0.031638786 0.022596672 -0.020970881 0.05739336 0.027308565 0.015607985 -0.046562407 0.011264499
-0.075159304 0.01687937 -0.007058896 -0.006840814 0.0070279734 -0.10233238 0.039730437 -0.021248545
0.036289573 -0.005695749 0.00082763657 0.09920675 0.02608345 -0.05895996 0.048729077 0.07041475
0.0068410933 -0.09875454 -0.0035944395 -0.019016087 -0.03051119 -0.038012657 -0.019469386 0.059990376
0.0066555515 0.022093983 -0.07033657 -0.07839083 0.061709415 0.015177535 0.023748938 -0.013867732
-0.026784424 -0.1438553 -0.12739374 -0.11861184 0.035070885 0.037114557 -0.055406597 0.030563567
-0.010577533 -0.039781693 -0.005906239 0.014150843 -0.043797866 -0.02080755 -0.030337816 -0.03740508
-0.07284699 -0.087771304 0.0060174577 -0.0062173726 -0.018508997 -0.008799576 0.003857486 -0.023946224
-0.025769705 0.12749714 0.05155264 0.097213216 0.027475055 0.030215569 0.038263433 0.02664416
-0.028395168 -0.086961605 -0.049018525 -0.07521331 0.039874367 0.053246897 0.056075685 0.038190756
0.021337265 -0.06962277 -0.07052895 -1.9233674e-05 -0.068700574 0.07820512 -0.0005398169 0.015688239
-0.062007237 -0.020865737 -0.037003923 -0.036098972 -0.013190702 0.06735808 0.08278558 -0.09694419

conv1.bias f4 [6]
00000000: 72c1 a43d 1e8f 9d3d f426 6abd ee5c 7c3c
00000010: 06a9 5e3d 0c63 963d
0.08044709 0.07693313 -0.057166055 0.015403016 0.054360412 0.073431104

conv2.weight f4 [16, 6, 5, 5]
00000000: 8aa5 963d b8cb 1a3c f0fc ae3a 4853 a4bc
00000010: 4abe 593d d497 603c c4e3 083d ef79 10bd
00000020: 1c67 103c b193 b83c 5c6f 353d 6ae6 133d
00000030: 84be 343d a22b 643d d8a1 603b 74eb b0bb
00000040: 4be8 6a3d eb69 323d 2162 f23c 309a df3b
00000050: 2732 aebc 5c49 3f3d ac31 c13c edb5 2d3c
00000060: 581e c93c 6a07 143c a4b7 483d 239c 373d
00000070: 669b 8e3b 36c7 6dbc 6276 27bc 763f ac3c
00000080: f727 6abd 0cbb b5bc 4ca6 2d3b e0b6 243d
00000090: b7b4 123d 4060 d83a 64e1 523d 0954 473c
000000a0: 5f7a 2bbd 0348 183d 6827 353b 7412 04bd
000000b0: fa6a 533d e40a e3bb aa60 cb3c 0563 253d
000000c0: 00ce 0638 d8b3 c63c 051f 953d 9903 80bd
000000d0: 4425 7cbd 780d 733c 9f95 913c 7e2a fa3c
000000e0: 94af a93d 7e5a 4e3d 08b7 98bb 7522 4c3c
000000f0: 0dee 663d 7366 c43d 2c54 c3bc ebd9 193d
00000100: b57c e53c 0045 d4b9 51ec 993d a26c 243d
00000110: f031 933c 411a a43c 0076 0b3d 94a8 083d
00000120: 1568 553d 8f6f 8f3d 7fb7 b83c 6239 b03c
00000130: e4cb 62bd d854 06bd eb35 91bc bb36 0d3d
00000140: 9599 60bc 6d9b 623d 71a9 113d 7c74 8fbc
00000150: f685 473d ecbc 213d 02b3 133d 943d 893d
00000160: 4ed4 893d 62e2 243d 3717 e03c df2a 223d
00000170: af19 093d 5581 9c3c 646d 913c c0e4 1739
00000180: be2f 1b3c a05d 3d3c 4e05 9aba 1013 df3c
00000190: 0f77 083d 4e51 65bc 2349 5cbc 9e60 2ebd
000001a0: 70a7 563d a8ec 743c 3e9c 94bc 99b5 4b3d
000001b0: fe24 18bd 1cb4 d63c 608a 28bd aef6 76bc
000001c0: 9555 f23c ea10 1fbc 0589 38bc e8e3 63bc
000001d0: fbe3 09bc 8d0b b23b a771 01bd 2fbd ba3c
000001e0: a400 3c3d 468c 91bc 9d57 a33c e15e d8bc
000001f0: cc5d 353d b25d 8fbc 201c 3d3d ee68 7d3d
00000200: 7c00 223c 4eeb 48bd aad0 a8bc 4145 bdbc
00000210: 70ec 203b 6dbf 25bd ddcc 1a3d 54bf 8f3c
00000220: 0f77 d7bb fc34 d13c 9ccc 183d c80d a6bc
00000230: 3462 85bc 9185 993c 4cb9 cabc f50a 06bd
00000240: 5e07 f73c aeff a4bc 64b1 283c 001f a23c
00000250: 7a56 4abd bfb9 c13c 050d dc3c 5a33 a93c
00000260: 0068 ca37 ee78 413d 088d 56bd e486 e33c
00000270: 735a 6abd 774d 1c3d e0dc f2bc cc00 1dbd
00000280: 9af6 a7bc c067 943b 8355 993d b2d3 1ebd
00000290: f007 a03d 4227 7ebd 1864 dfbb 3671 58bd
000002a0: 7426 423c 007c ad3c be5b fdbc c642 78bc
000002b0: fc5c 9abc b093 25ba 4455 ea3c fd5c 46bd
000002c0: 80c4 27b9 c85d 6b3d 9adb 44bc b3c6 0d3d
000002d0: b420 a03c e48c ffbb 1f79 c2bb 4859 993d
000002e0: 00ac 38b9 712c b73c 2896 1b3c d333 45bd
000002f0: 90b9 4b3b 7ce0 da3c 6a92 aebc 246b 863d
00000300: 8051 d33c 7d37 843d 7f27 15bc d11a b73c
00000310: 6c14 933d 6c49 5f3b 3589 ee3c d02f abbc
00000320: 4588 013d 9445 c43b f850 1cbd f3cc 0c3d
00000330: 2a1e 3d3d e80c 03bc 1836 903b fa33 3bbd
00000340: cf76 4cbd aa01 04bc 15c4 ed3c acde d7bb
00000350: a6b8 a73c 30db 863b 2d7b 313d c787 ebbc
00000360: 4eb7 9dbc a6b4 1f3d c6f3 93bd 58cb 3abd
00000370: e3ad 403c 8c0c 11bc bc93 a9bc 764e 74bd
00000380: f6de 13bc 482e 103d 9ae6 433d 70a0 063b
00000390: a691 143c f4a9 0ebd d42d 5c3d 0a97 e73c
000003a0: 9d37 103d 0dbd 0f3d 2054 5f3d 6add 9c3c
000003b0: 6540 2abc 9077 d9bb 184e de3c b0be 48bd
000003c0: 31f1 84bd 3e42 0f3d 8ef2 20bd 25af 4fbd
000003d0: cd46 6f3b 62ee 26bc 5910 1cbd d00b 933c
000003e0: afcd 82bc d40b 07bc b5b7 1abd 7d02 5abb
000003f0: e454 21bb afff 033d b052 463d d4ba 303d
0.07355793 0.009447984 0.0013350528 -0.020059243 0.05315999 0.013708074 0.03342034 -0.035272535
0.008813646 0.022531362 0.044295654 0.03610841 0.044127002 0.055705674 0.0034276154 -0.005399162
0.057350438 0.043558042 0.029587807 0.0068238005 -0.021264149 0.04670082 0.023583256 0.0106024565
0.024550602 0.009034971 0.04900326 0.044826638 0.004352021 -0.014512828 -0.010221096 0.021026354
-0.05716702 -0.022183917 0.0026496826 0.040213466 0.035816874 0.0016508177 0.05148448 0.012166032
-0.04186475 0.03717805 0.0027641896 -0.03224416 0.051615693 -0.0069287885 0.024826366 0.040377636
3.2139942e-05 0.024255678 0.07281307 -0.06250686 -0.061558977 0.014834754 0.01777154 0.03053784
0.08285442 0.05037927 -0.004660491 0.012459387 0.056379367 0.09589853 -0.023843847 0.03756134
0.028013567 -0.000404872 0.07515777 0.040142663 0.017968148 0.02003205 0.03404808 0.033363894
0.052101213 0.070037 0.022548435 0.021511737 -0.055370227 -0.032795757 -0.017725905 0.034476023
-0.013708492 0.055324007 0.035561983 -0.017511599 0.04871174 0.03948681 0.036059387 0.06701198
0.06729947 0.040254958 0.02735482 0.039591666 0.03347176 0.019104639 0.017752357 0.00014485698
0.009471832 0.0115579665 -0.0011750848 0.02723077 0.033316668 -0.013996435 -0.0134451715 -0.04257261
0.052405775 0.014949001 -0.018140908 0.049733732 -0.037144653 0.02620893 -0.04114759 -0.015073461
0.029581824 -0.0097086225 -0.011263137 -0.013909318 -0.008416171 0.005433506 -0.031602528 0.022795288
0.04589905 -0.017767083 0.019939238 -0.02641243 0.044278905 -0.017500732 0.0461694 0.061867647
0.009887811 -0.04905253 -0.020607311 -0.023104312 0.002455499 -0.04046576 0.03779303 0.017547287
-0.006575472 0.02553796 0.037304506 -0.020270243 -0.016282178 0.018740447 -0.02474656 -0.032725293
0.03015488 -0.020141449 0.0102961995 0.019790173 -0.049398877 0.023648141 0.026861677 0.02065437
2.4128705e-05 0.04723447 -0.05238059 0.027774282 -0.057215165 0.038159814 -0.029646337 -0.038330838
-0.020503331 0.0045289695 0.07487013 -0.038776107 0.07814014 -0.062049158 -0.006817352 -0.05284234
0.011849988 0.021177292 -0.030927535 -0.015152639 -0.018843167 -0.00063162576 0.028605111 -0.048428524
-0.00015999563 0.057462484 -0.012015248 0.034613322 0.019546844 -0.007798778 -0.005934849 0.07487732
-0.00017611682 0.022360059 0.009496249 -0.048145127 0.0031085946 0.02671837 -0.02131005 0.06563404
0.025795698 0.06455896 -0.009103655 0.022351654 0.071816295 0.0034070862 0.02911816 -0.020896822
0.031624097 0.0059897397 -0.038163155 0.034375142 0.046171345 -0.007998683 0.0044009797 -0.045703866
-0.049917992 -0.008057037 0.029024163 -0.006587824 0.02047379 0.0041154847 0.04333036 -0.028751267
-0.019252446 0.03899064 -0.072242305 -0.04560408 0.011760208 -0.008853089 -0.020700328 -0.05964514
-0.009025326 0.035200387 0.04782734 0.0020542406 0.009067928 -0.03483005 0.053754643 0.028270263
0.035209287 0.035092402 0.054523587 0.019148547 -0.010391329 -0.0066365674 0.027136847 -0.04900998
-0.06491316 0.034975283 -0.03929382 -0.05070414 0.0036510706 -0.010188671 -0.038101528 0.017949969
-0.015967218 -0.008242566 -0.037772853 -0.0033265643 -0.002461725 0.03222626 0.0484187 0.043146923

conv2.bias f4 [16]
00000000: a17e 0cbd 45cc 91bc 28a4 53bd 702e d9bb
00000010: ee21 34bd 025b dabc c847 e43b c5d3 493c
00000020: 7af3 363d 20e9 9dbb cc68 4e3c 0ec3 2fbc
00000030: be8b a83c 347e 683d 8960 bbbc 4412 5f3c
-0.03430045 -0.017797599 -0.051670223 -0.0066278502 -0.04397767 -0.026654724 0.006966565 0.012318556
0.04466579 -0.0048190504 0.012598228 -0.010727657 0.020574447 0.05676098 -0.02287318 0.013615195

fc0.weight f4 [120, 400]
00000000: 5f84 8d3b 20e3 173d 70fc d53c f04a d8bb
00000010: 99c2 08bd 7a00 a43c 41f4 103c 6f84 a03c
00000020: 9886 3cbc 27ff 773c 7dcd 5ebc 3d30 88bb
00000030: edd8 183d 3786 a03c f048 823a 5346 c8bc
00000040: 34ea 63bc b56b 283c ca64 f63c 802b 26bb
00000050: 0c2e 973b 1848 993c 268e 373d 2228 003d
00000060: 90bb 063c 7b43 ddbb 4cf1 8f3c f73b 923c
00000070: b35b a6bb ee8b cf3c 0246 013d ec7a 683b
00000080: d7db 06bc fc2d c7bc 1872 2e3d 010a 1fbc
00000090: 0295 5fbb 9c24 e6bc 477b cbbc c545 ac3c
000000a0: 89e3 173c 001c 36b8 a751 49bc 203f f3ba
000000b0: e8e8 b73c 9ccf adbb 087f 0bbd 044a 1c3c
000000c0: 78ef 343b 66ec 6a3c 8fba 14bd ccaa 8dbc
000000d0: 2411 72bb 7a66 e43b 0a4f 083d 8c63 593c
000000e0: 66c5 84bc 8b6c ae3c 8e6b 1dbc 103b b83a
000000f0: 588c 2c3c 68d0 6a3c b265 02bd d378 7bbc
00000100: 3c09 0c3c 75e6 903b 7ae1 873b 91d8 ca3c
00000110: 63b1 223b 561a 3ebc 98f4 f43c 9963 1b3d
00000120: e1dc 56bc 5ed3 c13c 7426 b9bc 6a79 0c3c
00000130: 1821 57bc fac0 5dbd 74bb adbb 826a 11bc
00000140: cbec c23b e05c a5bb ec95 0abc 46f9 1cbc
00000150: 4c3a a5bb df16 0a3d 4c54 babc e8b3 53bb
00000160: 2817 153d f233 46bb 48cf 55bb 5042 053d
00000170: b410 c4bc 1f3e 5abc 5c4c 983b e485 9cbc
00000180: a102 c0bb ba87 9abb 870a 23bd 7cd0 bf38
00000190: 48e1 11bc 9f96 b23b 8114 f23b af9e 80bb
000001a0: 1b1c e33c dc92 a83c a42d b13c 4cab cf3c
000001b0: 802a f03b cd49 5a3c f070 aa3c a076 e83c
000001c0: 36de 17bc 4b3e 123d 0094 4c3d 896c 2abd
000001d0: eb39 493b 7735 843c e34b 1d3d 4c62 1fbd
000001e0: 6883 25bb 8161 223c 38c7 233d 365e c0bb
000001f0: 0c06 473c e473 ca3b 990c 49bc 522e a23b
00000200: 407f 91b9 b0d4 f2bc ba2d e2bb 3437 f5bb
00000210: 49b1 c5bc 0050 7539 e839 cbbc 360d 25bd
00000220: 1310 c5bc fa77 9ebb b036 b839 8a73 2c3c
00000230: 22d9 32bd 0094 96b8 cae7 113d 48cb cbbb
00000240: ec1c ea3c 48dc 1f3a c495 4bbb f797 e83c
00000250: 70bd 08bc cea6 4f3c da17 853c 9866 f4bc
00000260: 3764 fd3c 4e30 4a3c a241 343d 8a27 c53b
00000270: 52a2 223d 93ea 0b3c 721a 943c 8487 903c
00000280: 51f9 683c e921 2b3b aa4e 60bc 00ca 183c
00000290: 077b af3c f0e6 c03c a805 c6bc 3095 e7ba
000002a0: 21b2 a13c c4b3 bfbb 0021 43b8 8610 9a3a
000002b0: 30c3 a13a 58fc dc3c df91 0c3d 94cb 1c3c
000002c0: 2086 1fbc fc81 f8bc 3e85 11bd e8e7 06bd
000002d0: 020d 8dbb 511f 8bbc 8270 d3bc ca15 d83c
000002e0: 9280 ac3b 8068 e63c 97c8 9cbc b720 23bd
000002f0: 89fc 1dbc 3ae7 80bc 2466 f4bb 18fc 173d
00000300: d403 84bc 4562 0cbc 3ff6 e83c 8ee6 443c
00000310: 38d8 0ebb 0490 99bb fc71 de3c 5817 b9bb
00000320: cccf 42bc 343c 873c 2c48 203c 04f8 81bc
00000330: f781 303d 348a 803c c099 9f3c 00ca 62b9
00000340: 4944 53bc 1cbb d73b 988e 0a3b 8c5a b9bc
00000350: ca1b 52bd 8606 18bd 1ee9 3f3b 1566 0c3d
00000360: de93 7cbb 4509 63bc 0023 bf3a 4b74 9a3c
00000370: aa12 473c 866c bdbc 10b3 ef3c a2f5 48bc
00000380: 93ee 90bc 1d22 9cbc 68c5 5b3b 20ad aabc
00000390: d055 36bd e812 0c3b ffc2 08bc aa77 023c
000003a0: d089 dbbc 5e58 7e3c 30b7 efbc 000c f837
000003b0: 5b7b 4b3c 6f37 edbc e8fa b23b 3443 12bc
000003c0: 22b1 183c a3ba d6bc fdde fabb 17ac 9bbc
000003d0: e27c 45bd c50e c93c 2601 60bb 0027 25bd
000003e0: 9a93 8ebc 6e47 02bc a496 03bd 5662 6d3b
000003f0: 711d a3bc a3da 97bc 9b5c 55bc 3c82 c1bc
0.0043187584 0.037081838 0.026121348 -0.00660073 -0.033388708 0.020019758 0.008847297 0.0195944
-0.011506699 0.015136517 -0.013598797 -0.004156141 0.03731625 0.019595249 0.000993995 -0.024447596
-0.013910819 0.010279586 0.030077357 -0.0025355518 0.0046136435 0.018711135 0.044813298 0.031288274
0.008223429 -0.006752429 0.017571114 0.01785086 -0.0050768494 0.025335278 0.031560905 0.0035473658
-0.008231125 -0.02431392 0.042589277 -0.009706975 -0.0034115915 -0.028093629 -0.024839057 0.021029362
0.009270557 -4.341826e-05 -0.012287534 -0.0018558241 0.022449926 -0.00530429 -0.034056693 0.009539131
0.0027608555 0.014338588 -0.03631073 -0.017293356 -0.0036936486 0.006970224 0.033278503 0.013268363
-0.016207408 0.021291992 -0.009608163 0.0014055688 0.010531507 0.0143319145 -0.031835265 -0.015348631
0.0085471235 0.004422004 0.004146752 0.02476147 0.002482497 -0.011602959 0.029901788 0.03793678
-0.013114185 0.023660358 -0.022601344 0.008573869 -0.013130449 -0.054139115 -0.005301887 -0.008875491
0.005948638 -0.005046472 -0.008458596 -0.009580916 -0.00504235 0.033713218 -0.022745274 -0.0032303277
0.036399037 -0.0030243364 -0.003262477 0.032533944 -0.023933746 -0.013320475 0.0046477746 -0.019106813
-0.0058596884 -0.004715887 -0.03980496 9.146423e-05 -0.008903809 0.0054500843 0.007387698 -0.0039251666
0.027723363 0.02057784 0.021628208 0.025350235 0.007329285 0.01332326 0.020805806 0.028376877
-0.009269288 0.03570394 0.04994583 -0.041607413 0.0030704688 0.016138775 0.03840245 -0.038912103
-0.0025255326 0.009910942 0.03998491 -0.005870606 0.012147438 0.006178366 -0.01227107 0.0049493695
-0.00027751364 -0.029642433 -0.0069024237 -0.0074833874 -0.024132388 0.00023394823 -0.024807885 -0.040295802
-0.024055516 -0.0048360797 0.0003513596 0.0105255935 -0.043664105 -7.1801245e-05 0.035621442 -0.0062193014
0.028578244 0.0006098193 -0.003106461 0.028392775 -0.008345947 0.012674047 0.016246725 -0.029834077
0.030931575 0.012340618 0.044007905 0.0060166763 0.039705582 0.008539814 0.018079016 0.017642744
0.014219598 0.0026112741 -0.01369063 0.009325504 0.021420969 0.02354762 -0.024172619 -0.0017668363
0.019738259 -0.005850287 -4.6522357e-05 0.0011754192 0.0012341496 0.026975796 0.0343188 0.009570021
-0.009736568 -0.030335419 -0.03552746 -0.032936007 -0.004304529 -0.016982706 -0.025810484 0.026377577
0.00526435 0.028126001 -0.019138617 -0.03982612 -0.009642729 -0.015735257 -0.007458465 0.03710565
-0.016115107 -0.008568351 0.028437732 0.012017859 -0.0021796357 -0.0046863575 0.027153961 -0.0056485347
-0.011890363 0.0165082 0.009782832 -0.015865333 0.043092694 0.0156909 0.019482493 -0.0002162829
-0.012894698 0.0065835845 0.0021142121 -0.022626184 -0.051296033 -0.037115596 0.0029283236 0.03427704
-0.0038540284 -0.0138571905 0.0014582574 0.018854281 0.012150446 -0.023123037 0.029260188 -0.012265595
-0.017691886 -0.019059235 0.0033534411 -0.020834506 -0.04451543 0.0021373574 -0.008347272 0.0079631
-0.026799113 0.015523998 -0.029262155 2.9569492e-05 0.012419547 -0.028957097 0.0054620393 -0.008927155
0.0093195755 -0.026212042 -0.007655977 -0.019002957 -0.0482148 0.024543175 -0.0034180372 -0.040320396
-0.017404366 -0.0079516005 -0.032126084 0.0036221943 -0.0199115 -0.018536871 -0.013022567 -0.02362167

fc0.bias f4 [120]
00000000: 5f9e abbb a0b5 1a3c 54b1 b2bc 5356 943b
00000010: 444f 6a3c a4e3 eb3c 0e9f 16bc c052 e9ba
00000020: d03b 1bbd d9b0 74bc cc70 1b3c 41af 8e3d
00000030: 94c2 253c d9e2 1d3c c498 333a e303 793d
00000040: a207 02bc e4cb 94bc 1788 823c d523 31bd
00000050: 3582 e73c 571f cabc b458 983c c42f 8bbc
00000060: ea86 f33c 9e0b 293d 2bf8 aa3c c06a b33c
00000070: 98d4 5e3c 90bc 9b3c f4af 85bc a0ce 1a3d
00000080: 22ef 1c3d 78bb 033b 82d8 62bb 4788 e33a
00000090: 2fa2 3bbc f9f0 973c 77a4 af3c c0d3 8eba
000000a0: 91fe 9f3c d118 f6bc f41e 06bd b1e8 fdbc
000000b0: 66ba 9ebc 13ee 043d cd0d 6c3c 9e1e 35bd
000000c0: 3059 53bb b305 83bc 3456 b63c 4ac4 153d
000000d0: 5a17 30bd d609 d3bc 2156 1d3d 6890 8d3a
000000e0: 7194 da3b 5e0d 23bc 13b1 4a3c 1c12 2dbd
000000f0: a208 ec3c 27a6 c73c d014 f1bc dea7 95bc
00000100: b279 8ebc 2ec3 aa3c be46 3a3c 9acd 1a3c
00000110: 02f4 4c3d 1395 ec3b c44e db3c d4a4 5c3c
00000120: 71e3 a43c 00b6 dd37 008f 30bd ba00 253c
00000130: 0c6d 593d d46b 753c 2c89 303c eed2 32bd
00000140: 6f70 173d a77a 08bd f274 0d3d 8b66 393d
00000150: bbb2 6b3c ab27 093d ca6b 123d d56c 663b
00000160: ee2c 263c ea5c 703c b090 9f3a 68b5 94bb
00000170: 0ce0 27bc 48a0 95bc 3175 2fbc 7c0e c5bb
00000180: f447 44bc 1799 edbc f63c d3bb 3b23 b3bc
00000190: e032 3cbb ec7c b83c a050 8d3c 61d4 ca3c
000001a0: 7afc e23c 4ead 253c 6454 b03c dad7 13bd
000001b0: 3088 ee3a 9f35 563b bd5a 43bc 1c70 6b3c
000001c0: 9c6c 3ebd 4161 87bc 0802 71bb 4351 263c
000001d0: 4706 a33b adc4 67bc 40c5 203c 20f0 f23a
-0.005237385 0.009442717 -0.021813072 0.004526892 0.014301125 0.028795071 -0.009193195 -0.0017801151
-0.03789884 -0.014934742 0.009487342 0.06967021 0.010117192 0.009636604 0.0006851072 0.060794722
-0.00793639 -0.018163629 0.015934033 -0.043247063 0.02826033 -0.024673147 0.018596984 -0.01699055
0.029727418 0.041270845 0.020870289 0.021901488 0.013600491 0.019010812 -0.016319253 0.03779471
0.038313992 0.0020100754 -0.0034613912 0.0017359339 -0.011452242 0.018547522 0.021440728 -0.0010896847
0.019530566 -0.03004113 -0.032744363 -0.030994745 -0.019375991 0.032453608 0.014407587 -0.044218652
-0.0032249205 -0.015993929 0.022257902 0.03656415 -0.04299102 -0.025761526 0.038412217 0.0010800483
0.0066705276 -0.009951917 0.012371319 -0.0422536 0.02881271 0.02437122 -0.02942887 -0.018268522
-0.017392013 0.020845022 0.011369405 0.009448433 0.05003739 0.0072199195 0.026770957 0.013467032
0.020127984 2.6430003e-05 -0.043105125 0.010070974 0.05308251 0.0149793215 0.010774892 -0.04365819
0.03697246 -0.033320095 0.034535356 0.04526381 0.014385874 0.033485096 0.035747327 0.0035160084
0.010142548 0.01467059 0.0012173858 -0.004538227 -0.010246288 -0.018264905 -0.010709093 -0.0060136896
-0.011980046 -0.029003663 -0.006446476 -0.021867385 -0.0028716847 0.022520505 0.017250359 0.024759473
0.02770828 0.01011212 0.021524616 -0.036094524 0.0018198546 0.003268577 -0.011923489 0.014369991
-0.046490297 -0.016525866 -0.0036774892 0.01015121 0.0049751136 -0.014146012 0.009812653 0.0018534698

fc1.weight f4 [84, 120]
00000000: a800 893b 7403 573c 50b3 9d3d de7e f23c
00000010: 4659 18bd a140 09bd a03a 8abd 0d6c 563c
00000020: 54e8 e8bb f2dd 41bd f98e 533d 5401 9bbb
00000030: d86a 0bbb 5e07 683d eab7 ac3d 54bc 673d
00000040: 9e54 7e3d a7c6 a93d 3a02 9e3c a609 343d
00000050: 6c07 2f3c c2f4 2abd 4ce4 6bbc f800 9ebb
00000060: 17e2 1a3d 3655 183d 17d7 61bd def4 e0bb
00000070: 25a2 0d3d d276 773d 215e 8d3c 42f8 1cbd
00000080: c030 e1ba fe87 dcbc f063 6539 99b7 8bbc
00000090: 8885 11bd ca09 ea3c 2e68 5a3d 1ea1 663c
000000a0: 418b 99bd 28d4 673d 90b3 aebc c07f 743b
000000b0: cd0c c93c bc58 6d3c fefe 7bbd aefc 7c3c
000000c0: 8355 643d 98ea 70bc 2634 b63b 996e 3e3d
000000d0: 2ddb 28bd ff62 1abd 18ae 79bd 42ce 5fbd
000000e0: f1b9 fc3c 8c2c 5c3c 00be 94bb 5096 b53c
000000f0: 225f 91bc dcc8 d63c 9498 e83c 6b39 973c
00000100: 5ed4 063c db00 af3c 7b35 243d 1050 9f3d
00000110: f2b9 8cbd 2c42 433c fa02 3ebd 4892 ce3c
00000120: c7e5 b8bc a9fe 76bd d122 7a3c a08a 843d
00000130: 4643 003c 1acb 67bd f076 043b 2274 0f3c
00000140: 447c 2cbd 0d92 103d ea05 953c a8f0 b1ba
00000150: 32b0 893c 788f d3bc 6fd5 083d 4f48 dd3c
00000160: b07c 32bd d2f7 013d 644c 6ebc 7cb5 adbb
00000170: 784e c8ba 0079 aebb e40c 383d b0d6 bdbb
00000180: f8f4 96bc 13cd 10bc 1efd 5e3c e07d 393b
00000190: d802 7d3c f58e babc 0085 ebb9 7f34 413d
000001a0: cb30 d6bc cce8 103c f2bf 4c3d 09e4 a63d
000001b0: ce30 0e3d 757b c63c fecb 59bd 5852 433c
000001c0: d67b 183d d9db ab3c 3fbc a73d b022 0d3d
000001d0: a00a 4d3b 6521 16bd 1c44 713c a7d9 e3bc
000001e0: 40cd e9ba e163 61bd ab9b 8c3d 77c8 d1bc
000001f0: 7835 cc3b 5ec4 8cbc 9bb4 7ebc a576 d8bc
00000200: 4d10 76bd b72d 52bc 18c4 3fbd 7664 3abd
00000210: 31ce 1fbd d62b 59bc c848 23bb 6849 0bbd
00000220: 6a1b 433d 10e1 38bc 278e 81bc 9e11 03bc
00000230: a08e ac3d caed 3abd 5512 e2bc 3fa2 273d
00000240: ed25 8f3d a0c3 493c 80af 10bb 88d5 1f3c
00000250: acb4 a33c 602c 63bd 981a 9d3d 4528 063d
00000260: d40c 8d3d b61f 25bc eadf 9ebd 4bcf b3bc
00000270: e31b 4fbd 460a 493c 6086 303d f54f 49bd
00000280: 8a21 07bd fe10 143c 2e99 063d f7e3 1d3d
00000290: b787 463d a851 cabc 8421 123c 492c 20bd
000002a0: c50f fa3c 84ee 1a3d 7a30 033d 2078 c1bb
000002b0: 2c6b 94bd 9f8c 3cbc ce78 cb3c d512 9abd
000002c0: 0016 b738 a390 78bc e217 553d 8d18 0c3d
000002d0: 1842 4c3b 1e95 893b a629 8f3d 8628 5e3d
000002e0: b261 48bc 41f2 1a3d 36d3 8c3c 1c7c a23d
000002f0: 1ed7 23bc 17c5 01bc 4885 683b a610 e23b
00000300: 6842 73bd 9a80 563d 2646 90bd 59bc b33d
00000310: 9fbd 773c ccf4 91bd cae8 093d 605c 973c
00000320: c098 f83b d2b2 5cbd e800 5fbd b191 c8bc
00000330: eea6 27bd 03bb 28bc f94c 36bd 7823 09bc
00000340: c256 91bc 527e 2c3d 8a2f 31bc 2014 733b
00000350: 4f1b 8bbc 3611 53bd c13e 03bd 6e58 923d
00000360: 4c5a 893c 4a95 93bb 7301 9e3c e5eb 6fbd
00000370: a489 523c 2fb0 0f3d 83f6 f6bc 93e9 17bd
00000380: d247 92bd c0c6 123b 0632 08bc cc13 563c
00000390: 3b01 04bd 2088 a63b 98d1 563d 710a 0cbd
000003a0: 3af4 6f3d 126c 6ebd 2424 7b3c f059 ddba
000003b0: ebc8 e5bc 841f a93d 381e bf3b 8286 5dbd
000003c0: 60af 613c e791 a93b 658e 303c d0ea afbd
000003d0: b182 aabc 9542 30bd 2217 a4bd bc62 91bd
000003e0: 52cf 913c a468 10bd 3fcc 3fbd 2f74 f33c
000003f0: 079c fb3c eecb ff3c f423 29bb d130 813d
0.0041809864 0.013123382 0.07700217 0.02960151 -0.037194513 -0.0335089 -0.06749463 0.013087285
-0.007107774 -0.047330804 0.05165002 -0.004730383 -0.00212734 0.05664765 0.08433516 0.056576088
0.062092416 0.08289843 0.019288171 0.043954514 0.010682922 -0.041737325 -0.014397692 -0.004821893
0.037813272 0.03719064 -0.055136766 -0.006865128 0.03457846 0.06041605 0.017256798 -0.038322695
-0.0017180666 -0.026920315 0.00021876371 -0.01705532 -0.035527736 0.02856912 0.05332201 0.014076499
-0.07497264 0.056598812 -0.021325856 0.003730759 0.024542237 0.014486488 -0.061522476 0.015441103
0.055745613 -0.014704369 0.005560416 0.046492193 -0.041224647 -0.037692066 -0.060957044 -0.054640062
0.030850383 0.013438355 -0.0045392513 0.022166401 -0.017745558 0.026218824 0.028393067 0.018459996
0.008229343 0.021362713 0.040090065 0.077789426 -0.06871404 0.011917632 -0.046389557 0.025216237
-0.022570504 -0.060301457 0.01526709 0.06471753 0.007828539 -0.056590177 0.0020212494 0.008755716
-0.042110696 0.035295535 0.018191297 -0.001357575 0.01680765 -0.025825247 0.03340667 0.027012018
-0.043575943 0.03173048 -0.01454458 -0.0053011756 -0.0015282175 -0.005324483 0.04493417 -0.005793415
-0.018427357 -0.008837956 0.0136101525 0.0028303787 0.0154425725 -0.022773245 -0.00044921786 0.047169205
-0.026146313 0.008844566 0.04998774 0.08148963 0.034714513 0.02422879 -0.053173058 0.011921488
0.037227474 0.020978855 0.08190202 0.03445691 0.003128685 -0.03665294 0.014725711 -0.027813746
-0.0017837659 -0.055026893 0.06865629 -0.025608284 0.00623196 -0.017183479 -0.015545989 -0.026423762
-0.06007414 -0.012828282 -0.04681787 -0.045505963 -0.039015 -0.01325508 -0.0024915207 -0.034005553
0.047633566 -0.011284128 -0.015814854 -0.007999806 0.08425641 -0.04563693 -0.027596632 0.040926214
0.06989656 0.012314707 -0.0022077262 0.0097555 0.019983612 -0.05546224 0.07671088 0.032753248
0.068872124 -0.010078361 -0.07757552 -0.02194943 -0.050563704 0.012270516 0.0430969 -0.04914852
-0.03299097 0.009037254 0.032860927 0.038547482 0.04846927 -0.02469714 0.008919124 -0.039104734
0.030525098 0.037825122 0.032028653 -0.0059042126 -0.07247004 -0.011508136 0.024837878 -0.07523123
8.730218e-05 -0.015171203 0.05202473 0.0342031 0.0031167325 0.0041986844 0.06990366 0.054237865
-0.012230324 0.037828688 0.017190557 0.07933828 -0.010000018 -0.007920525 0.0035479832 0.0068989573
-0.0593895 0.052368738 -0.0704463 0.08776159 0.015120893 -0.071267694 0.03366927 0.018476665
0.0075865686 -0.053881474 -0.054444224 -0.024483534 -0.04093068 -0.010298493 -0.044507 -0.008370273
-0.017741565 0.042112656 -0.010814557 0.0037090853 -0.016980795 -0.051530086 -0.03204227 0.07145773
0.01676669 -0.0045038806 0.0192878 -0.058574576 0.012850199 0.03508013 -0.030146843 -0.037087988
-0.07142605 0.0022396296 -0.008312708 0.013066243 -0.032227736 0.0050821453 0.052445978 -0.034189645
0.058582522 -0.058208533 0.015328441 -0.0016887765 -0.028049907 0.08257964 0.00583246 -0.054083355
0.013774723 0.0051748636 0.010776137 -0.08589709 -0.020814272 -0.043032248 -0.08012225 -0.0709891
0.017799053 -0.035256043 -0.046825644 0.029718487 0.030714048 0.031225171 -0.0025808783 0.06308139

fc1.bias f4 [84]
00000000: 7ed7 f6bc 300a e53c 4e16 a63c 985f 5fbc
00000010: a726 82bc 7eaf 4ebc 7784 0dbd c144 6f3c
00000020: 328d 75bd 2628 bc3c 5821 57bc d0ac ec3c
00000030: e932 2abd 7e0b 3f3c 3006 39bb 62c1 b23c
00000040: 65c8 3e3d 56ac dd3c 04b5 9a3d 0eee 533d
00000050: 3b43 08bd 8598 0a3d 9123 143d 607d 2fbd
00000060: 36d3 0ebc 309f 8a3d 5da7 eb3c 16ea 0cbc
00000070: faf6 66bd c801 8a3d 707b 8fba 1fa4 cd3c
00000080: 0459 643c 9651 353c 6533 7b3d f1df e13c
00000090: 0784 9b3c 1ac0 a4bc 9949 87bc b885 8e3d
000000a0: c205 0d3d c88b 873d dc2e 12bc 187c ddbc
000000b0: d266 9abc 2ce0 99bc b8aa 2cbd 62ea 02bd
000000c0: 48e1 bb3a 972f 073d f810 f7bb dcff a43d
000000d0: 15ca d53c 02c8 a8bd 2581 de3c d660 633c
000000e0: 1c2a fa3c 0e50 abbd 3755 f2bc 668b 4d3d
000000f0: aec3 fa3c d519 8dbc a024 28bb 12bd 2ebd
00000100: 7a51 2ebd 5a93 8f3b 5040 4d3d dee6 863d
00000110: c874 033d 1021 f1bc f6bf 213d 992d ed3c
00000120: ce13 64bc d1be 13bc 6351 63bd da17 b33b
00000130: d4b8 77bd 004a f6bb c460 52bd 5825 36bd
00000140: 00ab 05bb b11a 3a3d 3f11 2b3c 1c1a 933c
-0.030132052 0.02795896 0.020274308 -0.013633631 -0.015887571 -0.012615083 -0.034550156 0.014603795
-0.059949107 0.022968363 -0.013130508 0.028890997 -0.041552458 0.011660455 -0.0028232448 0.021820728
0.04657783 0.027059715 0.07554057 0.0517407 -0.03326724 0.03383686 0.03616673 -0.042844176
-0.008717349 0.06768644 0.028766328 -0.008600732 -0.05638788 0.06738621 -0.0010946821 0.025102673
0.013937239 0.011066815 0.06132831 0.027572604 0.018983854 -0.020111132 -0.016514586 0.069590986
0.03442932 0.06618458 -0.008922305 -0.027036712 -0.018847857 -0.018783651 -0.042154998 -0.031961806
0.0014334107 0.03300437 -0.0075398646 0.08056614 0.026097337 -0.082412735 0.02716119 0.013878068
0.030537657 -0.083648786 -0.02958165 0.05018177 0.030610885 -0.017224232 -0.0025656596 -0.04266078
-0.04255817 0.0043815793 0.05011016 0.06587003 0.032093793 -0.02943471 0.03948971 0.028952407
-0.013920737 -0.009017662 -0.05549754 0.00546549 -0.060479 -0.0075161457 -0.051361814 -0.044469208
-0.0020396113 0.04543561 0.0104411235 0.017956786

fc2.weight f4 [10, 84]
00000000: a73c 6a3d b1d5 1abd a27c b33d 9458 203d
00000010: ca95 5fbd e9fa 8cbd 035d a8bc ec7a a9bd
00000020: f423 ac3a ded5 b53d ad6f acbc 94d2 5dbc
00000030: 0b81 3abd da6c 8a3d c29d 193d b233 bd3c
00000040: 8792 f73c 5755 8abc 6858 953d f6d9 c5bd
00000050: 3e59 2f3d a480 e63c 8c17 1b3d 5afc febc
00000060: 9799 3b3d 0ef6 843c fc07 a2bc 30db cdba
00000070: 78d0 8c3d fcd5 5bbd 6274 38bd f68c e7bd
00000080: 75e2 193d b230 023d d428 31bc e6cf 51bd
00000090: 00a6 423c 22e9 5b3c 63a1 d93c 9c75 dd3d
000000a0: b45f dd3c 0ab0 debc be7a aebc ae20 0bbd
000000b0: a2fd 1abd 3b09 77bd 6a04 b03d c073 d33d
000000c0: 1eb0 95bd e849 babc d8c6 ef3c 0ac7 c0bd
000000d0: 799b f5bc a8e2 263d b8d0 d63b 209e 4e3d
000000e0: a8bc d43d 15dd 4e3d eeb1 643d da19 b03d
000000f0: da0f 2c3d 8674 9abd 7851 cabc 3c52 b03d
00000100: d007 b93a 065c a53d d740 f0bc 37df 9b3c
00000110: aadc 973d 08ba a83b 9359 12bc 94a9 c1bc
00000120: 7766 523d 48c0 9c3c f916 8d3d 48b6 eabc
00000130: ec77 2a3d c77e b1bc e21c b73d 45ab 4cbd
00000140: 564b 263d d8e2 933c 32c9 023d c4f5 73bd
00000150: 3e54 ac3c 92cb 87bc 15f0 92bd 8402 e4bb
00000160: ba6c 8b3d 4e94 473d b4d4 093d ec03 f53c
00000170: 005f 66ba 9545 7c3c 0300 94bb 246a 55bc
00000180: 0097 abba 18bd 0e3c 8a05 723a bce2 513d
00000190: 3ce8 02bd cd5f 4f3c 53a6 70bc 6e9f 8a3d
000001a0: a0da 703a 51b5 953d 0eb5 9fbd 90cd 9c3c
000001b0: 1a03 383d 2b59 803d d9ae bfbd 4bfb bbbc
000001c0: fbb5 8dbd 8a68 d5bc 7688 3ebd 15d3 a6bc
000001d0: 18d4 7abd ba5d 0e3d 6448 623d fe04 a1bc
000001e0: bee3 93bc 1b72 813d 6262 a13d 87f8 e03c
000001f0: f258 843c 6830 c13d 8c9a 40bd 80f7 a3bc
00000200: f0b5 7d3c 08f9 7abc 83d2 293d 0bfc b33d
00000210: 2e4e 64bd 3188 f4bd 20ac 8a3d 3c0c 7cbd
00000220: fea5 843c 61af 24bd 44b9 82bd 44f4 c73b
00000230: 44d9 163d e6f6 87bd 0896 a7bc 8da4 a1bd
00000240: 783b 13bd 8ad1 6abd 6a14 0f3d 1a80 613d
00000250: 9bef b1bc 0007 27b9 380c 753d c115 92bd
00000260: 438d fdbb 1616 0d3d 7e03 87bd 3acf 3cbc
00000270: e087 1cbd 5480 5a3d a457 343d 3272 603d
00000280: dab0 4b3c 1cc1 bbbd d745 d23c 44d5 6dbc
00000290: 8a02 c53c 60db 98bd 3e37 563d 5959 a93d
000002a0: c8b4 9abc da2b 103d 193e 793d 0ac5 a03c
000002b0: 8226 ec3c 781b 053d a4a6 f03b cad7 82bd
000002c0: 7884 d3bd 91b5 4d3c 9ed6 2c3d 3381 41bc
000002d0: 848d cb3c fa36 913d 2128 0e3d 005c 16bc
000002e0: 61dd 11bd 5259 6cbd 00d6 1ebd 7cb1 a0bc
000002f0: 5135 b2bd b0a0 2c3d 0acb 9d3c 3da7 b0bd
00000300: a204 043d 10dd 9cba 6b60 f13c 1dec 56bd
00000310: 88a8 743d 2443 5e3d 4567 983d 74a8 553c
00000320: 7c95 26bc 52e4 0c3d 76d8 e03c 01b3 563d
00000330: 7207 9dbd d03c 6cbb fcd8 5b3d ebde 22bd
00000340: 9461 583c 240b 503c b87d 28bd d45e 4ebd
00000350: df5b 983d a0a5 3f3a 43f5 9fbd 5e5b 50bd
00000360: 9137 9f3d 5154 ffbb 28c9 42bd 1001 083b
00000370: fea1 753d 521a 0abb 755a aabd b8ad 20bd
00000380: 8cbc 5c3d b989 5e3d 7515 2d3d 43fa 6ebc
00000390: 7e52 753c 869b c6bc e5d8 6e3d d58b e63c
000003a0: d096 153c 93a0 353c f016 803d 07ef 633d
000003b0: c30b 5abd 1d95 f93c f1d7 c73c 23cf b53d
000003c0: d021 2bbd b07d 5f3c bdbd babd a287 c6bc
000003d0: 460f 08bd af82 8bbc a0af d13b 73ba 79bd
000003e0: 966d 0b3d 4839 a0bb 59db 48bd a0b4 b0bd
000003f0: fc71 98bc 526a abbd 873a 2e3d 5d52 2d3d
0.05718675 -0.03780145 0.08764006 0.039146975 -0.05458621 -0.06883795 -0.020552164 -0.082753986
0.0013133273 0.088786826 -0.021049345 -0.013538975 -0.04553322 0.06759043 0.037503965 0.02309594
0.030221237 -0.016886396 0.07292253 -0.096607134 0.042809717 0.028137513 0.037864253 -0.03112619
0.04580077 0.01623061 -0.019779198 -0.0015705582 0.068757 -0.05367087 -0.045032866 -0.11306183
0.037569482 0.03178472 -0.010812957 -0.051223658 0.011880398 0.013422282 0.026566213 0.10813448
0.027023174 -0.027183551 -0.021298762 -0.033966713 -0.03783954 -0.060311537 0.08594592 0.10324812
-0.07308982 -0.02274032 0.02926962 -0.09412964 -0.029981362 0.0407435 0.006555643 0.05044377
0.10387546 0.05050381 0.05583375 0.08598681 0.042007305 -0.07541756 -0.02469705 0.08609435
0.0014116708 0.08074193 -0.029327793 0.019027336 0.07415135 0.00514913 -0.008932489 -0.023640431
0.05136725 0.019134656 0.06889147 -0.028651372 0.041618273 -0.021666897 0.08941056 -0.049968023
0.04059919 0.018052503 0.031930156 -0.059560552 0.021036264 -0.016576562 -0.07174698 -0.0069583077
0.06807847 0.04872542 0.033650115 0.029909097 -0.000878796 0.015397449 -0.004516603 -0.013025794
-0.0013091266 0.008712076 0.0009232393 0.05124162 -0.031959757 0.012657118 -0.014688092 0.0676869
0.0009187851 0.07309974 -0.07798205 0.019140989 0.044924833 0.062670074 -0.093595214 -0.022946974
-0.06919476 -0.026050825 -0.046516858 -0.020364324 -0.061237425 0.034757353 0.05524482 -0.0196557
-0.018052932 0.06320592 0.07880093 0.027462257 0.016155694 0.09433061 -0.047022387 -0.020015478
0.015485272 -0.015318163 0.041460525 0.08788308 -0.05573862 -0.11940039 0.067711115 -0.061535105
0.016192432 -0.040206317 -0.06382993 0.006102117 0.036828294 -0.06638889 -0.020457283 -0.07892714
-0.035945386 -0.05732874 0.034931578 0.055053808 -0.021720698 -0.00015928969 0.059826106 -0.071330555
-0.007737787 0.03444489 -0.06592463 -0.011524016 -0.038215518 0.05334504 0.044028893 0.054796405
0.012432301 -0.09167692 0.025668068 -0.0145161785 0.024049062 -0.074637175 0.052298777 0.08268995
-0.018885031 0.03519807 0.060850237 0.019625206 0.028826956 0.0324969 0.007344084 -0.06388815
-0.10328001 0.012555496 0.042196862 -0.011810589 0.024847753 0.07090564 0.03470624 -0.009177208
-0.035611514 -0.05770237 -0.038778305 -0.019615881 -0.087015755 0.04214543 0.019261856 -0.08625648
0.03223098 -0.0011967737 0.029464921 -0.05247127 0.059731036 0.05426325 0.07441572 0.013040651
-0.010167476 0.03439743 0.027446967 0.052416805 -0.07667436 -0.003604699 0.05367373 -0.039763372
0.013206858 0.012697969 -0.04113552 -0.050383404 0.07439398 0.0007310752 -0.07810452 -0.050868385
0.0777427 -0.0077920337 -0.04755512 0.0020752586 0.05996894 -0.0021072817 -0.083180346 -0.03922817
0.05389075 0.05433056 0.04225679 -0.014586034 0.014973281 -0.024244081 0.058312315 0.028142849
0.009130195 0.011085647 0.06254375 0.055647876 -0.053233873 0.03046661 0.024394961 0.08877399
-0.041780293 0.013640806 -0.09118221 -0.024234597 -0.03321769 -0.017030088 0.00639911 -0.060968827
0.034040056 -0.004889641 -0.04903731 -0.086282015 -0.01860904 -0.08369888 0.042536285 0.042314876

fc2.bias f4 [10]
00000000: d41c 84bb 6ee0 a3bb 1dce 873d df26 fc3c
00000010: 74bc 95bd ba44 40bd 48cf 4c3d 0167 753d
00000020: db1b d73c a6a5 c9bb
-0.004031757 -0.0050011193 0.0663111 0.030780254 -0.07311335 -0.046940543 0.050002366 0.059912685
0.0262584 -0.00615378
