model_round_2.pt (torch, 251468 bytes, 10 tensors)

conv1.weight f4 [6, 3, 5, 5]
0	0xbd7acb85	-0.061229248
1	0xbc4a71a0	-0.012356192
2	0xbd6b79c5	-0.057489175
3	0x3dc0274c	0.09382495
4	0xbdba6822	-0.09101893
5	0x3db4152e	0.08793102
6	0xbd20231c	-0.039095983
7	0xbcf4e928	-0.029896334
8	0xbd6ee793	-0.058326315
9	0xbcf59237	-0.029976947
10	0xbb420dc4	-0.0029610256
11	0xbda99964	-0.0828121
12	0xbd251012	-0.04029853
13	0xbe021174	-0.1270197
14	0xbcf27ea5	-0.029601404
15	0x3d880dca	0.06643255
16	0xbd5cd54c	-0.053914353
17	0xbdca4700	-0.098768234
18	0xbc90f270	-0.017693728
19	0x3c7c3fc0	0.015396059
20	0x3d2bd576	0.04195162
21	0x3d3d9d48	0.046292573
22	0x3c1c4030	0.009536788
23	0xbc167240	-0.009182513
24	0x3cf1bc62	0.029508773
25	0x3d9af748	0.075666964
26	0x3c9b2ecc	0.018943213
27	0x3a80d650	0.0009829495
28	0x3be41ef4	0.0069616977
29	0xbd9281ff	-0.07153701
30	0xbb82f118	-0.003996026
31	0xbdd256ec	-0.10270485
32	0xbdb2d7df	-0.087325804
33	0xbd2eb402	-0.042652138
34	0xbc03210b	-0.0080034835
35	0xbdb16002	-0.0866089
36	0xbc9ed502	-0.01938868
37	0xbd77986d	-0.0604481
38	0x3b435e21	0.0029810744
39	0xbd7c4b24	-0.061595097
40	0xbd9d3a79	-0.076771684
41	0xbdc3deba	-0.09563966
42	0xbd214cab	-0.039379757
43	0x3d160e07	0.03663447
44	0x3cc34b97	0.023839755
45	0x3dd5226f	0.10406958
46	0xbb9c2d30	-0.004766129
47	0xbab3bde0	-0.0013713203
48	0x3c9d490a	0.019199867
49	0xbbd06a58	-0.0063603334
50	0x3cce670a	0.025195617
51	0x3ccee700	0.025256634
52	0xbcab87a4	-0.020938702
53	0xbcd5080e	-0.026004817
54	0xbd652c5c	-0.055950508
55	0xbc87f13f	-0.016594527
56	0x3d3548b3	0.044258785
57	0xbdf3daae	-0.11906944
58	0xbd89969b	-0.06718179
59	0xbd04d1a2	-0.032426484
60	0xbd59d030	-0.05317706
61	0xbcb8b738	-0.022548303
62	0xbd2446f8	-0.040106744
63	0xbd8da844	-0.0691686
64	0xbdc437cc	-0.09580955
65	0xbbfbfb96	-0.0076899035
66	0x3d20e36e	0.039279394
67	0xbd33b0eb	-0.043869894
68	0x3d8b6e65	0.068081655
69	0x3d1227a3	0.03568233
70	0xbd8fe9ab	-0.070269905
71	0xbd9e930c	-0.07742891
72	0x3af8b8e0	0.0018975995
73	0xbc8b2420	-0.016985
74	0x3c1a56ec	0.009420138
75	0xbd962d0a	-0.07332809
76	0xbd3430a6	-0.043991707
77	0xbc611db4	-0.013739992
78	0xbcc439a8	-0.023953274
79	0x3d0bf506	0.03416922
80	0xbd4e1dcc	-0.050321385
81	0xbdc1206a	-0.094300106
82	0x3b9b4b78	0.004739221
83	0xbb2a6f30	-0.0026006214
84	0x3ce0dc85	0.027448902
85	0x3c8a796c	0.016903602
86	0x3d94b286	0.07260613
87	0xbcefdfb8	-0.029281482
88	0x3dedc878	0.11610502
89	0x3d851db0	0.06499803
90	0xbc715b70	-0.014731273
91	0x3dcdd4be	0.10050343
92	0x3cc10ce5	0.023565719
93	0x3d20dfb4	0.03927584
94	0x3d7882ed	0.060671736
95	0x3d514d62	0.05109919
96	0x3d5f9feb	0.05459587
97	0x3d3ad0b6	0.0456092
98	0x3e0c68de	0.13711879
99	0x3d244c4a	0.040111817
100	0xbc56da95	-0.013113637
101	0xbd8c2643	-0.06843235
102	0xbdf16822	-0.1178744
103	0x3d1f6815	0.03891762
104	0x3d86707c	0.065644234
105	0x3cb10aed	0.021611655
106	0xbd91f14c	-0.07126102
107	0xba79ee80	-0.00095341355
108	0x3cac9ce8	0.021070912
109	0x3c7c56c8	0.01540155
110	0xbd4a7293	-0.049425673
111	0xbd34cc48	-0.04414013
112	0x3cc0f59c	0.023554616
113	0x3d9d9c04	0.07695773
114	0xbceaab0f	-0.02864602
115	0xbd2d6598	-0.042333215
116	0xbb579dd0	-0.003290046
117	0x3d44af55	0.048018772
118	0x3dc42bbd	0.09578655
119	0x3d94f378	0.072730005
120	0x3c48b865	0.012250994
121	0x3da48283	0.08032706
122	0x3d7ce100	0.061738014
123	0x3d74b755	0.05974515
124	0x3d066026	0.032806538
125	0xbd9af0ca	-0.07565458
126	0xbca705ea	-0.020388562
127	0xbdcb2351	-0.099188454
128	0x3ce2c01e	0.0276795
129	0x3da61c0e	0.0811082
130	0xbd587074	-0.05284162
131	0x3d5d5cb7	0.054043498
132	0x3d3d25d1	0.046178643
133	0x3dbd759a	0.09250946
134	0x3d6138bd	0.05498575
135	0x3d255ff8	0.040374726
136	0x3d7664f8	0.060154885
137	0x3bb683bf	0.0055699046
138	0x3d0b53f6	0.03401562
139	0x3cf798da	0.030224252
140	0x3b292010	0.0025806464
141	0x3d6cb538	0.05779001
142	0x3e0e6b5c	0.13908142
143	0xbccdefae	-0.025138702
144	0xbcd40a0f	-0.025883703
145	0x3c96751f	0.018366395
146	0x3de341a3	0.110965036
147	0xbc96db40	-0.018415093
148	0x3d341e22	0.04397405
149	0x3d06618e	0.03280788
150	0x3d276f41	0.040877584
151	0x3a27c240	0.000639949
152	0xbc54dc64	-0.012991998
153	0x3c1c8c63	0.009554955
154	0x3c79a5da	0.015237296
155	0xbb0629f8	-0.0020471793
156	0x3c315f80	0.010825992
157	0x3cf6dfc1	0.030135991
158	0xbd9a9096	-0.07547109
159	0x3cff3537	0.031153305
160	0xbd19be14	-0.03753479
161	0x3d05a8df	0.03263175
162	0x3cd93047	0.026512278
163	0xbdf09be7	-0.11748486
164	0xbc063e38	-0.008193545
165	0xbd036333	-0.032077026
166	0xbb71cdcc	-0.0036896346
167	0xbd914a51	-0.07094253
168	0xbc137350	-0.008999661
169	0xbddbc7d2	-0.10731472
170	0xbbbd99dc	-0.0057861637
171	0x3d021755	0.031760532
172	0x3bcc8698	0.0062416308
173	0x3c28052c	0.010255139
174	0x3c5cc097	0.013473651
175	0xbd7b60ee	-0.061371736
176	0x3ca6543d	0.02030384
177	0x3c9f4c0a	0.019445438
178	0x3dbddb6a	0.092703655
179	0x3d21f9e4	0.039544955
180	0xbd84d146	-0.06485228
181	0xbd92d600	-0.071697235
182	0xbd03e2e0	-0.032198787
183	0x3d09e7d4	0.033668354
184	0x3cffc3c7	0.031221284
185	0xbbb4f5c8	-0.0055224635
186	0xbdebce7c	-0.11513993
187	0xbc6a6e08	-0.01430846
188	0xbd70a235	-0.058748443
189	0xbce2de3b	-0.027693858
190	0xbad85932	-0.0016506074
191	0xbcda41e8	-0.026642755
192	0xbd45d011	-0.04829413
193	0x3aa1eee0	0.0012354515
194	0xbd94f73e	-0.0727372
195	0x3c2fd6d0	0.010732368
196	0x3d3d0482	0.046146877
197	0xbdd859a0	-0.105639696
198	0x3d301634	0.042989925
199	0xbd80cbb1	-0.06288851
200	0x3d9a379e	0.075301394
201	0x3d186db7	0.037214007
202	0xbd873940	-0.066027164
203	0x3c79e22c	0.0152516775
204	0xbca0a9d2	-0.019612227
205	0x3c994bfe	0.018712994
206	0x3e01a694	0.12661201
207	0x3c931d8c	0.017958425
208	0x3d3e8b51	0.04651958
209	0x3db06dd2	0.086146966
210	0x3d4a7d78	0.049436063
211	0xbc3388aa	-0.010957876
212	0x3c64b204	0.013958458
213	0x3c9391c9	0.018013852
214	0x3c20de48	0.009818621
215	0x3cfc733b	0.030816665
216	0x3d9d66e1	0.07685638
217	0x3d770d55	0.06031545
218	0x3d1cd43d	0.038288344
219	0xbc77f902	-0.015135052
220	0x3c5b78f8	0.01339554
221	0x3d77c871	0.06049389
222	0x3d6ad207	0.057329204
223	0x39979a40	0.0002891589
224	0x3d2e781f	0.042595025
225	0x3d543de5	0.05181684
226	0x3d47a0f8	0.048737496
227	0xbcea179f	-0.028575717
228	0xbd2a9efc	-0.041655526
229	0xbc803b32	-0.015653227
230	0x3d5bbbdc	0.053645954
231	0x3c6646d2	0.014054971
232	0xbc8c2398	-0.017106816
233	0xbd4675f8	-0.048452348
234	0xbd17ade8	-0.037031084
235	0x3d134ad5	0.035960037
236	0x3c26365c	0.010144796
237	0xbc2653d8	-0.010151826
238	0x3b13e020	0.0022564009
239	0xbcdaf425	-0.026727745
240	0x3cacc95c	0.02109211
241	0xbcf8d086	-0.03037287
242	0xbcb29cbb	-0.02180325
243	0xbc4483c4	-0.011994306
244	0xbc285146	-0.010273283
245	0x3d830c68	0.06398851
246	0x3d0c1da9	0.034207974
247	0x3da9edc9	0.08297307
248	0x3d431040	0.04762292
249	0x3d7335aa	0.05937735
250	0x3d445554	0.047932938
251	0x3d8bcb49	0.06825883
252	0x3ce74951	0.028233202
253	0x3a9d4300	0.0011998117
254	0xbbc1a01a	-0.005908978
255	0x3c88bdc4	0.01669205

conv1.bias f4 [6]
0	0x3da18d2d	0.07888255
1	0x3cfbac96	0.030721944
2	0x3cbc6b16	0.023000281
3	0xbd403f99	-0.04693565
4	0x3c8a3a8e	0.016873624
5	0x3dbe72ed	0.09299264

conv2.weight f4 [16, 6, 5, 5]
0	0xbd98166c	-0.07426152
1	0xbd4fd418	-0.050739378
2	0xbd1efea6	-0.03881707
3	0xbc221df0	-0.009894833
4	0xbd1b43b0	-0.03790635
5	0x3d60d10a	0.054886855
6	0x3cf1b6f6	0.029506188
7	0x3b193ce0	0.0023382232
8	0x3c528158	0.012848221
9	0x3d163c07	0.03667834
10	0xbd1260b6	-0.035736762
11	0xbc7a01e8	-0.015259244
12	0xbb85332d	-0.0040649385
13	0xbcb97b58	-0.022641823
14	0xbd32efd7	-0.04368576
15	0xbccf02bf	-0.025269864
16	0x3ca98fb7	0.020698411
17	0x3cd3d18f	0.025856761
18	0x3c97d2e4	0.018533178
19	0x3c8ee291	0.01744202
20	0xbc4e6d09	-0.012599238
21	0xbd96ed63	-0.07369497
22	0xbc44d117	-0.0120127415
23	0xbd786fea	-0.060653605
24	0xbd3b6310	-0.04574877
25	0x3ae15600	0.0017191768
26	0x3d2b10ba	0.041764
27	0x3d53267c	0.051550373
28	0xbc0ab9ff	-0.0084671965
29	0x3c60ee98	0.01372876
30	0xbd3bbf16	-0.04583653
31	0x3d1039bf	0.03521132
32	0xbd6f0afa	-0.058360077
33	0xbb3c9770	-0.0028776787
34	0xbcc218a1	-0.023693385
35	0x3ca4737c	0.020074598
36	0x3c28ba54	0.01029833
37	0xbc77ed08	-0.015132196
38	0xbd7e1980	-0.062036037
39	0xbdc2f53c	-0.09519431
40	0xbd494292	-0.049135752
41	0xbd2e1b3a	-0.042506434
42	0xbcb53607	-0.022120489
43	0xbc34e592	-0.011041062
44	0xbaef5fcf	-0.0018262806
45	0x3d393c99	0.045223806
46	0x3c15d9a6	0.00914613
47	0x3d6f995c	0.058495864
48	0x3cd75299	0.026284503
49	0x3d774a12	0.060373373
50	0xbc84f55a	-0.016230274
51	0xbcba2f33	-0.022727584
52	0x3d853fc2	0.065063015
53	0xbc2d1fbc	-0.010566648
54	0xbd4c096c	-0.049813673
55	0x3a6b1c00	0.0008968711
56	0xbd47ae6a	-0.04875032
57	0xbd4c3920	-0.049859166
58	0xbc59f164	-0.013302181
59	0x3d58bb91	0.052913252
60	0xbd22233d	-0.039584387
61	0xbcabc738	-0.020969018
62	0x3d38f224	0.0451528
63	0xbc482de0	-0.012217969
64	0x3b8d1a40	0.0043061078
65	0x3d8e7454	0.069557816
66	0x3c02c9d2	0.007982688
67	0x3c6bfc6b	0.014403443
68	0x3d8914a4	0.0669339
69	0x3d01a034	0.031646922
70	0x3daaaf00	0.0833416
71	0x3d3c49f1	0.045968954
72	0xbb5b074c	-0.0033421097
73	0x3be7631a	0.0070613744
74	0x3d05420c	0.03253369
75	0x3d34e2e0	0.044161677
76	0xbd5e4f2d	-0.054274727
77	0xbc65edfc	-0.014033791
78	0xbccfecfc	-0.025381558
79	0xbd55daba	-0.052210547
80	0x3c9a689d	0.018848712
81	0xbd627633	-0.055288505
82	0x3c91ea61	0.017811956
83	0x3d5932b1	0.05302686
84	0x3d47b90b	0.048760455
85	0xbd049c8b	-0.032375854
86	0x3d54e5fd	0.051977146
87	0xbce087eb	-0.02740856
88	0x3d38d64a	0.045126237
89	0x3c0ef938	0.008726411
90	0x3d570663	0.052496325
91	0x3cae4897	0.021274848
92	0x3db92bc3	0.0904155
93	0x3d70f342	0.05882574
94	0x3d5e4833	0.054268073
95	0x3c82f0fe	0.015984055
96	0x3d080e2c	0.03321664
97	0x3c585b80	0.013205409
98	0x3c61636a	0.013756612
99	0x3befb2d8	0.007315021
100	0x3cc0c032	0.023529146
101	0x3d78822c	0.060671017
102	0x3db0dc39	0.08635754
103	0xbb95855f	-0.004563018
104	0xbca1cece	-0.019751932
105	0x3cc5d709	0.024150388
106	0x3cef621e	0.02922159
107	0x3d10c414	0.035343245
108	0xb8b2ac00	-8.519739e-05
109	0x3d6c86ce	0.057745747
110	0x3d95552a	0.072916344
111	0x3cf396a8	0.029734924
112	0x3d10aaa3	0.03531898
113	0x3d628de6	0.055311106
114	0x3d0f85a5	0.035039563
115	0x3d373046	0.04472377
116	0x3cde435e	0.027131733
117	0xbbe75c78	-0.0070605837
118	0x3d2dd597	0.042440023
119	0x3c55507d	0.013019678
120	0x3d128203	0.03576852
121	0x3d5a01fb	0.053224545
122	0x3b198c78	0.0023429673
123	0x3d7f7025	0.06236281
124	0x3cb6d121	0.022316517
125	0x3d33fdc0	0.043943167
126	0xbc113db8	-0.008864813
127	0x3c849d1c	0.016188197
128	0xbce74420	-0.028230727
129	0xbd8aceb4	-0.06777707
130	0x3cef49ad	0.029209936
131	0xbc0e788c	-0.008695733
132	0x3d76b108	0.060227424
133	0x3bf89f7b	0.007587371
134	0x3cbd2280	0.02308774
135	0xbb815228	-0.0039465614
136	0xbc3be8bc	-0.011469062
137	0x3d034b6a	0.032054342
138	0xbcb8a802	-0.02254105
139	0x3b0aa70f	0.0021156704
140	0xbd8004ec	-0.06250939
141	0xbcb3cc47	-0.021947993
142	0x3d4b0a84	0.049570575
143	0x3c8384aa	0.01605447
144	0x3c7558b0	0.014974758
145	0x3d87fbb5	0.06639806
146	0xbc87eb19	-0.016591595
147	0x3d6638fc	0.05620669
148	0xbc07215c	-0.0082477
149	0xbc169128	-0.009189881
150	0x3d4b6b67	0.049662974
151	0xbd740ed9	-0.059584472
152	0x3bff8cb8	0.0077987574
153	0xbd21045a	-0.03931079
154	0x3d390300	0.045168877
155	0x3c4f768e	0.012662543
156	0x3c807091	0.015678676
157	0xbc2c1a08	-0.010504253
158	0xbcef1ec5	-0.029189477
159	0xbd7f7556	-0.06236776
160	0x3d86fa84	0.06590751
161	0xbbd6064c	-0.0065315124
162	0xbc49f838	-0.012327246
163	0xbca97c40	-0.02068913
164	0x3d807ed6	0.06274192
165	0xbcc64630	-0.02420339
166	0x3af6e350	0.0018836055
167	0xbcf318ab	-0.029674849
168	0x3ce523f6	0.02797125
169	0x3d0c2303	0.034213077
170	0x3bf01fdc	0.0073280167
171	0x3c138105	0.009002929
172	0xbd29d84a	-0.041466035
173	0x3d1e56f8	0.03865716
174	0x3d391d81	0.045194153
175	0xbc03844c	-0.0080271475
176	0x3c513a20	0.012770206
177	0xba2cf780	-0.00065981597
178	0xbcca3efd	-0.024688238
179	0x3cab5b9e	0.02091771
180	0x3c375e6c	0.0111919455
181	0x3cd3004e	0.025756981
182	0x3cbb765f	0.022883592
183	0x3d07f0af	0.033188518
184	0x3d96de8a	0.07366665
185	0x3c926569	0.017870622
186	0x3c196a24	0.009363685
187	0xbd2d1b00	-0.042262077
188	0xbc4b68d6	-0.012415132
189	0x3d8dfee0	0.06933379
190	0xbb10fb90	-0.00221226
191	0xbd77bb34	-0.060481265
192	0x3ca945b4	0.02066312
193	0x3d3fd0eb	0.0468301
194	0xbc833c22	-0.016019884
195	0x3b0abd08	0.00211698
196	0xbcbea33a	-0.023271192
197	0xbd57b786	-0.052665256
198	0x3babb6d8	0.0052403025
199	0xbd433e2e	-0.04766672
200	0x3c924b89	0.017858284
201	0x3d23477a	0.039863087
202	0x3c9df713	0.019282853
203	0x3d3d847d	0.04626893
204	0x3d14a939	0.036294196
205	0x3bdfebf8	0.0068335496
206	0x3d78d06a	0.060745634
207	0xbb7fa340	-0.0039007217
208	0x3d71e4bc	0.05905603
209	0x3d0e4f68	0.034743696
210	0xbd1224cc	-0.035679623
211	0x3cfd9ae0	0.03095764
212	0xbbc3fc70	-0.0059810206
213	0x3c134648	0.008988924
214	0x3da6b1ca	0.08139379
215	0x3d3cd931	0.046105567
216	0x3c63c210	0.013901249
217	0x3d2af75e	0.041739814
218	0xbcc9e3bd	-0.024644727
219	0x3c3851d6	0.01124998
220	0x3db6fa54	0.08934465
221	0x3dc93fcd	0.09826622
222	0x3c9072bf	0.01763284
223	0xbd10adb8	-0.03532192
224	0x3d04aa58	0.032389015
225	0x3d104dc8	0.035230428
226	0xbd43e070	-0.047821462
227	0xbc89c749	-0.01681866
228	0xbd28cbda	-0.041210033
229	0xbd9d4a3c	-0.07680175
230	0x3bc1fb4a	0.0059198486
231	0x3caf1c93	0.02137593
232	0x3caf6924	0.02141244
233	0x3b8f7190	0.0043775514
234	0x3b64da94	0.0034920322
235	0x3bb4e328	0.005520243
236	0x3ce9b3b2	0.028528068
237	0xbd765cf2	-0.060147233
238	0x3c96d7c5	0.018413434
239	0xbd5f7ade	-0.054560535
240	0xbcffcdcf	-0.031226067
241	0x3b0c5861	0.0021414983
242	0xbd3664a9	-0.04452959
243	0x3d1e8fec	0.038711473
244	0x39923c40	0.0002789218
245	0xba7a3488	-0.0009544571
246	0xbd08c97c	-0.033395275
247	0x3b81e358	0.003963869
248	0xbc9bef16	-0.019034903
249	0xbd1f8db2	-0.03895349
250	0x3c92791d	0.017880017
251	0xbbc7defc	-0.00609958
252	0xbd0f30a1	-0.034958486
253	0x3d4695a3	0.04848255
254	0x3cc3cb58	0.023900673
255	0x3cbce7f2	0.023059819

conv2.bias f4 [16]
0	0x3d5278d0	0.051384747
1	0x3d807784	0.06272796
2	0x3d5de034	0.054168895
3	0x3d5407b3	0.051765155
4	0xbcbeb801	-0.0232811
5	0x3d6d44a2	0.05792678
6	0x3d2d1d06	0.042264007
7	0x3d3b94da	0.045796253
8	0xbca94632	-0.020663355
9	0x3d6be9fb	0.057596188
10	0x3d1c7478	0.03819701
11	0xbc09bf20	-0.008407384
12	0x3d233fc5	0.039855737
13	0x3ad9eea0	0.0016626902
14	0xbcc6bdf0	-0.024260491
15	0x3d12566b	0.035726946

fc0.weight f4 [120, 400]
0	0x3ccd77cc	0.025081538
1	0x3c89cec0	0.016822219
2	0x3c929c4e	0.017896798
3	0xbcf654da	-0.030069757
4	0xbc8b7c02	-0.017026905
5	0xbd14fe01	-0.03637505
6	0xbc3b4dc9	-0.01143212
7	0xbc4f6424	-0.012658153
8	0x3b2d90fe	0.0026484127
9	0x3ca4c554	0.020113625
10	0xbb542728	-0.0032371972
11	0x3c93ed32	0.01805744
12	0x3c975a9b	0.018475821
13	0xbcba0ae4	-0.022710271
14	0xbaf07e80	-0.0018348247
15	0xbb3556d8	-0.002767017
16	0x3baed13a	0.0053350003
17	0x3a893e40	0.0010470822
18	0xbd0e6781	-0.034766678
19	0x3c710cac	0.014712494
20	0x3d29093b	0.04126857
21	0xbb8f3108	-0.0043698587
22	0xbc3f96bd	-0.011693654
23	0x3c6df3a2	0.014523419
24	0x3c71f8e2	0.014768811
25	0xbd4094f6	-0.04701706
26	0x3b7817f7	0.003785608
27	0xbc0db288	-0.008648522
28	0xbc6100e6	-0.013733124
29	0xbd031ca6	-0.032009743
30	0xbd06e2f8	-0.032931298
31	0xbb28fbac	-0.0025784774
32	0xbd069b90	-0.0328632
33	0xbc900091	-0.017578395
34	0x3cb89d60	0.02253598
35	0xbbc9cf94	-0.0061587784
36	0xba74ad90	-0.0009333724
37	0xbd085157	-0.033280697
38	0x3cade2f6	0.021226387
39	0x3cfb8b84	0.030706175
40	0xbcee4d7d	-0.029089684
41	0x3aa5577b	0.0012614572
42	0x3cc0a0b7	0.023514135
43	0xbc707089	-0.014675268
44	0xbbd25ee0	-0.0064200014
45	0x39f0fe20	0.00045965705
46	0x3d0c9ff8	0.034332246
47	0x3d2ba37a	0.04190395
48	0xbb61e5f4	-0.0034469338
49	0xbc2b5a02	-0.010458471
50	0xbd23415c	-0.039857253
51	0xbc7109ba	-0.014711792
52	0xb94ce0c0	-0.00019538682
53	0xbc732de4	-0.014842484
54	0xbca98e41	-0.020697715
55	0xbca050d2	-0.019569788
56	0x3cad5565	0.021158883
57	0xbcafdc3c	-0.02146732
58	0xbd172700	-0.036902428
59	0xbd02e15a	-0.031953193
60	0x3d2ea694	0.04263933
61	0xbd01ee2a	-0.03172127
62	0xbc6c66c4	-0.014428798
63	0xbc0cd1ee	-0.008594973
64	0x3a78df20	0.00094936974
65	0xbc0d70a6	-0.0086328145
66	0xbc5e2ad4	-0.013560016
67	0x3c123e81	0.008926035
68	0x3d1ecaad	0.038767505
69	0xbc585125	-0.01320294
70	0xba6077d8	-0.000856278
71	0xbc06abce	-0.008219672
72	0x3c93d9e9	0.018048244
73	0xbcc9f7b9	-0.024654256
74	0x3ba435e0	0.005011305
75	0x3d03cced	0.032177854
76	0xbc6eac5c	-0.014567461
77	0xbba0d314	-0.004907975
78	0x3d11c0b2	0.03558416
79	0xbc3ebbc9	-0.011641451
80	0x3cdd415e	0.027008709
81	0xbc8d4679	-0.017245518
82	0x3ba6bd26	0.005088466
83	0xbd2c2a48	-0.04203251
84	0x3d14a525	0.036290307
85	0x3c5d6109	0.0135119045
86	0x3c6c9ce1	0.0144417
87	0xbcce3ad1	-0.02517453
88	0x3c0aad32	0.008464145
89	0xbd2aa597	-0.041661825
90	0xbaa28b10	-0.0012401063
91	0xbcb2c0b5	-0.021820405
92	0xbc112e76	-0.008861175
93	0xbb7c2790	-0.003847573
94	0x3cc42c52	0.023946915
95	0xbc4c9c68	-0.012488462
96	0xbc91abb9	-0.017782079
97	0x3c577318	0.013149999
98	0x3ca7cdb4	0.02048383
99	0xbbb32b93	-0.005467841
100	0xbd28084e	-0.041023545
101	0x3cd8ccce	0.026464846
102	0xbbed3d2e	-0.007239959
103	0xbc8edb8c	-0.017438672
104	0x3c97d22a	0.018532831
105	0xbcfaf826	-0.030635905
106	0xbb480e34	-0.0030526044
107	0x3b0ac4a8	0.0021174345
108	0xbbb24d1e	-0.005441322
109	0xbcc30e0e	-0.023810413
110	0xbbad07f8	-0.005280491
111	0x3b4fa8f4	0.0031686397
112	0x3c085754	0.008321602
113	0x3c8c4264	0.017121501
114	0x3acf8510	0.0015832502
115	0x3c02285a	0.007944191
116	0xbcc6b930	-0.024258226
117	0xbcf9ba30	-0.030484289
118	0xbc12d5be	-0.008962093
119	0x3c9e032a	0.019288618
120	0x3d151b43	0.036402952
121	0x3d176f97	0.036971655
122	0x3c87db94	0.016584195
123	0xbc7557be	-0.014974533
124	0xbcaac0db	-0.020843914
125	0x3d30a748	0.04312828
126	0xbc41834b	-0.011811088
127	0x3d29004d	0.041260052
128	0x3caed9a4	0.021344014
129	0x3c5ad6ec	0.013356905
130	0x3b05ffe4	0.0020446712
131	0xbb312318	-0.0027028974
132	0xbcdaedcc	-0.026724719
133	0x3ac24fd0	0.0014824811
134	0x3c931978	0.01795648
135	0xbc343670	-0.010999307
136	0x3d0d66ac	0.034521744
137	0xbc985e32	-0.018599603
138	0x3b6624a0	0.0035117045
139	0x3cb9d484	0.022684343
140	0x3c022945	0.00794441
141	0x3c1fc906	0.009752518
142	0x3abd5ab0	0.0014446583
143	0x3c791f60	0.015205234
144	0x3ce8afc8	0.028404132
145	0x3d09d1d9	0.033647392
146	0x3c460579	0.012086266
147	0x38dcfe00	0.00010537729
148	0xbc4111e8	-0.011784054
149	0xbce7807d	-0.02825951
150	0x3b58224a	0.0032979422
151	0xbce4554a	-0.0278727
152	0x3ce9f4d3	0.028559124
153	0x3d1d7f20	0.038451314
154	0x3d012c9c	0.031536683
155	0xbb8fbbb4	-0.0043863896
156	0x3d0257d0	0.031822026
157	0xbca9b892	-0.020717893
158	0xbc9cd9d1	-0.019146832
159	0x3cb5585b	0.022136858
160	0xbc456920	-0.01204899
161	0xbcbc529e	-0.022988614
162	0xbbea3f4c	-0.007148659
163	0x3cc01563	0.023447698
164	0xbac7d160	-0.0015244894
165	0x3ba1a33c	0.004932789
166	0xbb223878	-0.0024752896
167	0x3cdf76af	0.027278272
168	0xbc8c534a	-0.01712956
169	0x3ca1cc83	0.01975084
170	0xbce53b80	-0.027982473
171	0x3a9cd218	0.0011964468
172	0x3d469b40	0.0484879
173	0xbc90d1b5	-0.017678121
174	0x3ca85564	0.02054853
175	0xbbf49908	-0.007464532
176	0x3c00b5a8	0.00785581
177	0xbafa4bc8	-0.0019096071
178	0xbc45c5bc	-0.012071069
179	0xbce17ae9	-0.027524428
180	0x3ca3e729	0.020007687
181	0x3ce3e37b	0.027818432
182	0xbd43cc84	-0.047802463
183	0xbc90959f	-0.01764947
184	0xbc4ab963	-0.012373301
185	0xbc2b56aa	-0.010457674
186	0xbc0a1c59	-0.00842961
187	0xbb070195	-0.0020600308
188	0x3cb29626	0.021800112
189	0xbc158a29	-0.009127178
190	0x3b41cf1c	0.002957291
191	0xbb990131	-0.0046693315
192	0xbcaaba2c	-0.020840727
193	0xbb91a440	-0.004444629
194	0xbc9e5572	-0.019327853
195	0x3cc94dff	0.024573324
196	0x3c610350	0.0137337
197	0x3accb310	0.001561733
198	0x3d10727c	0.03526543
199	0xbc0eaaf0	-0.008707747
200	0x3c219a86	0.009863501
201	0xbd23b089	-0.03996328
202	0xbcb13d6f	-0.02163574
203	0xbcbcc1af	-0.023041574
204	0xbd4225f0	-0.04739946
205	0xbbd08e04	-0.006364586
206	0xbc06e3ac	-0.008232992
207	0x3c43bd37	0.011946968
208	0xbb2dca44	-0.0026518265
209	0x3d14222c	0.0361654
210	0xbc33973f	-0.010961353
211	0xbbb06212	-0.0053827846
212	0xbc601578	-0.013676994
213	0xbc7b9866	-0.015356159
214	0x3cdfe645	0.02733148
215	0xbd277072	-0.04087872
216	0x3d212a3c	0.03934692
217	0xbce1caac	-0.027562462
218	0x3d2caec8	0.042158872
219	0xbc3537b0	-0.01106064
220	0x3c8e2629	0.01735218
221	0xbd3a5024	-0.045486584
222	0x3a0d1ae2	0.0005382729
223	0xbc17c253	-0.009262639
224	0x3cc9cc20	0.024633467
225	0x3cb427b7	0.021991594
226	0xbc89e9c1	-0.016835095
227	0x3c77a613	0.015115279
228	0xbc3df716	-0.011594554
229	0xbb079780	-0.0020689666
230	0xbc846b99	-0.016164588
231	0xbaf67f68	-0.001880628
232	0x3b063a8c	0.0020481674
233	0xbc686af0	-0.014185652
234	0x3cc1ba52	0.023648415
235	0x3bade5ba	0.0053069266
236	0xbc957b85	-0.018247375
237	0x3c9490a5	0.018135378
238	0x3c02bc44	0.007979456
239	0x3c3987d1	0.011323885
240	0xbc616399	-0.013756656
241	0x3bfbee68	0.0076883323
242	0x3d2bf306	0.041979812
243	0x3c338f2c	0.010959428
244	0xbaafb6c4	-0.0013405909
245	0x3c0fea9c	0.008783963
246	0x3c357f88	0.011077769
247	0x3c52a822	0.012857469
248	0x3c39b9a3	0.011335763
249	0x3d4ac6e4	0.049506083
250	0x3cbc0ed8	0.022956297
251	0x3c7f3c18	0.015578292
252	0x3bddb749	0.006766234
253	0x3d372b3c	0.044718966
254	0x3c918ed7	0.017768307
255	0x3d2454f2	0.040120073

fc0.bias f4 [120]
0	0xbc1b2c62	-0.009471031
1	0x3b94b63c	0.0045383256
2	0x3bf43ec0	0.0074537694
3	0xbabb72e8	-0.0014301213
4	0x3c00c709	0.007859954
5	0x3cb429d7	0.021992607
6	0xbb9864da	-0.0046506943
7	0xbcc75622	-0.024333064
8	0x3b27e216	0.0025616935
9	0x3c0d5d1c	0.008628156
10	0x3c949cae	0.018141117
11	0x3c7502a4	0.014954243
12	0x3cb0b8c6	0.021572482
13	0xb89c5700	-7.454865e-05
14	0x3d39377d	0.045218933
15	0x3c0e0da9	0.008670249
16	0xbc27f612	-0.010251539
17	0x3cd1ad95	0.025595466
18	0x3d264a65	0.040598292
19	0xbc1bd97d	-0.0095123025
20	0x3bb08d80	0.005387962
21	0xbc492711	-0.012277381
22	0x3cf18154	0.029480614
23	0x3ca5988d	0.020214343
24	0x3d4e558e	0.05037456
25	0x3d027aee	0.031855516
26	0xbc221cc8	-0.009894557
27	0x3c3b7dff	0.011443614
28	0xbc16a154	-0.009193737
29	0x3c5884c6	0.013215249
30	0xbc816d59	-0.015799211
31	0x3cfb5aa4	0.03068287
32	0x3d5aa506	0.053380035
33	0x3a958140	0.0011406317
34	0xbafa08d0	-0.0019076113
35	0x3c9107f2	0.017703984
36	0x3b50d680	0.0031866133
37	0x3c5c1864	0.01343355
38	0xbce50d6a	-0.027960498
39	0xbb358742	-0.0027699028
40	0x3d2af094	0.04173334
41	0x3d8a0dd3	0.06740918
42	0x3ce2f7e7	0.0277061
43	0x3af3d108	0.0018601725
44	0x3c9c0a96	0.019048017
45	0x3c9ab060	0.01888293
46	0x3d38bfb6	0.045104705
47	0x3b253b06	0.0025212183
48	0x3a7f1440	0.00097304955
49	0xbc6f5fed	-0.014610273
50	0xbc63cb68	-0.013903476
51	0xbc69728b	-0.014248501
52	0x3b09fce8	0.0021055285
53	0x3d4fdf56	0.0507501
54	0xbc22c545	-0.009934728
55	0xbd2d844b	-0.042362493
56	0x3d19d4f2	0.037556596
57	0x3c82dc0a	0.015974063
58	0x3d23a894	0.03995569
59	0xbb8f1dde	-0.004367574
60	0x3c8ee1ae	0.017441597
61	0xbc167042	-0.009182038
62	0xbcf7cc86	-0.030248892
63	0x3b413a74	0.0029484304
64	0x3b62c768	0.0034603719
65	0x3cccb0cd	0.024986649
66	0xbcd7b2ca	-0.02633037
67	0x3c4f567c	0.012654897
68	0x3c42862f	0.011872812
69	0x3c5dbbb8	0.013533525
70	0x3ca72f05	0.020408163
71	0xbceb332d	-0.028710926
72	0x3cb9f3a9	0.022699194
73	0xbcbf79a6	-0.023373436
74	0xbc78d742	-0.01518804
75	0xbc873a0e	-0.016507175
76	0x3c5f3a18	0.0136246905
77	0x3c0e8b28	0.00870017
78	0xbc90e70a	-0.017688293
79	0xbd009387	-0.031390693
80	0x3c0b1f5b	0.008491362
81	0x3d3e62f5	0.04648109
82	0xbcddd934	-0.02708111
83	0xbc31fbaa	-0.010863224
84	0x3be6168c	0.0070217308
85	0xbb791118	-0.0038004573
86	0x3cb1faae	0.021725979
87	0x3c8d101f	0.017219601
88	0xb9337720	-0.00017115148
89	0xbc810fc2	-0.015754584
90	0x3bda3f42	0.006660373
91	0x3d2ed002	0.04267884
92	0x3c17fc88	0.009276517
93	0x3c1501f8	0.009094708
94	0xbcf30c5d	-0.029668981
95	0xbc98cfe9	-0.018653827
96	0xbc564d67	-0.013079978
97	0x3d1affa3	0.03784145
98	0x3a8318f0	0.0010001939
99	0x3d149483	0.036274444
100	0x3d4b6b0e	0.049662642
101	0x3c6dc8f2	0.014513241
102	0x3cb22b5c	0.021749191
103	0xbcf7e5fc	-0.030261032
104	0x3ccf7fea	0.025329549
105	0x3c08b215	0.008343239
106	0x3c5a31dc	0.013317551
107	0x3d0a11c1	0.033708338
108	0xbc92b265	-0.01790733
109	0x3c4cc4ae	0.012498064
110	0xbbbe1abe	-0.0058015278
111	0x3c261474	0.010136712
112	0x3c6c82e2	0.014435502
113	0x3bf5f2d0	0.007505752
114	0xbc8b5ff7	-0.017013533
115	0x3cf7803e	0.030212518
116	0xbba61708	-0.0050686635
117	0xbc8ac217	-0.016938252
118	0x3baff59e	0.005369856
119	0xbc9b5d71	-0.018965455

fc1.weight f4 [84, 120]
0	0x3d543342	0.051806696
1	0x3d2108d7	0.03931507
2	0x3cf25e2c	0.02958592
3	0xbd667193	-0.056260657
4	0xbb8e47ba	-0.0043420466
5	0xbbb45cc8	-0.0055042244
6	0x3cbde1ec	0.023179017
7	0x3c8b3a3e	0.016995545
8	0x3d39c7a8	0.045356423
9	0x3dad00fc	0.084474534
10	0xbd03a9ac	-0.032144234
11	0xbc4c3da8	-0.012465872
12	0x3d332d8e	0.043744616
13	0x3b43a62f	0.0029853692
14	0xbad95290	-0.0016580392
15	0x3ca5bd8c	0.020231985
16	0xbd0e6385	-0.034762878
17	0x3d1310de	0.035904758
18	0x3d527894	0.051384524
19	0x3d017916	0.031609617
20	0xbb9118e8	-0.004428018
21	0x3d5f9c0d	0.05459218
22	0xbc5752ed	-0.01314233
23	0xbc88901c	-0.01667028
24	0x378ab000	1.6532838e-05
25	0x3ce8b673	0.028407311
26	0x3d8b646b	0.068062626
27	0xbc6649e0	-0.014055699
28	0x3cd333cd	0.025781536
29	0xbd2cc88f	-0.042183455
30	0x3d52f61e	0.051504247
31	0xbcbe2d30	-0.023214906
32	0xbd6255eb	-0.05525772
33	0xbc8aac32	-0.016927812
34	0x3c836bba	0.016042579
35	0x3b733ec8	0.0037116278
36	0x3cb3cc06	0.021947872
37	0xbcfa839e	-0.030580338
38	0xbb805368	-0.003916193
39	0xbd6e25d4	-0.058141544
40	0x3c7d578b	0.015462766
41	0xbd81cba0	-0.063376665
42	0xbd37fb40	-0.044917345
43	0x3c39b1f6	0.011333933
44	0x3c33bcb6	0.010970285
45	0xbd0edb70	-0.03487724
46	0x3c8ea7ef	0.017414061
47	0xbbf00300	-0.0073245764
48	0x3c89373b	0.016749969
49	0x3d1a3dde	0.037656657
50	0x3d024d1c	0.03181182
51	0x3d4f0c2a	0.05054871
52	0x3d816adb	0.06319209
53	0xbb0f0c10	-0.0021827258
54	0x3be2b1e6	0.00691818
55	0x3db4b480	0.0882349
56	0x3d4af364	0.04954852
57	0x3c8c04fe	0.017092224
58	0x3cb779e6	0.022396993
59	0x3d50b48b	0.05095343
60	0x3ca2b56f	0.019861905
61	0xbd3318a9	-0.04372469
62	0xbcca2df1	-0.02468011
63	0x3d217c4f	0.03942519
64	0xbd46b231	-0.04850978
65	0xbda1ac99	-0.078942485
66	0x3c4af67b	0.012387867
67	0x3d10bf91	0.035338942
68	0xbd9b9896	-0.07597463
69	0x3d87a37c	0.06622979
70	0x3c9cd2be	0.019143458
71	0xbd0de826	-0.034645222
72	0xbc3b923a	-0.011448437
73	0xbcc079a6	-0.023495506
74	0xbc88efa6	-0.016715836
75	0x3d9d4c94	0.07680622
76	0xbc7e0f81	-0.015506626
77	0xbd7f128e	-0.062273555
78	0x3c9e4675	0.019320706
79	0xbc0520a6	-0.00812546
80	0x3c13de98	0.009025238
81	0x3cda00ab	0.026611647
82	0xbc554640	-0.013017237
83	0xbc8bfdcc	-0.017088793
84	0x3ca6cc90	0.020361215
85	0x3c02a7fa	0.007974619
86	0xb90a6300	-0.00013197586
87	0x3c1834de	0.009289948
88	0xbce8cff7	-0.028419478
89	0x3d7a9939	0.06118128
90	0xbbcf35b0	-0.0063235387
91	0xbd937eb2	-0.072018996
92	0x3cd7006c	0.026245318
93	0x3bf1faf0	0.0073846504
94	0xbc8aea18	-0.016957328
95	0x3c3aa3ad	0.011391562
96	0x3cde0e1c	0.027106337
97	0xbc83defc	-0.016097538
98	0xbc0541cc	-0.008133363
99	0xbdb9b422	-0.09067561
100	0xbd23408f	-0.03985649
101	0x3d9201a4	0.07129219
102	0x39e15cc0	0.00042984448
103	0x3cb19f1a	0.02168231
104	0xbd8e5f99	-0.069518276
105	0xbd0d17e3	-0.03444661
106	0x3d7260c2	0.059174307
107	0x3d3ea6d0	0.046545804
108	0x3cc334e4	0.023828931
109	0xbbaa308c	-0.0051937755
110	0x3cea2498	0.028581902
111	0xbb4904a8	-0.0030672941
112	0xbc8b44c8	-0.01700057
113	0xbd21fb19	-0.039546106
114	0xbd104894	-0.035225466
115	0xbb300068	-0.002685571
116	0x3ca57cf0	0.020201176
117	0xbd256e13	-0.040388178
118	0x3d4261fd	0.04745673
119	0x3ccd51b9	0.025063382
120	0xbd5ffe9f	-0.054686185
121	0xbca7d410	-0.020486861
122	0xbceb9507	-0.028757585
123	0x3d2c9eb5	0.042143542
124	0x3d4be48c	0.049778506
125	0xbc5228ee	-0.012827141
126	0xbbfaf134	-0.007658148
127	0x3c76a75d	0.015054551
128	0xbcedefb0	-0.029044956
129	0x3c17c341	0.009262861
130	0x3a3344a0	0.0006838534
131	0x3da02c1e	0.07820915
132	0x3ae56920	0.0017502643
133	0xbd0a1a28	-0.03371635
134	0xbd36e404	-0.044651046
135	0xbd19d42b	-0.037555855
136	0x3d38a003	0.045074474
137	0x3d144fd1	0.03620893
138	0x3d9a5be2	0.075370565
139	0xbd8c6a3e	-0.068562016
140	0xbd595f22	-0.05306924
141	0xbc4bbba6	-0.012434876
142	0xbc9137c4	-0.017726786
143	0xbd9f1104	-0.07766917
144	0x3c210db4	0.009829927
145	0x3d687dfc	0.056760773
146	0x3d4479e4	0.047967806
147	0x3d8f660a	0.07001884
148	0x3d853d43	0.06505825
149	0x3d2207df	0.039558288
150	0x3c320de9	0.010867574
151	0x3c0554d2	0.0081378985
152	0x3ba38f06	0.004991415
153	0x3b4ba510	0.0031073727
154	0x3a4fdd40	0.0007929392
155	0xbd3e5e62	-0.04647673
156	0x3d890360	0.06690097
157	0x3c887df2	0.016661618
158	0xbd8d9642	-0.06913425
159	0x3d0bba4f	0.034113225
160	0x3d2a7a42	0.0416205
161	0x3d292a56	0.04130014
162	0xbd4a636a	-0.049411215
163	0xbc3eb158	-0.011638962
164	0xbc8ff901	-0.017574789
165	0xbd034826	-0.032051228
166	0x3cbd81f2	0.023133252
167	0x3d6a7745	0.05724265
168	0x3b4821a8	0.0030537639
169	0x3c9d55d0	0.019205958
170	0xbc8d8390	-0.017274648
171	0xbc4143bd	-0.011795935
172	0x3bd896d2	0.006609776
173	0x3c879e33	0.016554927
174	0x3af1ae70	0.0018438827
175	0x3bdaaa50	0.006673135
176	0xbd15185a	-0.036400177
177	0x3ca0de26	0.019637179
178	0x3d55f110	0.05223185
179	0x3c1c2886	0.009531146
180	0x3b809638	0.0039241575
181	0x3d04f46c	0.03245966
182	0x3d06ffc4	0.03295876
183	0x3daea9f1	0.085285075
184	0x3cd7b4ff	0.026331423
185	0xbd6ebaa9	-0.05828348
186	0xbc625982	-0.013815286
187	0xbdc6c0ca	-0.0970474
188	0xbd7b2171	-0.06131119
189	0x3c7fd815	0.015615483
190	0x3d64137c	0.055682644
191	0x3b75b518	0.0037491973
192	0xbc3b2339	-0.011421972
193	0x3b8efd88	0.0043637194
194	0x3cf98f4a	0.030463833
195	0x3c472f1a	0.012157226
196	0xbc1f0846	-0.009706562
197	0xbc03bddc	-0.0080408715
198	0x3c31772e	0.010831637
199	0x34bb0000	3.4831464e-07
200	0x3d11cddc	0.035596713
201	0xbd35c8be	-0.044380896
202	0x3d414f68	0.04719487
203	0xbd04b42e	-0.032398395
204	0xbd2ddf35	-0.042449195
205	0xbd2159be	-0.039392225
206	0x3b4df2ee	0.0031425315
207	0x3d1a422d	0.037660766
208	0xbd66e62d	-0.056371856
209	0xbcf14747	-0.029452933
210	0xbb74a540	-0.0037329942
211	0xbd71957e	-0.058980457
212	0xbcd273b0	-0.02568993
213	0xbd3c4e9e	-0.045973413
214	0xbc4da004	-0.012550358
215	0x3cf134ca	0.029444117
216	0xbcc53bef	-0.02407643
217	0xbd3ba810	-0.045814574
218	0xbd2508ee	-0.04029172
219	0x3c7e2be3	0.015513393
220	0xbd0c70f6	-0.034287415
221	0xbc731a49	-0.01483781
222	0xbd0cdb3f	-0.034388777
223	0xbceceaf3	-0.028920626
224	0xbb4bbe40	-0.003108874
225	0x3d2ab0b4	0.041672423
226	0x3cadedc2	0.021231536
227	0x3cf77827	0.03020866
228	0xbd6869cc	-0.05674152
229	0xbc9356e6	-0.017985772
230	0x38b10f80	8.442905e-05
231	0xbb800d48	-0.0039078332
232	0x3be52001	0.0069923406
233	0x3d0035ca	0.031301297
234	0xbdd15429	-0.102211304
235	0x3cf0940f	0.029367475
236	0xbc6ad0b2	-0.014331983
237	0xbd4506a1	-0.048102025
238	0xbcca292a	-0.024677832
239	0x3d380ca4	0.04493393
240	0x3d7986fe	0.060919754
241	0xbd79416e	-0.060853414
242	0x3d09c5f8	0.033636063
243	0xbbe1e2b8	-0.006893482
244	0xbd5d9318	-0.054095358
245	0x3c10bbec	0.008833867
246	0x3b186eec	0.0023259474
247	0x3b945708	0.0045269765
248	0xbd6aa773	-0.0572886
249	0x3ba71198	0.005098533
250	0xbd9c081a	-0.07618733
251	0x3c2cdbf0	0.010550484
252	0x3db23620	0.0870173
253	0x3bfee0a0	0.007778242
254	0x3d9c5be2	0.07634713
255	0xbc19d0f0	-0.0093881935

fc1.bias f4 [84]
0	0xbc8b8985	-0.017033348
1	0x3ced3fda	0.02896111
2	0xbcaa164c	-0.020762585
3	0xbc73a25e	-0.014870254
4	0xbb6ed04a	-0.0036440068
5	0xbca3ddf8	-0.020003304
6	0x3c063edd	0.008193699
7	0xbc8cfbe8	-0.017209962
8	0x3d0be1ab	0.03415076
9	0x3c0a94f4	0.008458365
10	0xbc934c06	-0.017980587
11	0x3d8a0150	0.067385316
12	0xbc45ddca	-0.012076804
13	0xbce6ec22	-0.028188769
14	0x3d5d478c	0.05402331
15	0x3d92fc82	0.07177068
16	0xbcddb892	-0.027065549
17	0x3db7ab1b	0.08968183
18	0x3c2a2761	0.010385365
19	0xbd1c6d12	-0.038189955
20	0x3d9a2446	0.0752645
21	0x3d2e9417	0.0426217
22	0x3d37576d	0.04476111
23	0x3d33379a	0.043754198
24	0xbc2da5b4	-0.010598589
25	0x3d3ac434	0.04559727
26	0xbcb6a267	-0.022294236
27	0xbcd692fe	-0.026193138
28	0xbb2eee18	-0.0026692208
29	0x3d71138c	0.058856532
30	0xbd555b1c	-0.05208884
31	0xbcae7406	-0.021295559
32	0x3c925037	0.017860515
33	0xbc933d23	-0.017973488
34	0xbd0ac01a	-0.03387461
35	0xbbf9c858	-0.00762276
36	0xbc9d8a0f	-0.01923087
37	0xbc4e3c82	-0.012587668
38	0x3bacdfba	0.0052756937
39	0x3c92a3cc	0.01790037
40	0xbbc79b78	-0.0060915314
41	0xbc509b10	-0.012732282
42	0xbda95b4a	-0.08269365
43	0xbd016d35	-0.03159829
44	0x3d187faa	0.037231125
45	0x3cd18d88	0.025580183
46	0x3b1662b4	0.0022947015
47	0x3d746d5e	0.059674613
48	0xbd1aa278	-0.0377526
49	0x3d1d41c8	0.038392812
50	0xbc140586	-0.00903452
51	0x3d2899a3	0.041162144
52	0xbd5a5192	-0.053300448
53	0x3c26a8c8	0.0101720765
54	0xbd54a4b4	-0.051914886
55	0xbd5562e0	-0.052096248
56	0x3b854328	0.0040668435
57	0x3cfa9170	0.030586928
58	0xbc68aeb0	-0.014201805
59	0x3d878f25	0.066190995
60	0xbd0174f0	-0.03160566
61	0xbb78cbf0	-0.0037963353
62	0x3d5fb3e7	0.054614928
63	0x3b4c3a80	0.0031162798
64	0x3d2a8004	0.04162599
65	0x3d3d3cb6	0.046200477
66	0x3d85508f	0.06509506
67	0xbcbc3302	-0.022973541
68	0x3cd97e97	0.02654962
69	0xbd0afa02	-0.033929832
70	0x3cf142be	0.02945077
71	0x3b5cc3a0	0.0033685938
72	0x3d7ed3e4	0.062213793
73	0xbcc42a74	-0.023946024
74	0xbcbc731f	-0.023004113
75	0x3cb6cab3	0.022313451
76	0x3d4e85ea	0.05042068
77	0x3c26e8c6	0.010187333
78	0xba401f61	-0.00073288946
79	0x3d18456b	0.037175577
80	0x3d15ca26	0.036569737
81	0x3d9c650c	0.07636461
82	0x3dc3cd1d	0.09560607
83	0x3c731ad8	0.014837943

fc2.weight f4 [10, 84]
0	0x3db5224d	0.08844433
1	0xbd2b1bbe	-0.041774504
2	0xbd0fcf22	-0.035109647
3	0x3ca1ab45	0.019734988
4	0x3cb59414	0.022165336
5	0x3c582424	0.01319221
6	0xbd1b032f	-0.037844833
7	0xbd991901	-0.07475472
8	0xbd5008cc	-0.05078964
9	0x3c21097c	0.009828921
10	0xbd313330	-0.043261707
11	0xbc3e4630	-0.011613414
12	0xbcc8d2d6	-0.024514597
13	0x3cccfee0	0.025023878
14	0x3d254089	0.04034475
15	0xbd4678e2	-0.048455127
16	0x3d6d7eb9	0.05798218
17	0xbcdf37be	-0.02724826
18	0x3d11ea7c	0.035624012
19	0x3c90edb0	0.017691463
20	0xbbfe2ca0	-0.0077567846
21	0x3d21e292	0.039522715
22	0xbcec04e7	-0.028810931
23	0x3d3257fb	0.043540936
24	0x3d0cbdfb	0.034360867
25	0xbb63a9bc	-0.003473862
26	0x3c57f683	0.013181332
27	0x3c8f7a66	0.017514419
28	0x3cac1de8	0.021010354
29	0xbd010acb	-0.031504434
30	0xbb4c40f0	-0.0031166635
31	0x3d814608	0.063121855
32	0x3d9737ee	0.073837146
33	0x3c0b9a90	0.008520737
34	0xbbd7db0a	-0.006587391
35	0xbca3106e	-0.019905295
36	0xbbb215b4	-0.005434716
37	0xba7d9320	-0.00096731074
38	0xbdbf8606	-0.09351735
39	0x3ce3fd8f	0.027830867
40	0xbd1ee9fa	-0.038797356
41	0x3d0fdb88	0.03512147
42	0xbd308caa	-0.043102898
43	0xbd65ee7d	-0.056135643
44	0xbd8b4a7b	-0.068013154
45	0x3c231308	0.009953268
46	0x3be4aef0	0.006978862
47	0x3d1b5745	0.037925024
48	0xbbd9e905	-0.0066500925
49	0xbd6616ca	-0.056174077
50	0xbcef67d0	-0.029224306
51	0x3cc4f22c	0.024041258
52	0xbdce80df	-0.10083174
53	0xbd14b718	-0.036307424
54	0xbd6b9a95	-0.057520468
55	0x3d007414	0.0313607
56	0xbc95e90b	-0.0182996
57	0x3db712c2	0.08939125
58	0x3d4bf3b2	0.049792953
59	0x3d45252e	0.04813116
60	0xbd467eb8	-0.048460692
61	0xbdae6b31	-0.08516539
62	0x3b50d5d0	0.0031865723
63	0x3c26eb26	0.0101879
64	0xbd2c9098	-0.042130083
65	0x3cc70b09	0.024297254
66	0xbca6af1a	-0.020347167
67	0x3d8cf60f	0.068828695
68	0xbc41ca00	-0.011827946
69	0xbccbef4c	-0.02489438
70	0xbd4fcb92	-0.05073125
71	0xbdc9dacc	-0.09856185
72	0xbc262af1	-0.010142074
73	0x3ca82ebe	0.0205301
74	0xbd7c9f32	-0.061675258
75	0x3bc4e258	0.0060084276
76	0x3d7e2504	0.06204702
77	0x3b96e4c4	0.0046049077
78	0xbcfc8466	-0.030824851
79	0x3c18e272	0.0093313325
80	0x3d23c035	0.039978225
81	0x3d8ec8da	0.06971903
82	0x3c46ee56	0.012141785
83	0x3c11bf6a	0.008895734
84	0xbb96262c	-0.004582187
85	0x3ddcf22e	0.107883796
86	0x3d1da751	0.038489643
87	0x3d9ed04d	0.07754574
88	0xbcfd8482	-0.030946974
89	0x3c8a0a66	0.016850661
90	0x3d80ce49	0.06289346
91	0xbca9dcba	-0.020735133
92	0xbc9c29dc	-0.019062929
93	0xbc461692	-0.012090342
94	0x3da103ac	0.078620285
95	0xbdb2b180	-0.08725262
96	0xbc3a958c	-0.011388194
97	0x3d6fcfd4	0.05854781
98	0x3cbb4220	0.02285868
99	0xbd3023a5	-0.043002743
100	0x3d521eac	0.051298782
101	0xbc5c3bc0	-0.01344198
102	0xbd636795	-0.055518705
103	0x3d9e365f	0.07725214
104	0xbdb6a11d	-0.08917449
105	0xbda68080	-0.08129978
106	0xbaa42a13	-0.0012524746
107	0xbd9d375f	-0.07676577
108	0xbcee37f4	-0.029079415
109	0x3da115c0	0.078654766
110	0x3bf555b0	0.0074870214
111	0x3b30f0d0	0.0026999004
112	0xbbbf19a0	-0.005831912
113	0x3b9bf5a8	0.004759509
114	0x3d20bbf6	0.039241754
115	0x3cc3b6aa	0.023890812
116	0xbcc30fdc	-0.023811273
117	0xbc92a6c6	-0.01790179
118	0x3d4bdc4a	0.04977063
119	0xbd2a2a54	-0.041544273
120	0xbd102751	-0.035193745
121	0xbd83c0dd	-0.0643327
122	0xbae23f40	-0.0017261282
123	0xbaa4c920	-0.0012572147
124	0x3cc72979	0.024311768
125	0xbc14b69c	-0.009076741
126	0x3d75015b	0.059815746
127	0x3cefc1f8	0.029267296
128	0xbdacd37a	-0.084387735
129	0x3d6584e1	0.056034926
130	0x3d1ecb87	0.038768318
131	0x3cb5b3c1	0.02218044
132	0xbd2e3a1e	-0.042535894
133	0x3d07dfc8	0.0331724
134	0x3d69b98c	0.057061717
135	0xbd5dce40	-0.054151773
136	0xbd6b754e	-0.057484917
137	0xbc8cf579	-0.017206894
138	0xbd5ce8cf	-0.05393296
139	0x3de5f759	0.112288184
140	0x3bbaf38e	0.0057053035
141	0xbc86ffc4	-0.01647938
142	0xbcdc169a	-0.026866246
143	0x3caf129c	0.021371178
144	0xbd6e1156	-0.058122
145	0xbc84f882	-0.016231779
146	0xbc0c7980	-0.00857389
147	0xbd6bdc3f	-0.05758309
148	0xbd350533	-0.04419441
149	0x3c7f7476	0.015591731
150	0x3c9ce8c9	0.01915397
151	0xbc2ed310	-0.010670438
152	0xbad00820	-0.0015871562
153	0x3d3af08b	0.045639556
154	0xbd9cf620	-0.07664132
155	0x3d1a0b93	0.037608694
156	0xbdc01d08	-0.09380537
157	0xbd03c47a	-0.032169797
158	0xbd550a83	-0.052011978
159	0x3d3a023d	0.04541229
160	0x3ae1e1e0	0.0017233454
161	0xbd727be5	-0.059200186
162	0xbdd63d58	-0.10460919
163	0xbd4c5bfd	-0.049892414
164	0x3d92551e	0.07145141
165	0x3c0040f6	0.007827988
166	0xba11d530	-0.00055630784
167	0x3d08ef28	0.033431202
168	0xbd2bb990	-0.041925013
169	0xbc9388e1	-0.018009605
170	0xbdc7ca30	-0.09755361
171	0x3d1dc84a	0.03852109
172	0xbca5a590	-0.020220548
173	0x3cfbe388	0.030748144
174	0xbc98f7fc	-0.018672936
175	0x3c9dee7c	0.019278757
176	0x3d9b2239	0.07574887
177	0x3d7e8234	0.06213589
178	0x3c67b49f	0.0141421845
179	0x3d5cf042	0.053940065
180	0xbc83391a	-0.01601844
181	0x3c7bccde	0.015368668
182	0xbd550736	-0.05200883
183	0x3d156fb2	0.036483474
184	0xbccfe75d	-0.025378877
185	0x3cefeb9a	0.029287148
186	0x3c3bd45a	0.011464203
187	0xbd3b0b82	-0.04566527
188	0xbd126ee6	-0.035750292
189	0xbbfcf442	-0.0077195475
190	0xbc6bb727	-0.014386929
191	0x3db472ae	0.08810936
192	0xbcfa9064	-0.030586429
193	0xbc8a3c68	-0.016874507
194	0x3c495153	0.012287456
195	0x3cf8f969	0.030392366
196	0xbd4ab04d	-0.04948454
197	0xbb412e58	-0.0029477086
198	0x3c3767c8	0.011194177
199	0x3cc9d669	0.024638372
200	0xbd280ca3	-0.041027676
201	0xbcc36c48	-0.023855343
202	0xbcdd234b	-0.026994368
203	0x3d3d1ab7	0.046168055
204	0xbcb0491f	-0.021519242
205	0xbcd9d4fc	-0.026590817
206	0xbd570cbb	-0.052502375
207	0x3dcba202	0.0994301
208	0x3cdfe5ae	0.0273312
209	0x3db85640	0.09000826
210	0xbcc95a5c	-0.02457922
211	0xbd8f1877	-0.06987088
212	0xbd93dee3	-0.07220247
213	0x3d3b6e07	0.045759227
214	0x3cee4127	0.029083801
215	0x3d374c3c	0.044750437
216	0xbd0b5939	-0.034020636
217	0xbc376e80	-0.011195779
218	0x3ce0dc80	0.027448893
219	0xbc467a98	-0.01211419
220	0xbc1a988e	-0.009435786
221	0xbd80d615	-0.06290833
222	0xbd1bd025	-0.0380403
223	0xbd8f1690	-0.06986725
224	0x3bd0f0bc	0.006376354
225	0xbc05d597	-0.0081686
226	0x3c0445c2	0.008073272
227	0xbd59af6b	-0.053145807
228	0x3bddab0c	0.006764775
229	0x3d368e04	0.04456903
230	0x3d009976	0.03139635
231	0x3c8a634e	0.016893055
232	0xbd35e693	-0.044409346
233	0x3d9f75c0	0.07786131
234	0xbd5c80d2	-0.05383379
235	0x3cac46c2	0.021029834
236	0x3b8a7db8	0.0042264126
237	0x3d5d587b	0.05403946
238	0xbd07bd63	-0.033139598
239	0x3c7f263c	0.015573081
240	0xbd6884ba	-0.056767203
241	0x3ad66bf0	0.0016359072
242	0x3cad97c2	0.021190528
243	0xbc430278	-0.011902444
244	0x3cfefa23	0.031125134
245	0xbd6547af	-0.055976566
246	0xbd22bd93	-0.039731573
247	0x3cc79100	0.024361134
248	0x3c077308	0.008267172
249	0xbce6d96a	-0.028179843
250	0x3de0abce	0.10970269
251	0x3d5233ab	0.051318806
252	0xbd861ad7	-0.06548088
253	0xbd12e0d5	-0.035858948
254	0x3bd174a0	0.0063920766
255	0xbd507bd0	-0.050899327

fc2.bias f4 [10]
0	0x3d407c08	0.046993285
1	0xbcf355d5	-0.029704014
2	0x3da78d9a	0.08181305
3	0x3ce2b152	0.027672444
4	0x3c95a7bf	0.018268464
5	0xbb9d878a	-0.0048074173
6	0x3d9fc66e	0.07801519
7	0xbb00f6ce	-0.0019678357
8	0xbd29c972	-0.04145188
9	0xbd342f4c	-0.04399042
