model_round_2.pt (torch, 251468 bytes, 10 tensors)

conv1.weight f4 [6, 3, 5, 5]
0.093581185 -0.025314208 -0.033508424 -0.051693775 -0.048631582 0.014956661 -0.0034340257 -0.062521234
-0.018242672 0.019223504 -0.033406116 -0.060380254 -0.09636313 -0.07713465 0.028683953 -0.11354694
0.053650033 0.036632825 -0.08699415 -0.027373813 -0.01968347 0.05655225 0.081695944 0.0784705
0.062138315 0.06931122 0.034840688 0.069621295 -0.0447065 -0.07148544 0.07374953 0.03149032
0.04818882 -0.055026725 -0.04478579 -0.041889258 0.05322579 -0.028932646 -0.104429826 -0.05978724
-0.054106552 -0.0052520633 0.031244904 -0.04736597 -0.090820685 0.05347445 -0.0056203576 -0.017407909
-0.10908803 -0.052477315 0.08233943 -0.02197759 0.082739666 0.013125069 0.026367372 0.07601273
-0.055939503 -0.02397709 0.028369077 0.0025337934 -0.056627326 -0.02785684 0.050020304 -0.003972996
-0.048560422 0.021756893 -0.0045293383 -0.08264719 0.020222804 -0.09077649 0.023434656 -0.022434447
-0.045025297 0.024920642 -0.05311592 -0.07294233 -0.05307799 -0.04352222 0.005106937 0.023039848
0.06687926 0.04675926 0.018473089 0.017540071 0.029739112 0.03613409 0.056666665 -0.06930329
-0.035394765 -0.05036889 0.0068833865 0.0046497677 0.07630406 -0.034028165 -0.026527949 -0.06820578
0.07284097 0.08027132 0.008341499 -0.0062152995 0.103490025 0.008906268 0.041313663 0.10996684
0.043972827 0.0009183474 0.049461234 0.028778542 0.048733573 0.032161694 -0.03383398 -0.091341086
0.059348933 -0.012074343 0.0012192279 -0.0030452758 -0.06833303 -0.10707228 -0.023124665 -0.017113868
0.0077945394 0.07216036 0.028395817 -0.03694303 0.023350481 0.059731256 0.13018256 0.074991606
0.029748926 0.0018313769 0.06130476 0.085738316 0.02690638 0.08425644 0.024279544 0.09688897
0.061693624 0.052766316 0.075771354 0.051699944 0.0179885 0.09628888 -0.030739073 0.017344259
0.07679944 -0.021757849 -0.0229317 -0.0396513 0.03912948 -0.073854014 -0.06948636 -0.092025995
-0.030603949 -0.111530654 -0.033337783 -0.068564504 -0.027702905 0.051605493 -0.033598945 -0.029809073
-0.08198072 0.009687958 -0.00083457306 -0.027146798 0.0599224 0.066663995 0.013817873 0.041570365
0.09010717 -0.08690727 -0.11984062 0.0040204674 0.025478663 -0.025934232 -0.06321825 0.03307849
0.02361331 -0.03819824 0.005864031 0.019933242 -0.00048696436 -0.028000485 0.00438161 0.025905203
-0.055624463 -0.0092366375 -0.05099559 0.019846283 0.017923705 0.020324651 0.04514616 -0.045080885
0.013081409 -0.023094978 -0.005363806 -0.020865459 -0.023671983 -0.03239612 -0.047022127 -0.07987968
0.073640324 -0.05770894 0.030952446 0.057383817 0.017968103 0.031883735 0.013266081 0.03315634
0.032967813 0.008685577 0.1046308 0.14513288 0.056761768 0.10030857 0.048736177 0.060600482
-0.014145918 -0.070133924 0.034516726 0.04565119 0.018617857 -0.07620367 0.068518035 -0.06445627
-0.00019033998 -0.0508806 -0.06252307 0.08243288 -0.07184389 0.052353557 0.030862778 0.0838085
-0.018824648 -0.0076305494 -0.008838122 -0.036238026 -0.01838088 0.004182741 -0.0026721992 0.02292972
-0.08391245 -0.017923163 -0.03221069 0.085319914 0.10853624 0.040081777 -0.016513724 -0.017360557
0.056927063 0.005688492 -0.053320017 0.052065782 -0.060386736 0.08673402 0.022161242 0.00032062829
00000000: 7ea7 bf3d be5f cfbc 2140 09bd dabc 53bd
00000010: e931 47bd c80c 753c 640d 61bb 220b 80bd
00000020: a871 95bc 9c7a 9d3c dad4 08bd 4951 77bd
00000030: 085a c5bd c5f8 9dbd 9cfa ea3c 4c8b e8bd
00000040: 23c0 5b3d 4d0c 163d fd29 b2bd 0c3f e0bc
00000050: 3a3f a1bc 55a3 673d 3450 a73d 24b5 a03d
00000060: bf84 7e3d 0af3 8d3d 1cb5 0e3d 9c95 8e3d
00000070: 2a1e 37bd f566 92bd fe09 973d fefb 003d
00000080: a461 453d b463 61bd 4e71 37bd 1294 2bbd
00000090: 4903 5a3d 2804 edbc 4edf d5bd 77e3 74bd
000000a0: d59e 5dbd 8019 acbb 50f5 ff3c d202 42bd
000000b0: 3200 babd 0608 5b3d fa2a b8bb 089b 8ebc
000000c0: 8c69 dfbd 74f2 56bd 93a1 a83d 590a b4bc
000000d0: 6a73 a93d 880a 573c 6300 d83c 90ac 9b3d
000000e0: d220 65bd 9a6b c4bc 4466 e83c 000e 263b
000000f0: 0ef2 67bd 0734 e4bc 17e2 4c3d e82f 82bb
00000100: 4be7 46bd 833b b23c d86a 94bb ee42 a9bd
00000110: 4baa a53c 06e9 b9bd 09fa bf3c 72c8 b7bc
00000120: 726c 38bd 6026 cc3c 1490 59bd ca62 95bd
00000130: 4e68 59bd 5b44 32bd 1858 a73b 10be bc3c
00000140: fef7 883d a386 3f3d e054 973c 32b0 8f3c
00000150: 709f f33c 5701 143d 4e1b 683d e2ee 8dbd
00000160: 1afa 10bd 9c4f 4ebd 088e e13b 145d 983b
00000170: 4e45 9c3d 1e61 0bbd 2451 d9bc 79af 8bbd
00000180: a52d 953d 4a65 a43d c8aa 083c b6a9 cbbb
00000190: 94f2 d33d 98eb 113c 8438 293d 4b36 e13d
000001a0: da1c 343d 40bd 703a dd97 4a3d fac0 eb3c
000001b0: db9c 473d fbbb 033d 8095 0abd 0911 bbbd
000001c0: de17 733d 77d3 45bc 80ce 9f3a 4093 47bb
000001d0: 30f2 8bbd b648 dbbd f06f bdbc 6232 8cbc
000001e0: 5669 ff3b d0c8 933d 589e e83c 9351 17bd
000001f0: 8249 bf3c c3a8 743d 944e 053e 3395 993d
00000200: 05b4 f33c d00a f03a b31a 7b3d 9297 af3d
00000210: c56a dc3c a48e ac3d e5e5 c63c b96d c63d
00000220: 74b2 7c3d 7e21 583d 032e 9b3d 52c3 533d
00000230: 9e5c 933c 1b33 c53d 82d0 fbbc 8c15 8e3c
00000240: 0649 9d3d 843d b2bc 43db bbbc 6769 22bd
00000250: 3c46 203d c640 97bd dd4e 8ebd 2078 bcbd
00000260: 22b5 fabc 2f6a e4bd 338d 08bd 8c6b 8cbd
00000270: 34f1 e2bc 4860 533d 0c9f 09bd 2832 f4bc
00000280: 82e5 a7bd 3eba 1e3c 40c7 5aba f662 debc
00000290: 3171 753d 2287 883d 5c64 623c b045 2a3d
000002a0: 1c8a b83d 70fc b1bd 006f f5bd 20be 833b
000002b0: a1b8 d03c 0774 d4bc 9278 81bd 507d 073d
000002c0: b370 c13c c275 1cbd 0f27 c03b 0a4b a33c
000002d0: 404f ffb9 4661 e5bc 9c93 8f3b 2637 d43c
000002e0: 7ad6 63bd 4455 17bc c0e0 50bd ac94 a23c
000002f0: bcd4 923c e27f a63c 2eeb 383d bca6 38bd
00000300: 6853 563c ae31 bdbc dec2 afbb 0aee aabc
00000310: bfeb c1bc cbb1 04bd 469a 40bd f597 a3bd
00000320: bdd0 963d 3660 6cbd fc8f fd3c 4b0b 6b3d
00000330: d831 933c 8598 023d fa59 593c f1ce 073d
00000340: 4209 073d f34d 0e3c ac48 d63d b79d 143e
00000350: 077f 683d 946e cd3d 969f 473d 3638 783d
00000360: 48c4 67bc 60a2 8fbd 6961 0d3d befc 3a3d
00000370: 7a84 983c ab10 9cbd 2f53 8c3d a601 84bd
00000380: 0096 47b9 2d68 50bd 180c 80bd 92d2 a83d
00000390: e422 93bd af70 563d f0d3 fc3c caa3 ab3d
000003a0: 2636 9abc b009 fabb c5cd 10bc 536e 14bd
000003b0: 8093 96bc 600f 893b 1020 2fbb 1cd7 bb3c
000003c0: 4ada abbd 99d3 92bc 5bef 03bd 35bc ae3d
000003d0: 4048 de3d ca2c 243d ca47 87bc ba37 8ebc
000003e0: 5a2c 693d 8866 ba3b 1766 5abd ee42 553d
000003f0: 1558 77bd 9ba1 b13d 7e8b b53c 001a a839

conv1.bias f4 [6]
0.024670638 -0.07885531 -0.006205243 0.0085020885 0.0024205912 0.07879275
00000000: 141a ca3c e57e a1bd 5a55 cbbb 584c 0b3c
00000010: c8a2 1e3b 185e a13d

conv2.weight f4 [16, 6, 5, 5]
0.04246885 0.04442726 0.07220758 0.011016294 -0.029597156 0.029487055 0.035132512 0.0031879954
-0.018547166 -0.040421683 0.01322907 0.018661577 -0.009075973 0.026105372 -0.01605825 0.027788356
-0.0070030726 -0.030775353 0.02275058 0.0189575 0.032147095 0.042645283 -0.06652514 0.0036124503
-0.0005075559 0.01799675 0.043844618 0.04693421 -0.033722114 -0.069421224 -0.03675701 -0.042273622
0.04357561 0.028495627 -0.062053464 -0.013589023 0.047586147 0.06900972 -0.032762058 -0.025311153
-0.033112228 0.029339593 0.013163523 0.027596045 -0.027387263 -0.0098748095 -0.027505761 0.058627587
-0.025162505 0.016360117 -0.011411868 -0.0036191437 -0.0077740215 -0.033528637 -0.009972254 -0.04893657
-0.052106116 -0.060880184 0.025914961 0.019692402 -0.08760677 -0.073274866 -0.012434361 0.0119428225
0.004190813 -0.08339145 0.019095574 -0.049900703 -0.0023431557 0.03152464 -0.015157085 -0.05873521
0.017055454 -0.020750891 -0.037929352 0.04309159 0.015361229 0.02334941 0.0413827 0.096595734
0.0063481424 -0.034457065 0.030032307 0.049229376 0.070143774 0.003653658 -0.049834847 -0.022880781
0.03981476 0.032812744 -0.026852973 0.06220945 0.02050544 0.055574793 0.06388393 -0.0032434985
-0.039185166 0.037011947 0.027469024 0.027151532 0.008208778 0.0036464622 -0.07466131 0.051953673
0.06942454 -0.07005219 -0.009854598 0.0115018375 -0.004157055 0.019060597 0.053051367 -0.049380578
-0.015471886 -0.06860877 -0.026956845 -0.055360302 -0.044420034 -0.011704777 0.009272859 0.047313325
-0.072772294 -0.07878864 -0.065827355 0.038290713 0.022809954 0.004885379 0.034330096 0.03993328
0.020450795 -0.0034536961 -0.024763368 0.00437102 0.08684978 -0.008357091 0.010922618 -0.03412617
0.053428873 -0.027555607 0.004339173 0.07441679 0.025911212 0.027977336 0.061264623 -0.041871633
-0.042421088 0.041664764 0.024059368 0.03124749 0.029325763 0.007314659 -0.009122313 0.017238803
-0.048899446 0.0042237975 0.005744587 0.020666718 -0.035553556 -0.049182925 0.048163116 0.04743466
0.03168515 -0.0111707235 -0.041118484 0.0059013725 -0.004044245 0.04735585 0.025864147 0.011794858
-0.060042582 -0.005649967 0.0384176 -0.038101442 -0.043555282 0.052136645 -0.001961168 -0.038331784
0.033111714 -0.025144119 0.007008435 0.01577092 -0.06600213 -0.027771141 0.002820937 -0.029704211
0.012349175 -0.009840187 -0.061589092 0.069747195 -0.039846815 -0.033961162 0.030506035 -0.034442004
0.02539805 -0.007756719 0.045038916 0.05087842 -0.03464594 -0.017853914 0.022966264 0.048711836
0.05925604 -0.051579162 0.03651654 -0.07708683 0.046260677 0.04670717 -0.03963785 0.011378042
-0.011739591 0.0075023137 0.05083046 -0.06814626 -0.043057803 -0.053773884 0.0054928213 -0.009979831
-0.010278686 -0.058507904 -0.058952134 -0.028419472 0.0038454626 -0.004521791 0.040402163 -0.033610374
-0.015766444 0.010379683 -0.04210679 -0.037564956 -0.047361057 0.08263932 -0.02373486 0.03208489
-0.0033159032 0.018763464 0.04757188 0.06050083 -0.052589893 -0.042797044 0.05088543 0.082551375
0.018320205 -0.021903085 -0.034430377 -0.0077745705 -0.008577097 0.011727003 -0.018697314 0.06899431
0.021970369 0.022323322 0.009381985 -0.0071916617 -0.031207345 -0.0111067165 -0.0024062283 0.003211354
00000000: d1f3 2d3d 5cf9 353d 91e1 933d b07d 343c
00000010: bc75 f2bc d68e f13c 1ce7 0f3d b0ed 503b
00000020: 3af0 97bc 3591 25bd bebe 583c 2ae0 983c
00000030: 64b3 14bc efda d53c 978c 83bc 68a4 e33c
00000040: 087a e5bb 981c fcbc 6d5f ba3c c24c 9b3c
00000050: acac 033d d2ac 2e3d 553e 88bd dcbe 6c3b
00000060: 800d 05ba ec6d 933c 6a96 333d 163e 403d
00000070: 3320 0abd b72c 8ebd 858e 16bd 1b27 2dbd
00000080: 577c 323d a96f e93c c62b 7ebd 7ea4 5ebc
00000090: b1e9 423d f854 8d3d 8231 06bd 5659 cfbc
000000a0: b0a0 07bd 9659 f03c d1ab 573c 1a11 e23c
000000b0: 415b e0bc f4c9 21bc c353 e1bc 7b23 703d
000000c0: 9921 cebc a705 863c d8f8 3abc 282f 6dbb
000000d0: 38bd febb 5355 09bd aa62 23bc b671 48bd
000000e0: 396d 55bd 805d 79bd 9d4b d43c f651 a13c
000000f0: 2e6b b3bd 2211 96bd 7db9 4bbc d4ab 433c
00000100: 1653 893b 23c9 aabd 526e 9c3c ae64 4cbd
00000110: a18f 19bb fb1f 013d 6c55 78bc 5594 70bd
00000120: e1b7 8b3c c6fd a9bc cf5b 1bbd cf80 303d
00000130: aaad 7b3c 4347 bf3c e880 293d fcd3 c53d
00000140: 1404 d03b da22 0dbd 5006 f63c bea4 493d
00000150: 8aa7 8f3d 3672 6f3b a01f 4cbd 7a70 bbbc
00000160: cd14 233d a866 063d c4fa dbbc 56cf 7e3d
00000170: 06fb a73c 65a2 633d 94d5 823d e090 54bb
00000180: a080 20bd d799 173d b806 e13c e46c de3c
00000190: 1c7e 063c 7cf9 6e3b 07e8 98bd 60cd 543d
000001a0: 742e 8e3d 8677 8fbd 2e75 21bc 3472 3c3c
000001b0: e837 88bb f824 9c3c 644c 593d 4a43 4abd
000001c0: cb7d 7dbc c182 8cbd 9ad4 dcbc 7cc1 62bd
000001d0: c8f1 35bd 65c5 3fbc 31ed 173c 9ecb 413d
000001e0: a409 95bd f05b a1bd 7ed0 86bd b9d6 1c3d
000001f0: f1db ba3c 8815 a03b b79d 0c3d 1491 233d
00000200: 6d88 a73c 6857 62bb 8cdc cabc c63a 8f3b
00000210: 4cde b13d 2eec 08bc c8f4 323c e2c7 0bbd
00000220: 3cd8 5a3d 4cbc e1bc 9f2f 8e3b d467 983d
00000230: c043 d43c ba30 e53c 9df0 7a3d 9781 2bbd
00000240: bcc1 2dbd aca8 2a3d 2718 c53c bcfa ff3c
00000250: 953c f03c cfaf ef3b c175 15bc 6438 8d3c
00000260: c94a 48bd c867 8a3b 173d bc3b 404d a93c
00000270: 9ba0 11bd 0974 49bd b046 453d d94a 423d
00000280: 4ac8 013d 6905 37bc db6b 28bd 4d60 c13b
00000290: 9685 84bb 35f8 413d 0ce1 d33c 383f 413c
000002a0: 36ef 75bd 5c23 b9bb c65b 1d3d 4210 1cbd
000002b0: 0667 32bd 3c8d 553d f086 00bb ca01 1dbd
000002c0: 26a0 073d 0afb cdbc 04a7 e53b 0432 813c
000002d0: 202c 87bd 4e80 e3bc 78df 383b 3f56 f3bc
000002e0: 3254 4a3c bc38 21bc d844 7cbd 9ed7 8e3d
000002f0: 6a36 23bd dc1a 0bbd cbe7 f93c 0f13 0dbd
00000300: 920f d03c 132c febb ba7a 383d e465 503d
00000310: e7e8 0dbd 5f42 92bc bf23 bc3c 1086 473d
00000320: 76b6 723d ac44 53bd 5e92 153d b3df 9dbd
00000330: d67b 3d3d 0450 3f3d 4c5b 22bd f86a 3a3c
00000340: 6a57 40bc f8d5 f53b 9a33 503d 4490 8bbd
00000350: 615d 30bd 0142 5cbd 20fd b33b 7282 23bc
00000360: ef67 28bc fca5 6fbd cb77 71bd f4cf e8bc
00000370: 2804 7c3b 882b 94bb bd7c 253d 08ab 09bd
00000380: a128 81bc 8c0f 2a3c 2b78 2cbd b6dd 19bd
00000390: abfd 41bd ce3e a93d 9c6f c2bc 726b 033d
000003a0: a04f 59bb d6b5 993c bbda 423d b8cf 773d
000003b0: 8068 57bd f44b 2fbd 3e6d 503d b210 a93d
000003c0: 4114 963c 196e b3bc de06 0dbd d3c1 febb
000003d0: f486 0cbc 9e22 403c 1c2b 99bc e44c 8d3d
000003e0: 34fb b33c 66df b63c e6b6 193c 08a8 ebbb
000003f0: 8ca6 ffbc f2f8 35bc d0b1 1dbb 9475 523b

conv2.bias f4 [16]
0.063662186 0.008942766 0.030442808 -0.00443626 0.010103925 0.020201089 0.06178137 0.02500587
-0.020673485 -0.0025583152 0.077907875 -0.024707587 -0.012132168 -0.015579927 -0.016153332 0.033131793
00000000: 5261 823d ae84 123c 3263 f93c 0c5e 91bb
00000010: ef8a 253c c17c a53c 760e 7d3d 1cd9 cc3c
00000020: 715b a9bc 68a9 27bb 2a8e 9f3d 9167 cabc
00000030: 00c6 46bc f342 7fbc fe53 84bc 34b5 073d

fc0.weight f4 [120, 400]
-0.0015885588 -0.020461332 -0.021200933 0.03812917 0.007607976 -0.0125922 0.008597257 -0.009071473
-0.015696082 0.00101412 -0.0062040305 -0.0014316402 0.019887792 0.012825829 0.01341927 -0.011002589
-0.017841084 0.022248115 -0.016454797 0.009721906 0.014323808 -0.0020260978 -0.0013081413 -0.0053888336
0.02348546 0.0031215493 0.031727377 0.00049589295 -0.0015921369 0.012784553 -0.0012654904 0.022103842
-0.0025087781 -0.014418451 -0.028591013 -0.04851377 -0.007546819 -0.03835502 0.015323958 -0.009985709
0.03318416 -0.013881946 -0.021776687 -0.0014708799 -0.024532814 -0.012785005 -0.039966892 0.014386925
-0.028606433 0.0044927318 0.023189362 0.051685225 -0.019080533 0.0019197785 0.04556708 0.005228393
-0.015254627 -0.0364888 0.010834548 0.004283794 0.003959438 -0.014513583 0.013110759 0.021976061
0.056104314 0.036280926 -0.0058765817 0.019356292 0.028796721 0.0494762 0.02066697 0.018698286
0.0413945 0.022739682 0.0345606 0.03770782 0.007075101 0.01415748 0.03688879 0.008536505
-0.023072464 0.015936572 -0.0066134147 0.008933993 0.0029240206 0.00767681 0.018134676 -0.01275629
-0.005518835 0.019625066 0.025255498 0.016320804 0.028892696 0.020535931 0.022345971 0.00850988
-0.003019097 -0.004821413 0.030782353 -0.055244096 0.027456528 0.027354682 -0.0046609594 -0.024123069
0.016524218 0.042648464 -0.05262267 -0.02416376 0.0050165607 0.004598151 -0.003616744 -0.0037803287
4.2765052e-05 -0.0036268411 -0.0042038355 0.03060933 -0.016534943 -0.02714296 -0.015260438 0.0064167725
0.0030829646 0.044304643 0.020235589 -0.0008956962 0.012243414 0.023792686 0.017032836 -0.013667896
-0.009087142 0.054852005 0.01652636 -0.0004989486 0.0146830315 -0.0016812384 0.003235248 -0.0016959945
-0.0003164116 0.022284383 0.006374688 0.02159039 0.004939424 0.019844342 -0.040624484 0.017344216
-0.003278396 0.03600753 -0.016667988 -0.0011658808 -0.019128397 -0.0093690865 0.002955167 -0.0055063423
0.018753942 -0.005647729 0.043101706 0.039139755 -0.021026954 -0.021781966 0.020927308 0.039988913
0.04475479 -0.009595251 -0.02186941 0.007976782 -0.0025390051 -0.025151508 -0.011142795 -0.0061574485
0.012853839 -0.026531192 -0.0052239294 -0.018857755 0.015862554 0.020750947 0.004469512 0.040688656
0.051171333 0.014112316 0.008351739 0.022638775 -0.0009192136 0.009489052 0.012187882 -0.032519203
0.009253784 0.0037158607 -0.014591317 -0.002023603 -0.0022490781 -0.047363453 -0.039634544 0.008625885
-0.002321993 -0.047445484 -0.013267516 -0.031659678 0.00751846 -0.004916422 -0.00347313 0.008185356
0.010135849 0.026871644 -0.0029372033 -0.0196206 0.001216986 0.018086422 -0.041411094 0.0128259305
-0.0076665496 0.019983504 -0.024844376 -0.038345277 -0.042376578 -0.002752616 0.016448837 -0.019376716
0.01762034 -0.03349723 -0.022784144 0.03975268 0.016384106 0.0010938612 -0.015252645 0.009758402
-0.0282028 0.01696381 0.0070567196 -0.019484248 0.011806872 0.012731193 0.03424669 0.008802531
-0.011008252 -0.0075431787 -0.019038592 -0.010625673 0.021636039 0.03332754 0.049168993 -0.018057466
-0.0120711755 0.035250947 -0.02112414 -0.015346516 -0.018055575 -0.03465518 -0.023117112 -0.010535597
-0.012572349 -0.025745053 0.038047828 0.009446235 -0.041028157 0.007310489 0.034587875 0.012510795
00000000: 3037 d0ba 869e a7bc 94ad adbc 552d 1c3d
00000010: 544c f93b 844f 4ebc 82db 0c3c 84a0 14bc
00000020: 1295 80bc 38ec 843a 2e4b cbbb e0a5 bbba
00000030: b9eb a23c 6d23 523c 7fdc 5b3c 3444 34bc
00000040: 7727 92bc ae41 b63c 36cc 86bc a148 1f3c
00000050: 68ae 6a3c 48c8 04bb f075 abba d094 b0bb
00000060: 9464 c03c e892 4c3b 91f4 013d d0fe 013a
00000070: 40af d0ba 4d76 513c d0de a5ba 1e13 b53c
00000080: 506a 24bb 5e3b 6cbc b337 eabc 60b6 46bd
00000090: 4e4b f7bb 271a 1dbd 5711 7b3c 199b 23bc
000000a0: 1dec 073d 1a71 63bc 0665 b2bc 8aca c0ba
000000b0: 0af9 c8bc 3378 51bc 53b4 23bd 23b7 6b3c
000000c0: 0a58 eabc c437 933b 9ef7 bd3c e3b3 533d
000000d0: c74e 9cbc 14a1 fb3a 8ca4 3a3d f052 ab3b
000000e0: 8bee 79bc 4875 15bd 6383 313c 125f 8c3b
000000f0: 2cbe 813b 61ca 6dbc 82ce 563c 2407 b43c
00000100: a3cd 653d 4f9b 143d 5790 c0bb 1691 9e3c
00000110: 1ae7 eb3c 8ea7 4a3d c74d a93c 262d 993c
00000120: 478d 293d 9248 ba3c 6a8f 0d3d 8473 1a3d
00000130: 40d6 e73b c6f4 673c b318 173d b2dc 0b3c
00000140: 7702 bdbc 6a8d 823c 58b5 d8bb e25f 123c
00000150: eda0 3f3b c08d fb3b 2c8f 943c c2ff 50bc
00000160: 58d7 b4bb bfc4 a03c 9ee4 ce3c 35b3 853c
00000170: 60b0 ec3c f83a a83c e60e b73c 066d 0b3c
00000180: 0bdc 45bb f2fc 9dbb 462b fc3c a247 62bd
00000190: 83ec e03c ed16 e03c f6ba 98bb be9d c5bc
000001a0: cc5d 873c 28b0 2e3d de8a 57bd 14f3 c5bc
000001b0: f661 a43b 16ac 963b e506 6dbb 64bf 77bb
000001c0: a05e 3338 4cb0 6dbb 54c0 89bb 6bc0 fa3c
000001d0: 4a74 87bc ea5a debc eb06 7abc ca43 d23b
000001e0: 900b 4a3b c978 353d 1bc5 a53c 28cd 6aba
000001f0: 9a98 483c e1e8 c23c 7288 8b3c 50ef 5fbc
00000200: 3ce2 14bc 7fac 603d 4a62 873c e0cb 02ba
00000210: 1991 703c 005d dcba 7406 543b 224c deba
00000220: 0ce4 a5b9 bd8d b63c c2e2 d03b 54de b03c
00000230: e4da a13b 9a90 a23c dc65 26bd 7515 8e3c
00000240: 5cda 56bb a27c 133d 4e8b 88bc 78d0 98ba
00000250: 28b3 9cbc cc80 19bc 7aab 413b 8c6e b4bb
00000260: dea1 993c 9610 b9bb 6a8b 303d 0251 203d
00000270: b840 acbc 1870 b2bc bf6f ab3c 6acb 233d
00000280: cc50 373d 6635 1dbc 7a27 b3bc 0cb1 023c
00000290: 7065 26bb 890a cebc 4590 36bc 6cc4 c9bb
000002a0: e998 523c f157 d9bc 7f2d abbb 947b 9abc
000002b0: 30f2 813c e4fd a93c fc74 923b 26a9 263d
000002c0: 0899 513d 5837 673c bbd5 083c f474 b93c
000002d0: 61f7 70ba f877 1b3c afaf 473c db32 05bd
000002e0: 2f9d 173c cc85 733b 6b10 6fbc 6d9e 04bb
000002f0: 4565 13bb 2e00 42bd d557 22bd 9553 0d3c
00000300: 942c 18bb 3256 42bd ff5f 59bc 94ad 01bd
00000310: 6a5d f63b f019 a1bb 749d 63bb df1b 063c
00000320: d510 263c ec21 dc3c 187e 40bb 61bb a0bc
00000330: 4683 9f3a fa29 943c ae9e 29bd da23 523c
00000340: ae37 fbbb 72b4 a33c 6f86 cbbc f00f 1dbd
00000350: 1093 2dbd 3c65 34bb b6bf 863c ebbb 9ebc
00000360: 8858 903c 6434 09bd d0a5 babc b5d3 223d
00000370: f637 863c e45f 8f3a 3be6 79bc b4e1 1f3c
00000380: 8f09 e7bc b0f7 8a3c 0e3c e73b 6e9d 9fbc
00000390: 9c71 413c 7e96 503c 4246 0c3d 7e38 103c
000003a0: f55b 34bc c52c f7bb d2f6 9bbc 4e17 2ebc
000003b0: 103e b13c 7582 083d 6d65 493d 40ed 93bc
000003c0: 2ec6 45bc 4c63 103d 880c adbc f46f 7bbc
000003d0: 49e9 93bc 97f2 0dbd 1960 bdbc 7f9d 2cbc
000003e0: 41fc 4dbc 4ae7 d2bc 0ad8 1b3d 62c4 1a3c
000003f0: 240d 28bd d48c ef3b 04ac 0d3d 14fa 4c3c

fc0.bias f4 [120]
0.0021986049 -0.028176617 0.026074503 0.022844357 2.0413543e-05 0.053623937 -0.0056554554 0.038833756
0.03973153 -0.031313274 -0.01617776 -0.019861875 -0.0032551214 -0.014733851 -0.049709216 -0.038607717
0.024798218 0.032441124 0.05209434 0.0046114274 0.018327221 0.008667678 0.014954981 0.016887058
-0.05591531 0.046150587 0.030401535 -0.009505579 0.023345377 -0.031246502 -0.03485811 0.010383991
0.04530797 -0.025462976 0.015827453 0.018575862 -0.020817561 0.055579185 0.04247259 0.030034393
-0.015194545 -0.018158112 -0.01413218 -0.0074232975 -0.0038028648 -0.0413905 -0.0056626545 0.032069318
-0.028132018 0.017725972 0.0018102727 0.041752495 0.019163504 -0.038589135 -0.016474564 -0.007755548
0.01619541 -0.00053870236 -0.01571487 0.024895886 0.042700656 -0.015656704 0.0065956716 0.030947056
0.00061523914 0.041475765 0.017973278 -0.038178723 -0.025850262 0.00212414 0.01520475 -0.0029936242
0.012147071 -0.021442285 0.022709709 0.012929626 -0.04166825 -0.019513153 -0.013426393 -0.037847206
0.043999024 -0.010913514 0.024519796 -0.015466038 0.0019059852 0.05523663 0.0067628417 0.009836846
-0.0027165175 0.021507442 -0.029049924 0.037960872 -0.031332612 -0.032071587 -0.03525078 -0.026624478
-0.009913547 -0.00061372295 0.015344953 -0.013591945 -0.0060189804 -0.034245916 0.037463814 -0.0013406815
-0.012805584 0.026079025 0.0167099 -0.010969678 0.010937605 -0.0056524714 0.027972285 0.020822039
0.05627696 -0.006601641 -0.012595948 0.007343405 -0.026307326 -0.021724245 -0.033993937 -0.0010406161
00000000: 7816 103b a6d2 e6bc 329a d53c 1724 bb3c
00000010: c03d ab37 c6a4 5b3d 6651 b9bb 2510 1f3d
00000020: 87bd 223d 5942 00bd 3987 84bc 5fb5 a2bc
00000030: e053 55bb 4066 71bc e49b 4bbd 2023 1ebd
00000040: a225 cb3c fce0 043d e060 553d 751b 973b
00000050: f822 963c e002 0e3c bd05 753c ba56 8a3c
00000060: 7407 65bd 6608 3d3d a40c f93c 4abd 1bbc
00000070: ce3e bf3c aaf8 ffbc 61c7 0ebd 9d21 2a3c
00000080: da94 393d bb97 d0bc 93a8 813c 682c 983c
00000090: 9789 aabc 00a7 633d bdf7 2d3d b00a f63c
000000a0: 8af2 78bc 52c0 94bc a98a 67bc 223f f3bb
000000b0: 7c39 79bb 1689 29bd ca8d b9bb 1e5b 033d
000000c0: 1e75 e6bc 0f36 913c ac46 ed3a aa04 2b3d
000000d0: c8fc 9c3c a40f 1ebd aaf5 86bc 4122 febb
000000e0: 3dac 843c b437 0dba 79bc 80bc 75f2 cb3c
000000f0: e2e6 2e3d 7d42 80bc 8120 d83b ae84 fd3c
00000100: 0048 213a 7ee2 293d b23c 933c 4b61 1cbd
00000110: eec3 d3bc 2835 0b3b 581d 793c ae30 44bb
00000120: 8204 473c bba7 afbc b609 ba3c c8d6 533c
00000130: 54ac 2abd 0cda 9fbc 60fa 5bbc ac05 1bbd
00000140: 5238 343d 98ce 32bc bddd c83c 4465 7dbc
00000150: 40d2 f93a ce3f 623d d49a dd3b b92a 213c
00000160: 9a07 32bb 6030 b03c 1bfa edbc dc7c 1b3d
00000170: a056 00bd 7f5d 03bd 1f63 10bd 941b dabc
00000180: 6e6c 22bc 40e2 20ba 6669 7b3c c0b0 5ebc
00000190: de3a c5bb 7245 0cbd a873 193d ceb9 afba
000001a0: 83ce 51bc aea3 d53c 33e3 883c 2aba 33bc
000001b0: a433 333c 5e38 b9bb 2226 e53c fb92 aa3c
000001c0: ab82 663d 9452 d8bb 3c5f 4ebc f2a0 f03b
000001d0: 7682 d7bc 0bf7 b1bc 3a3d 0bbd 4865 88ba

fc1.weight f4 [84, 120]
0.054823026 0.042837903 -0.029291013 0.030541984 0.03458719 -0.054251265 0.010685388 0.014421525
-0.01951088 0.047900237 0.0125452485 -0.01802439 0.061157763 0.0016736723 0.013701852 0.07883976
-0.023506938 -0.0002331622 -0.02877197 0.08019439 0.05231141 -0.04787499 0.027268888 0.057229396
-0.01707111 -0.034303717 -0.024026819 0.025653893 0.028923888 0.018586427 0.013444377 0.002962172
-0.0331177 0.008749647 0.033538576 -0.009824511 -0.031189494 0.023916729 0.00939594 0.014133396
0.0013616234 -0.04589027 -0.010414478 -0.035887185 -0.0061220136 -0.029467748 -0.040698364 0.019982869
0.06837688 -0.0008723773 -0.0592205 -0.033424273 0.004965026 0.0019243062 0.019485991 0.04668066
0.00788227 0.010281348 0.017799484 0.015537265 0.008331381 -0.046620302 -0.02217043 0.0867013
-0.006100597 -0.011858765 0.027838767 0.03739798 0.04381978 -0.03825561 0.00415501 -0.009639255
0.030105589 -0.010316594 0.013615904 0.01723015 0.03366746 -0.009788167 0.06091439 -0.017834052
0.040462237 0.055997916 -0.023538096 6.982032e-05 -0.0028391853 -1.5525147e-05 -0.05640178 -0.000866957
-0.06882037 -0.0136743095 0.06697965 0.03067781 0.05697065 0.037863564 0.005920967 0.059683807
-0.0059953425 0.035417207 -0.05113017 -0.06375283 0.020583222 0.02142152 0.011268148 0.04013478
-0.013290469 -0.024446992 0.047049783 -0.037678607 0.019521512 0.016636629 -0.00716462 -0.0055535045
-0.016960368 -0.03507331 0.036620192 -0.023677578 0.04574149 -0.05070316 -0.023524437 0.07352057
0.0039860397 0.037236992 8.6145476e-05 0.013779653 0.025026217 0.051121406 0.019821351 0.009558693
-0.039023023 -0.05211117 -0.056544952 0.05712852 -0.006824864 -0.034691013 -0.011688331 0.043162074
-0.051608175 0.09086237 0.06575064 -0.019651143 0.040969446 -0.008050159 -0.0303929 -0.0047779307
0.0017317098 0.059027933 -0.059610665 -0.035393044 0.06019097 0.06227521 0.007471795 0.08243111
0.029954351 -0.0076502184 0.0140988175 -0.04667087 -0.07400692 -0.013651318 0.07841244 -0.00044632703
-0.023533374 -0.018589363 -0.052723795 -0.0110296905 -0.0152792055 0.08138287 -0.00018613413 0.04687084
0.007641323 0.02298573 -0.028483339 -0.058444597 0.031945284 0.048543468 0.0016884394 0.0782823
-0.012105608 0.058796056 0.0446305 0.054229524 -0.016799485 0.054194074 -0.0149394795 -0.06758472
-0.028816923 0.049611993 -0.010335084 -0.064604335 0.0107845515 0.052716255 -0.052264426 0.023963219
0.037216656 0.047555786 -0.036924787 0.05715417 0.00011824258 -0.018559955 0.042855963 -0.017824087
0.055153254 -0.03165771 -0.007538121 0.036041275 0.036173556 0.0043567047 -0.020210475 -0.049692445
-0.041651968 -0.0044383826 0.051482335 -0.030151498 -0.03586688 0.062457044 0.05796958 -0.008958748
0.03776833 -0.028264211 0.07958907 -0.02503915 -0.049360387 -0.041542348 0.016022364 0.032570153
-0.009593854 -0.0076589137 -0.025281496 -0.005553495 -0.028526459 -0.034000933 0.01481741 0.061716244
-0.01104512 -0.017076038 0.08009352 0.0012653889 0.012397969 -0.047544144 -0.0037252381 -0.011347794
-0.019697353 -0.03683543 0.036449768 -0.027419176 -0.04051861 -0.014334083 -0.057449304 -0.0001391489
-0.034739126 -0.00067271665 0.009558074 0.05674211 0.049388587 -0.0070374347 -0.0013580909 -0.021332528
00000000: 1c8e 603d cc76 2f3d b5f3 efbc 2f33 fa3c
00000010: 4cab 0d3d 9336 5ebd c411 2f3c 4348 6c3c
00000020: 48d5 9fbc 0a33 443d 968a 4d3c e3a7 93bc
00000030: 9080 7a3d 205f db3a bc7d 603c bd76 a13d
00000040: 9f91 c0bc 007d 74b9 32b3 ebbc f53c a43d
00000050: 7d44 563d 9118 44bd 0163 df3c 5f69 6a3d
00000060: b6d8 8bbc 0e82 0cbd e4d3 c4bc 1d28 d23c
00000070: caf1 ec3c 9042 983c ce45 5c3c 0021 423b
00000080: 6da6 07bd ae5a 0f3c bf5f 093d fcf6 20bc
00000090: 1c81 ffbc 04ed c33c 6ef1 193c c28f 673c
000000a0: 8078 b23a 70f7 3bbd 7da1 2abc 71fe 12bd
000000b0: 2c9b c8bb 5966 f1bc 54b3 26bd 1db3 a33c
000000c0: 2d09 8c3d 40b0 64ba 3291 72bd e4e7 08bd
000000d0: a8b1 a23b 0039 fc3a 16a1 9f3c 3834 3f3d
000000e0: a324 013c 1973 283c 39d0 913c 0390 7e3c
000000f0: 5880 083c eef4 3ebd c39e b5bc 7490 b13d
00000100: 84e7 c7bb 444b 42bc 200e e43c a02e 193d
00000110: 5f7c 333d eab1 1cbd c026 883b f7ed 1dbc
00000120: ff9f f63c ee06 29bc 3e15 5f3c 3e26 8d3c
00000130: e4e6 093d 8c5e 20bc 5e81 793d b818 92bc
00000140: bbbb 253d 125e 653d f7d2 c0bc 806c 9238
00000150: a011 3abb 003c 82b7 8e05 67bd 8044 63ba
00000160: b2f1 8cbd 360a 60bc a02c 893d 0850 fb3c
00000170: 0e5a 693d d316 1b3d ac04 c23b 0277 743d
00000180: 9474 c4bb a211 113d de6d 51bd d890 82bd
00000190: 259e a83c 2f7c af3c 0a9e 383c 5e64 243d
000001a0: 44c0 59bc 0f45 c8bc 46b7 403d e254 1abd
000001b0: 94eb 9f3c 8a49 883c 30c5 eabb 2cfa b5bb
000001c0: 78f0 8abc 08a9 0fbd 0eff 153d 7bf7 c1bc
000001d0: 6e5b 3b3d 1eae 4fbd 52b6 c0bc f491 963d
000001e0: 539d 823b d185 183d 00a9 b438 0ec4 613c
000001f0: c803 cd3c ae64 513d 6360 a23c 109c 1c3c
00000200: 9bd6 1fbd 8672 55bd ae9b 67bd 98ff 693d
00000210: 1ca3 dfbb 2a18 0ebd 6a80 3fbc b7ca 303d
00000220: 1863 53bd 0d16 ba3d 46a8 863d 6ffb a0bc
00000230: 94cf 273d d0e4 03bc 88fa f8bc 3090 9cbb
00000240: 8afa e23a 46c7 713d 502a 74bd 4cf8 10bd
00000250: ce8a 763d 4a14 7f3d f6d5 f43b a4d1 a83d
00000260: d462 f53c afae fabb bafe 663c f429 3fbd
00000270: f190 97bd c7a9 5fbc b496 a03d 0001 eab9
00000280: 10c9 c0bc b848 98bc e8f4 57bd e0b5 34bc
00000290: a255 7abc 10ac a63d 002d 43b9 a3fb 3f3d
000002a0: 1064 fa3b 924c bc3c e455 e9bc 9a63 6fbd
000002b0: 0fd9 023d 84d5 463d a04e dd3a 7852 a03d
000002c0: 9a56 46bc 22d4 703d 79ce 363d c71f 5e3d
000002d0: 139f 89bc 9bfa 5d3d b8c4 74bc dc69 8abd
000002e0: 7811 ecbc f235 4b3d 7c54 29bc 474f 84bd
000002f0: b0b1 303c 00ed 573d 3913 56bd 834e c43c
00000300: 7e70 183d dbc9 423d 723e 17bd 7e1a 6a3d
00000310: 00f9 f738 0c0b 98bc bc89 2f3d d203 92bc
00000320: 61e8 613d 84ab 01bd 5802 f7bb 04a0 133d
00000330: b92a 143d b0c2 8e3b 7090 a5bc 4e8a 4bbd
00000340: 419b 2abd da6f 91bb 24df 523d 4600 f7bc
00000350: 26e9 12bd f5d2 7f3d 8371 6d3d b6c7 12bc
00000360: f7b2 1a3d 598a e7bc 98ff a23d e71e cdbc
00000370: 1e2e 4abd 4f28 2abd 5541 833c 4868 053d
00000380: 8a2f 1dbc a0f7 fabb 241b cfbc 18fa b5bb
00000390: 52b0 e9bc 9044 0bbd b9c4 723c 2cca 7c3d
000003a0: 97f6 34bc 0ce3 8bbc 1208 a43d 68db a53a
000003b0: da20 4b3c a6bd 42bd 2023 74bb 19ec 39bc
000003c0: 585c a1bc bfe0 16bd 5a4c 153d 2e9e e0bc
000003d0: d8f6 25bd 80d9 6abc f64f 6bbd 80e8 11b9
000003e0: 9d4a 0ebd 4059 30ba 7899 1c3c 6a6a 683d
000003f0: b04b 4a3d 489a e6bb f801 b2ba 8ec1 aebc

fc1.bias f4 [84]
-0.035231806 0.027450867 0.04125271 -0.028623315 -0.022031926 0.012243792 -0.013028843 0.004791785
-0.046638943 0.0030239262 0.04040031 0.062386967 -0.030859403 0.01621945 0.03247163 0.05107972
0.015489213 0.019874625 0.03443309 0.053166993 0.009325017 -0.016093027 0.024408447 -0.03892127
-0.007011961 -0.0071670646 0.07599344 -0.0009989887 0.011024992 -0.018191926 -0.029932216 -0.015992206
-0.001711566 0.03579112 0.040836968 0.004636731 -0.0014350293 -0.013539546 0.024007794 0.0074677416
-0.009409695 0.033165313 -0.022995412 -0.04255443 -0.04018078 0.033028558 0.048578363 -0.0035279808
0.05000397 0.01375201 -0.033427972 -0.0054702936 0.021485435 0.035444442 0.046706025 0.06863383
-0.014744899 0.023483012 -0.002820691 0.07179019 0.033332527 0.043829396 -0.060636014 0.015555825
-0.010647779 -0.037127227 -0.018624406 0.031668995 0.026831701 0.07006411 0.04817663 0.04133191
-0.018190736 0.0020223 -0.019257389 0.03174515 0.007148999 0.013153397 -0.015440558 0.030113878
0.031390842 -0.06043724 0.005861883 -0.019873876
00000000: 3a4f 10bd a4e0 e03c 9af8 283d 717b eabc
00000010: 4c7c b4bc 309a 483c ee76 55bc 6804 9d3b
00000020: 7a08 3fbd 102d 463b cc7a 253d 7a89 7f3d
00000030: dccc fcbc a7de 843c f900 053d f838 513d
00000040: 78c6 7d3c 1cd0 a23c b609 0d3d a2c5 593d
00000050: f5c7 183c 86d5 83bc 39f4 c73c e96b 1fbd
00000060: 98c4 e5bb b2d9 eabb 73a2 9b3d 80f0 82ba
00000070: 2ba2 343c 3c07 95bc 6834 f5bc 1602 83bc
00000080: a056 e0ba b699 123d aa44 273d b8ef 973b
00000090: 9817 bcba f9d4 5dbc feab c43c f5b3 f43b
000000a0: 1f2b 1abc 5ad8 073d e060 bcbc 8e4d 2ebd
000000b0: 9a94 24bd f448 073d 1bfa 463d b235 67bb
000000c0: f6d0 4c3d 1c50 613c c5eb 08bd 2640 b3bb
000000d0: 3902 b03c 312e 113d d14e 3f3d e58f 8c3d
000000e0: 9794 71bc 725f c03c 58db 38bb bc06 933d
000000f0: b087 083d 7486 333d 785d 78bd dcdd 7e3c
00000100: 0674 2ebc b812 18bd 3692 98bc 59b7 013d
00000110: 28ce db3c c67d 8f3d dc54 453d a64b 293d
00000120: bd04 95bc 9088 043b acc1 9dbc 3407 023d
00000130: 2642 ea3b 5881 573c 65fa 7cbc 61b1 f63c
00000140: af93 003d 0a8d 77bd 0a15 c03b 8ace a2bc

fc2.weight f4 [10, 84]
0.032078028 0.05191517 0.08684437 0.01609315 -0.0033213655 -0.015555035 -0.013983296 -0.01597324
-0.026627703 -0.0010757633 0.020420376 -0.010033051 -0.05410863 -0.05712328 -0.09843151 0.005389355
0.07117667 -0.05125423 -0.007881576 0.0369977 -0.058851175 -0.023949498 0.018215045 -0.051533803
-0.03433457 -0.016162194 0.0077297175 -0.0052257944 -0.030217487 -0.06973277 -0.0017716996 0.01490739
-0.018186172 0.03388711 -0.017604299 0.031793334 -0.065639004 -0.04904459 -0.0010198951 -0.002076894
0.028801471 -0.0015926026 0.107158974 0.05022304 0.014226514 -0.035979208 0.036686108 -0.054993078
-0.016235784 0.022389103 0.020039909 0.021653214 -0.09582403 0.014775023 -0.010545816 -0.03223152
-0.015283268 -0.079140745 -0.015672065 -0.002455412 -0.025864813 -0.024753913 -0.057711236 0.10518269
-0.017768707 -0.027848039 -0.024760883 -0.089516506 -0.06745814 -0.038518485 -0.046005145 0.007369144
-0.064490974 -0.04444095 0.0065130033 -0.012700012 -0.034425978 0.025589675 -0.04086324 -0.07127476
0.009896692 -0.067040294 0.036656722 0.048197467 -0.016465068 -0.011924172 0.008314449 0.04738338
-0.0485378 -0.03713668 0.012030944 0.0643971 0.02251282 -0.017985804 0.020365253 -0.0739979
-0.07262371 0.04954575 -0.021624044 0.07154327 -0.05875709 -0.07806891 0.046147443 -0.02799155
-0.01724177 0.03957621 0.019873692 0.101557404 -0.044300526 0.068014935 -0.016126314 -0.078746065
0.05611107 -0.046668008 0.10799135 -0.03028632 -0.014158197 -0.0025327802 -0.0221998 -0.00792232
0.018050686 0.02972171 -0.085523784 0.037480816 0.06317683 -0.054601602 -0.020693798 0.056110706
0.039977822 0.006069749 -0.014451144 -0.0014496036 -0.049236502 0.00423551 0.040781483 0.102637574
0.008491905 -0.055385318 -0.028632654 0.01848087 0.009014435 0.043240044 0.0062552504 -0.0028546564
0.009867183 -0.03519691 -0.06534592 0.01031347 -0.049994893 -0.055411577 -0.013032749 -0.01970691
0.06410656 0.051815633 -0.016627332 -0.025463242 0.053047992 0.032232147 -0.06142588 -0.016436232
-0.085738756 0.08172923 -0.06643216 -0.12223883 0.059857808 0.047629643 -0.015472936 -0.077823654
-0.006994708 0.059642456 -0.037273824 -0.0035208724 0.028098166 -0.0704179 -0.037360165 0.026417254
-0.029526897 0.06294608 0.044090047 0.011910308 0.002243517 -0.0050918907 0.05512108 0.0023669293
0.0095873885 0.06862544 -0.03065896 0.06379233 -0.025713246 -0.060678042 0.041672606 -0.016981617
0.01375691 -0.062300336 0.056346122 -0.023917565 -0.040207885 -0.037719715 0.06680376 0.011844352
-0.032848828 0.065975785 0.03446986 -0.022640007 -0.074664444 0.04269034 -0.07307811 -0.070633724
0.023855397 -0.012108404 -0.058638513 -0.005366752 -0.04402648 -0.005393843 0.08424182 -0.0034260303
-0.044093844 0.003239788 -0.08918923 0.0015347805 0.0036725886 -0.048120867 -0.07219333 -0.0050185993
0.048897013 0.048649706 -0.026053237 -0.018013388 -0.067900985 -0.026603326 0.02599213 0.03865225
-0.0059444597 -0.022590838 0.04242525 -0.0142661175 0.03479777 0.02032676 0.07196342 -0.034308188
-0.026715528 0.0984392 -0.042796075 0.0397173 0.07493776 0.028455574 -0.039946012 0.08600913
0.0069360975 0.021842267 0.01582541 -0.08623745 -0.062019024 -0.06882702 0.017305907 0.031685494
00000000: 4064 033d 00a5 543d 76db b13d c8d5 833c
00000010: 44ab 59bb 8cda 7ebc 321a 65bc 50da 82bc
00000020: 5722 dabc a000 8dba a248 a73c aa61 24bc
00000030: 03a1 5dbd 1afa 69bd 7696 c9bd 3099 b03b
00000040: 13c5 913d f5ef 51bd ba21 01bc e68a 173d
00000050: ee0d 71bd bd31 c4bc b837 953c 1c15 53bd
00000060: 68a2 0cbd 9466 84bc 9249 fd3b 243d abbb
00000070: aa8a f7bc 0ed0 8ebd 6038 e8ba 203e 743c
00000080: 2bfb 94bc 36cd 0a3d e436 90bc ba39 023d
00000090: be6d 86bd fbe2 48bd 00ae 85ba 801c 08bb
000000a0: 10f1 eb3c e0be d0ba 2a76 db3d adb6 4d3d
000000b0: 5316 693c ef5e 13bd 2c44 163d 6c40 61bd
000000c0: e800 85bc 5a69 b73c bc2a a43c 1562 b13c
000000d0: 643f c4bd f012 723c 5cc8 2cbc 3305 04bd
000000e0: ac66 7abc 8b14 a2bd b462 80bc faea 20bb
000000f0: 72e2 d3bc b8c8 cabc 9e62 6cbd 066a d73d
00000100: ae8f 91bc 9221 e4bc 56d7 cabc 6e54 b7bd
00000110: 7e27 8abd 8fc5 1dbd e46f 3cbd dc78 f13b
00000120: d813 84bd b707 36bd 086b d53b b613 50bc
00000130: 4102 0dbd 70a1 d13c 3660 27bd 80f8 91bd
00000140: bc25 223c 6c4c 89bd 5c25 163d b56a 453d
00000150: c0e1 86bc 9a5d 43bc 5439 083c 1315 423d
00000160: 92cf 46bd a21c 18bd 701d 453c a0e2 833d
00000170: ce6c b83c f756 93bc 08d5 a63c 368c 97bd
00000180: bdbb 94bd 7cf0 4a3d e824 b1bc 4785 923d
00000190: 46ab 70bd 98e2 9fbd 1a05 3d3d 894e e5bc
000001a0: 9d3e 8dbc aa1a 223d 27ce a23c 54fd cf3d
000001b0: 7874 35bd 6a4b 8b3d 551b 84bc 9e45 a1bd
000001c0: b9d4 653d f426 3fbd 922a dd3d 041b f8bc
000001d0: c8f7 67bc 00fd 25bb 5bdc b5bc 9ecc 01bc
000001e0: 08df 933c f27a f33c 1827 afbd 7c85 193d
000001f0: db62 813d eea5 5fbd 0a86 a9bc 57d4 653d
00000200: c9bf 233d bfe4 c63b 7ec4 6cbc a000 beba
00000210: 37ac 49bd 08ca 8a3b 7c0a 273d a633 d23d
00000220: a221 0b3c b7db 62bd 078f eabc 3265 973c
00000230: 48b1 133c 791c 313d d8f8 cc3b 3015 3bbb
00000240: f7a9 213c a32a 10bd 15d4 85bd d4f9 283c
00000250: 72c7 4cbd 40f7 62bd 5087 55bc 6370 a1bc
00000260: 4d4a 833d a13c 543d 0b36 88bc 4a98 d0bc
00000270: da48 593d db05 043d b499 7bbd 47a5 86bc
00000280: cd97 afbd a861 a73d 960d 88bd 5a58 fabd
00000290: 762d 753d 4d17 433d 3382 7dbc 0262 9fbd
000002a0: dd33 e5bb a64b 743d 70ac 18bd 70be 66bb
000002b0: 202e e63c 4337 90bd f906 19bd ff68 d83c
000002c0: 64e2 f1bc e0e9 803d c497 343d 7423 433c
000002d0: f807 133b e0d9 a6bb a4c6 613d 7c1e 1b3b
000002e0: 6c14 1d3c 7f8b 8c3d 8028 fbbc 8ea5 823d
000002f0: 96a4 d2bc 8a89 78bd e5b0 2a3d 081d 8bbc
00000300: aa64 613c a32e 7fbd 31cb 663d c5ee c3bc
00000310: 06b1 24bd fd7f 1abd 69d0 883d d00e 423c
00000320: 7e8c 06bd 501e 873d 4530 0d3d 8977 b9bc
00000330: ace9 98bd 11dc 2e3d faa9 95bd 6aa8 90bd
00000340: 656c c33c 5462 46bc f02e 70bd 94db afbb
00000350: 1c55 34bd d6be b0bb fa86 ac3d 4087 60bb
00000360: bf9b 34bd a052 543b d8a8 b6bd b02a c93a
00000370: d0af 703b 631a 45bd 19da 93bd 1073 a4bb
00000380: 3c48 483d ea44 473d 996d d5bc d090 93bc
00000390: ac0f 8bbd 38ef d9bc 73ed d43c d251 1e3d
000003a0: bec9 c2bb 6c10 b9bc 19c6 2d3d 6fbc 69bc
000003b0: 1b88 0e3d 4e84 a63c 8f61 933d be86 0cbd
000003c0: 86da dabc 7e9a c93d f04a 2fbd 9cae 223d
000003d0: f878 993d aa1b e93c 6e9e 23bd 8e25 b03d
000003e0: 3448 e33b 8eee b23c 4aa4 813c 439d b0bd
000003f0: a907 7ebd 2ef5 8cbd 1ec5 8d3c a6c8 013d

fc2.bias f4 [10]
-0.020107077 -0.002389538 0.007019665 0.015725303 0.0152342655 0.008061187 0.068977155 -0.08233452
-0.042194046 -0.010362681
00000000: 99b7 a4bc cc99 1cbb 3805 e63b 5ad2 803c
00000010: 2499 793c 1213 043c e543 8d3d 009f a8bd
00000020: aad3 2cbd 3cc8 29bc
