model_round_1.pt (torch, 251468 bytes, 10 tensors)

conv1.weight f4 [6, 3, 5, 5]
00000000: 725f 1f3d 1427 17bd 800c bd3b a90a 0bbd
00000010: faa6 70bc 0035 0e39 a7f3 f13d 2809 b5bb
00000020: 33c4 febc b8ae bebb 0e1c e83c eb21 843d
00000030: 3c6a 23bc 321a cbbd 1ad5 9f3d 93e0 013e
00000040: 5222 7a3d 8c24 853d 7a27 93bd b052 f53d
00000050: a416 ce3d 4f27 083d 7843 c83c 06b8 dcbc
00000060: 485e 16bb c48a 1f3c dc69 0e3b e01b 8f3b
00000070: d2f6 3f3d a511 b53c 3869 ecbc 322e e33d
00000080: e75b 34bd 72f8 03bd ad13 a03c e42f ca3d
00000090: 43f3 fc3c a5e2 48bd 839c 5c3d 0a18 2dbc
000000a0: 65d6 0cbc 5a11 6c3d 2ed9 513c d9a5 1f3d
000000b0: de0f ab3d 3faa 07bd 7871 463d c013 22bd
000000c0: 36cf c13d 588f cd3d 047c fd3c 523e 0b3d
000000d0: 6b20 a0bb 250c 61bd ca4a 983b 0b7d 403d
000000e0: 3394 a6bc 1013 913c 1542 a1bc 6865 5c3d
000000f0: 5c89 c63c c9fa 633d e2a5 123d d521 11bd
00000100: 9c08 73bd 6623 8b3d 157e 2fbd 1c08 f63b
00000110: 20ca a03d ac1f 82bd efae 5ebc 135e 023d
00000120: 5bdc 2c3d 2050 7dbb ff7c e13c 2753 9dbb
00000130: 40f6 443d f1ca 6b3d 67a8 593d ad51 ba3c
00000140: 0d86 04bc aef3 b9bd 95fa c5bc 92cd 47bd
00000150: d834 40bd 192b 983d 90cc 95bb 28a0 b43d
00000160: a070 a7ba d478 303d 6853 81bd 60af f6bc
00000170: 3156 753c c960 ba3c da5d 5fbc 8e07 ae3c
00000180: 187a af3c 4298 5e3d 8084 2c3b 83d6 d5bc
00000190: f31e b2bc 18fa c13b 5483 7a3c 8290 2dbc
000001a0: 4bb4 2e3d 58d9 323c 4f6e 9b3c 629d 7a3d
000001b0: 7d62 b8bc 4c48 b93d ae5c f83c b0e3 153c
000001c0: 0f28 0ebd eab7 b5bd c1cf 2a3d fff8 d83d
000001d0: e505 943d fb1b 913d 3e7c ca3d ebbb b63d
000001e0: aab8 183d ace7 273b 1c6e 9f3c a427 8b3d
000001f0: 089f 6a3c 3442 c43c 2ec5 2b3c cd9c e93c
00000200: 026f 063d 4693 b43d 91a0 5c3d 68b7 e5bc
00000210: 32a2 5b3d ec18 0e3e 0d4f ae3d df46 afbc
00000220: 69ea 9a3d 94d8 273d ac5e a23d 9fce 2f3d
00000230: bb4f b23c 563c 903d 46b9 8c3c c44b 253d
00000240: 9327 e83c 4cf0 513d 20ca 033e 3afc f33d
00000250: 5714 883c 916d a83d 61c5 953c 7858 9abd
00000260: a032 a03c c25d c23c 5e1d 81bd 56ce 28bd
00000270: ce1f 4bbd 275e 0bbe 7236 5c3d 0f92 4ebd
00000280: 6da0 7fbd b53a e03c 5302 72bd ad87 7ebc
00000290: b0b9 7bbd b048 95bd 64e7 e4bd f0e0 91bb
000002a0: 4abd c6bd 5427 c9bd 5e13 973d bccd 70bc
000002b0: 43dc 9d3c 88ba 0bbb 39b2 82bd ea60 64bd
000002c0: d507 b13c 1407 6abd 439c 1abd b089 7b3b
000002d0: 98e0 c33c ec15 8abd daf6 d3bc 207b 4dbd
000002e0: 4ac7 8abd 414d 95bd 8ab3 e7bc e644 91bc
000002f0: 8753 87bd 8ccf 233d 648b b13c 101a 2dbd
00000300: 204b 133d e620 703c 2800 b3bd 87b6 543d
00000310: 7c8b 61bc a6d0 80bd eec4 a93d b4cb 1c3d
00000320: 368e 80bc ce7e 41bd 860e b3bc e636 a63a
00000330: 0723 3cbd bfde a7bd c617 643c 87a3 8abd
00000340: 7be5 f5bd 142e 5dbd 275b afbd d09e 76bc
00000350: b0e8 1fbd ccf7 853c 72e0 93bd b2d2 29bd
00000360: ce86 6bbd 7aa5 c2bc db1c 013d bb1b c7bc
00000370: ea4c 2abc 7628 c43c fa74 b4bc f0e8 0ebd
00000380: 0018 13ba 26de c73c a047 ea3c fb56 8d3d
00000390: 0ceb 5cbd e29f f7bc bc92 d6bc c018 d93a
000003a0: 1907 4abb a20a c13b 9635 3dbd 27f1 ec3c
000003b0: b478 d5bc 102b 99bc 3ae0 d2bc 46ab 923b
000003c0: e255 5c3d 3e04 1fbd 8430 983d 85da cfbd
000003d0: 9ce7 01be b04f e33b 802d c739 20f6 b6bd
000003e0: 071f ca3c fe51 ddbd e055 0c3b f248 f43c
000003f0: 3e4a cdbc bd3e 8fbd 7b30 aabd 04ef 963c
0.038909383 -0.036902502 0.0057693124 -0.033945713 -0.014688248 0.0001356192 0.11814051 -0.005524773
-0.031099414 -0.005819168 0.02833369 0.06451782 -0.009974059 -0.09917106 0.07804318 0.12683325
0.061067887 0.065011114 -0.07185264 0.11978662 0.10062912 0.033240613 0.024446234 -0.026943218
-0.002294438 0.009737674 0.0021730578 0.0043673366 0.046866246 0.02210314 -0.028858766 0.110927954
-0.044032957 -0.032219358 0.019540632 0.09872416 0.030877715 -0.04904427 0.0538602 -0.010564813
-0.0085960375 0.057633735 0.012808127 0.038976524 0.08352636 -0.033121344 0.048448056 -0.039569616
0.094633505 0.10037106 0.030942924 0.03399498 -0.004886677 -0.054943223 0.0046475874 0.04699425
-0.020334339 0.017709285 -0.01968483 0.053807646 0.02423542 0.05565909 0.03580273 -0.035432655
-0.059334382 0.06793861 -0.04284485 0.007508291 0.07851052 -0.06353697 -0.013591512 0.031827997
0.042202335 -0.0038652495 0.027525423 -0.0048011723 0.048086405 0.057566587 0.053139117 0.022744024
-0.008088601 -0.09079681 -0.024167338 -0.04878003 -0.046925396 0.07430095 -0.004571505 0.0881961
-0.0012774654 0.04308398 -0.063147366 -0.030112922 0.014974163 0.022751229 -0.013633216 0.021243837
0.021420524 0.054344423 0.0026324093 -0.026103264 -0.021743273 0.005919706 0.0152901 -0.010593535
0.04265241 0.010916077 0.018973498 0.06118525 -0.0225079 0.09046993 0.03031763 0.009148523
-0.03470617 -0.088729694 0.041702036 0.10594367 0.07227687 0.07085415 0.098869786 0.08922561
0.037285484 0.0025620265 0.019461684 0.0679467 0.014320143 0.02395735 0.010484023 0.028517151
0.03282071 0.08817153 0.053864066 -0.028041556 0.05362148 0.13876694 0.085111715 -0.021396099
0.075642414 0.04097803 0.079282135 0.04292166 0.021766534 0.07042758 0.017178189 0.04035546
0.028339183 0.051254556 0.12870073 0.11913343 0.016611261 0.08224023 0.018282594 -0.07536405
0.01955539 0.023726348 -0.063044295 -0.041212402 -0.04959088 -0.13610135 0.05376286 -0.05043226
-0.062408853 0.027371744 -0.059084248 -0.015535277 -0.061456382 -0.07289255 -0.11176947 -0.0044518635
-0.09704073 -0.09821954 0.07376741 -0.014697488 0.019270068 -0.0021320898 -0.063816495 -0.055756487
0.02161018 -0.057135656 -0.03774668 0.0038381629 0.023910806 -0.067424625 -0.025874544 -0.05016625
-0.067762926 -0.07290126 -0.028283853 -0.017733049 -0.066077285 0.039992854 0.021672912 -0.042261183
0.035960317 0.014656281 -0.08740264 0.051931884 -0.013766166 -0.062897965 0.082895145 0.038280204
-0.015692811 -0.04724007 -0.021857511 0.0012681156 -0.045931842 -0.08196782 0.013921684 -0.067694716
-0.120066606 -0.05399902 -0.08562308 -0.015052512 -0.039040267 0.01635351 -0.07220544 -0.0414607
-0.057501607 -0.023760546 0.03152166 -0.024305215 -0.010394314 0.023945075 -0.022028435 -0.034890115
-0.0005611181 0.02439792 0.028598607 0.06901356 -0.053935096 -0.030227605 -0.026193015 0.0016563162
-0.0030826984 0.00589116 -0.04619368 0.028923584 -0.026058532 -0.018697292 -0.025741685 0.004475984
0.05379284 -0.038822405 0.074311286 -0.10149101 -0.12686008 0.0069369897 0.00037990138 -0.08933663
0.024672998 -0.108066544 0.002141349 0.02981994 -0.025059815 -0.06994388 -0.08310028 0.018424518

conv1.bias f4 [6]
00000000: 7805 523d 4a41 8cbd 9d63 533d b35c dc3b
00000010: 2043 3abd fe89 ca3d
0.051274747 -0.068483904 0.05160867 0.006724918 -0.04547417 0.09889601

conv2.weight f4 [16, 6, 5, 5]
00000000: 2c4e 1a3c 88b8 2abb 5c04 093c 52c7 df3c
00000010: 50fd e7bb de33 763d be72 29bd b11f 8fbc
00000020: 0276 58bc fe98 40bd cb8d 183d 9177 3d3d
00000030: c60d 8cbd d456 9bbc 9910 193d 0021 5bbb
00000040: 0b40 eb3c 15af 2abc e426 f6bc 09f7 0e3d
00000050: 855d 063d 0ab3 20bc 6207 ea3c 879f 42bd
00000060: 821f e73c 7550 6d3c 627a de3c 8bbe 3c3c
00000070: 9c87 15bd 0fb5 96bc 541f 483d 705c 08bc
00000080: b87f 793c 413c d13c a47a ee3c 4530 22bd
00000090: 4179 e63c 2eff 023d 802e 4a3d 47b9 263d
000000a0: 4bf2 143d 5842 143c 38f6 89bc a043 dcba
000000b0: c0c2 6f3d f373 403d bf66 0ebd 2dfa 453d
000000c0: a415 68bc 22cc 6a3d 263d 943b a957 193d
000000d0: 800a fe3b ab6e f4bc 6042 413b 9214 19bd
000000e0: c6ea 92bc 2ec9 48bd b019 b63a 1835 92bb
000000f0: 2c66 283c def2 91bd 88a4 783b a2e6 40bb
00000100: fb75 263d 48ec c53a da94 c03c f94f 57bd
00000110: 90c9 0f3d 08ba 7f3d a8b3 e7bb 3e34 6d3d
00000120: bd00 3ebd 40ff 62ba bbc5 d53b 4235 1b3c
00000130: 9bda d83c eb34 7a3d b2a3 8c3c 5e5b f03b
00000140: 9db3 163d 3667 0dbc cd20 b1bb 4ab6 cb3c
00000150: 9864 eabb 20d4 ddba 5c08 a63c 6daf f13b
00000160: 3503 05bd a495 57bc a6d4 573d 13c1 be3c
00000170: bc63 91bb 2680 a9bc 3a82 f5bc 1c8c e2bc
00000180: 6455 993d 0008 a9bc 80fa 183b 64a2 d0bb
00000190: 4735 d43c 6cb9 3c3d b81a a23b f407 aa3b
000001a0: d30d 003d 2376 43bc a230 34bd f0a5 073b
000001b0: 7114 3e3d 1680 17bc 02e5 5dbd 74a4 0b3d
000001c0: b4f5 17bd 280c 083b 573f 713c 8063 e1ba
000001d0: 2aa7 163d c79c b7bd 62b0 053c 182e a8bd
000001e0: 11a6 7cbd 0288 953c fa0c 4a3c 792e 62bd
000001f0: 6adc 8dbd b0ad ce3a d8d0 3cbd 0d55 af3c
00000200: 2fb8 3c3d 4e7f 933d f31a 673d 08d3 15bb
00000210: dca0 dd3b 9c22 753d 24a8 2dbd 44be 76bc
00000220: 209b 8d3d 7020 14bc 9018 a6bc 837b 0ebd
00000230: 86aa 233d b4b7 58bd 4675 853c d45c e3bb
00000240: 2a6e dfbc 66ca 8dbc f0f4 d73c 27ea 5d3d
00000250: 0dbd 013d c250 d63c 026b f9bc da0e ac3c
00000260: 08b7 4f3c 544a 56bb 408b 893a db13 27bc
00000270: 4ccc 3b3d 27b4 503d dac6 353c 522c b93c
00000280: 3230 7d3c 2420 6e3d 0729 813c 45dd 9cbc
00000290: c83b c23b 4866 383d ae44 7c3c 3e15 46bd
000002a0: 59f5 913d fcd8 4d3c d509 623d 96f1 e63b
000002b0: e07c ab3d ecc9 41bc 7745 43bc 925b 2ebd
000002c0: ca9b bbbc c1c3 173c 30f4 0a3d cabc a5bc
000002d0: b220 ec3c cde2 adbc bc1d 3dbc ea16 5bbd
000002e0: 8892 ec3c c319 23bd 3aa4 973d eaca c63c
000002f0: c401 4f3c 2be4 0c3d dd0c 38bd 1781 253d
00000300: 2e61 2f3d ec5a 4e3d 7a9f 0e3d aeca 843c
00000310: 2683 cd3c 8a2b ddbc bc21 34bb a3d2 c5bc
00000320: 24ec 3bbd cbdc 043d 04d0 7fbb fdde 133d
00000330: 5189 673d fad1 0abd 3401 68bc 0088 3437
00000340: 9430 c3bb 92a4 75bd 3aeb c23c 53bf ee3c
00000350: 9a24 743c 8f79 e63c d8f5 69bd 50b0 88bc
00000360: 86ea 51bc e9c2 413d e91e 43bc 9663 203c
00000370: da91 c23c c68b f93c 24eb 70bc 2f02 aebc
00000380: 7753 37bc f6dd a8bc 5410 c7bb 18d7 1bbb
00000390: 7e82 7e3c dca1 1b3c 22a0 543c 609f 17bd
000003a0: cd25 793d 5433 12bd 368d 4bbd af29 153d
000003b0: 0608 873d d877 dfbc 50c6 86bd 16ca f1bc
000003c0: c9ae 643d d2bd 28bc ec61 003d 5276 683d
000003d0: b60b a53c 13c2 13bd 1239 af3c 4060 103a
000003e0: 35d8 333d 72d4 243d d7ec 983d 29e8 2dbc
000003f0: db04 1b3d f63b 743d db83 8a3d 952a 823d
0.009418052 -0.002604993 0.008362856 0.027316723 -0.0070797578 0.06010806 -0.041369192 -0.017471166
-0.013211729 -0.047020905 0.0372446 0.046256606 -0.068385646 -0.018962301 0.037369344 -0.0033436418
0.028717062 -0.010417719 -0.030047841 0.03490356 0.03280403 -0.009808311 0.028567974 -0.04751542
0.028213266 0.0144845145 0.027157966 0.011520038 -0.03650628 -0.018396882 0.048858 -0.00832282
0.015228204 0.025541427 0.029111214 -0.039596815 0.02813399 0.03198164 0.049360752 0.040704038
0.03636388 0.009049021 -0.016841039 -0.0016804822 0.058535337 0.046985578 -0.034765955 0.04833429
-0.014165316 0.057323582 0.004523891 0.037437115 0.0077527165 -0.029837927 0.0029489025 -0.037373133
-0.017934214 -0.049019985 0.0013893154 -0.0044618957 0.010278266 -0.07126401 0.0037939865 -0.0029434343
0.04063986 0.0015100325 0.023508478 -0.052566502 0.035104334 0.062433273 -0.0070709772 0.05791115
-0.046387423 -0.0008659251 0.0065238154 0.009473147 0.026471427 0.061085623 0.0171679 0.0073351106
0.036792386 -0.008630564 -0.0054055215 0.024867196 -0.007153105 -0.001692418 0.020267658 0.0073756487
-0.03247376 -0.013158236 0.05269303 0.023285424 -0.004436938 -0.020690989 -0.029969323 -0.0276547
0.0748699 -0.020633698 0.002334267 -0.0063670147 0.02590431 0.04607527 0.004947033 0.0051889364
0.031263184 -0.011930021 -0.043991692 0.0020698272 0.046406213 -0.009246847 -0.054173477 0.03409238
-0.037099555 0.0020759199 0.014724574 -0.0017195791 0.036780514 -0.0896545 0.008159729 -0.08211917
-0.06168181 0.01825333 0.012332195 -0.0552201 -0.06926806 0.0015768316 -0.046097606 0.02140286
0.04607409 0.07202016 0.056422185 -0.002286138 0.0067635607 0.05984746 -0.04239668 -0.015060011
0.06914353 -0.009040937 -0.020275384 -0.03478576 0.039957546 -0.052909568 0.016291272 -0.006938556
-0.02727421 -0.017308425 0.026361912 0.054178383 0.031674433 0.026161555 -0.030446533 0.021003176
0.012677915 -0.0032698112 0.001049377 -0.010197605 0.04584913 0.050953057 0.011094773 0.022604141
0.015453385 0.05813612 0.015766634 -0.019148478 0.0059275366 0.045019418 0.015397234 -0.048360102
0.071268745 0.01256394 0.055185158 0.0070478423 0.083734274 -0.011827927 -0.011918417 -0.042567797
-0.022901434 0.00926298 0.03392428 -0.020231623 0.028824184 -0.021226311 -0.011542734 -0.05348865
0.028878465 -0.03981949 0.074043706 0.024266679 0.012634698 0.034397285 -0.044934142 0.040406313
0.042817287 0.05037968 0.034820057 0.016209926 0.02508695 -0.0269983 -0.0027485928 -0.024148291
-0.045879498 0.032437127 -0.00390339 0.03610133 0.05652744 -0.033891656 -0.014160443 1.0760501e-05
-0.0059567187 -0.0599714 0.023793805 0.029143965 0.014901305 0.028134136 -0.05711922 -0.016685635
-0.012812262 0.04730502 -0.011909225 0.009789368 0.023751188 0.030462157 -0.014704499 -0.021241276
-0.011189333 -0.020613652 -0.0060749445 -0.002377933 0.015534041 0.0094990395 0.012977632 -0.037017226
0.060827065 -0.03569348 -0.049695216 0.036416706 0.06593327 -0.027278826 -0.06580794 -0.029515307
0.05583075 -0.010299163 0.031343386 0.056753464 0.020147186 -0.036073755 0.021389518 0.00055075064
0.043907363 0.040241666 0.074670486 -0.010614433 0.037846427 0.059627496 0.06763431 0.06355778

conv2.bias f4 [16]
00000000: 8b02 f4bc 21c9 8c3c d4f9 d63b d881 a03b
00000010: ea76 3b3d e075 ec3c 9b0f 08bd bfaf 923d
00000020: 212e 76bc f063 9ebc 3919 453c d320 0ebd
00000030: 53f4 a83c dbf8 f73c e2cd ea3c 96a1 c3bc
-0.029786369 0.01718575 0.0065605436 0.004898291 0.045767702 0.0288648 -0.033218008 0.07162427
-0.015025646 -0.019334763 0.012029939 -0.034699272 0.020624315 0.03027003 0.028662626 -0.023880761

fc0.weight f4 [120, 400]
00000000: e0a4 503c 8ee8 a53b afca 263d d621 423c
00000010: 9660 f93c d30a c9bc 5b3c aebc 0ea9 c43b
00000020: 78fd 19bb 922a 0b3c d6a1 dbbb 7450 d73c
00000030: e250 003d 8098 dc3a 8e3f 333c 2e73 c53b
00000040: 69a2 32bc 1afb b9bb 19a5 27bc 0c9a 133d
00000050: 57d6 1a3c 12f3 023c 7c44 dbbb 0896 653d
00000060: 884a f83b 4bfc 983c 2da1 923c 5be4 fcbc
00000070: 00f0 863c 1cab 9abc 7ddf aa3c 629b 683b
00000080: 480a c0bb e622 4abc ad2c c4bc 9d02 febb
00000090: a4a8 483d 2c37 10bd ea89 06bd d880 1e3b
000000a0: d469 40bc 8260 d2bc 7b0e 3dbc 288a 2ebd
000000b0: 7e32 953c 34d5 e0bb 5cf7 e73c d02c 68bb
000000c0: 98e3 c5bb 4c9a 8e3b 6a0e f1bb 806b 6fba
000000d0: 7a41 373d f52e 313c 46bb f73c 81da d03c
000000e0: 7814 983b 68f4 8f3b aeed b13b aabe 703b
000000f0: de09 ffbc f046 fd3c 1780 aebc b963 cd3c
00000100: db84 123b a1ef c93c 5212 29bc 6d4c 983c
00000110: 19da ab3c e80a 5f3c 4961 ff3c 3ea1 a7bc
00000120: 60e7 f239 3a07 823b 17ee c33c b2a3 193d
00000130: 00e5 e7ba 9df2 4b3c f446 8b3c 06f8 cf3c
00000140: 0e4f f8bb a023 b7ba d0d7 663b c0e4 48ba
00000150: 829a 4a3c 3322 883c f01e 163d acaa 92bb
00000160: 3037 f83c 7a5e 69bb e7b5 e53c 2087 83bc
00000170: bc33 d73b 6bec e13c f4ce 0f3b 02a0 283d
00000180: fc8d 263d 8a06 07bd 4079 edba 8e8e 97bc
00000190: a8ae f4bc 2412 94bc 107e 2b3b 5f88 403c
000001a0: aa1d 8dbc 4127 0bbc c4c9 d23b 2a30 e73b
000001b0: f93b d53b 4112 b23b 81d4 9dbc 78b5 b7bc
000001c0: e35e 0fbd 7442 56bc 8042 ba39 0417 cb3c
000001d0: 2213 0bbc d05f 78bc ec0b db3c 8095 263c
000001e0: 260d df3c 604e 153b 17b2 033d c963 68bc
000001f0: 44ea b03b 827e 213d 1fff a53c a9f6 e83c
00000200: e489 b73b 44c2 913c 11c7 653c 48cc 5b3c
00000210: e2e7 a8bc 7f50 b13c f8d7 06bb 987d b53b
00000220: 539d 8ebc cc00 af3b 94b9 fc3c d956 05bc
00000230: bca9 5d3c 6f17 80bc 5eb9 d1bb 0717 543c
00000240: bd7a 263d dd9f de3c 78d6 513c 5aba d8bc
00000250: f17f 043d c039 09b9 c4e6 80bc c398 ccbc
00000260: 2530 a3bb 308f 983b 0749 efbc 3c15 47bd
00000270: 7714 383c 00df 80bc 574f 2cbd da60 55bc
00000280: 1d6f 0b3d 40d6 403c dd82 7a3b 50c9 0b3b
00000290: 135b 35bc aff9 973c 3a55 203c 00aa ef3b
000002a0: 19fd c8bb 8e70 053c d76d 993c a724 4c3d
000002b0: a53f e43c 6369 adbb 0ea9 923c 5070 eebb
000002c0: 2821 d53c 1542 11bc 5c13 95bb 8d3d 153d
000002d0: 8889 23bc 0d09 59bc a39a 86bb 6c5f 443c
000002e0: bcbf 3f3b 7e7d c83c ee19 a9bc 7e45 c13b
000002f0: de22 7d3c 6399 773c b974 3bbc 5f3e b03c
00000300: 2970 ea3c 81a5 1bbc bb01 de3c b49c 013c
00000310: 407f 82ba b863 033d b88a 3c3a afd2 90bc
00000320: 0323 4bbd 61de 92bb 6b7d 8fbc e8ff 723a
00000330: 12a3 013d c82b 26bd 19ba d1bc 6238 f1bc
00000340: bee9 87bc f413 a03b bd3d c23c 966d ddbc
00000350: 87f3 013d 637d f5bc 43fd 97bc 523b 613d
00000360: cc33 fd3c 4a7b cebb 208a bc3c a029 913a
00000370: e4e9 643c db30 e83c 89cd b83c 136d 0b3c
00000380: f65d e93b 90b4 06bd 7035 87bc 308a 0dba
00000390: b7a5 2dbc 3ef9 c3bc 78c4 1abb 2032 693b
000003a0: 2ee3 0fbc a782 dfbb d8fa 89bc 0e89 b03a
000003b0: 2a3b 8dbb b0c0 f3bc bc7d 48bc 6c62 f63c
000003c0: feaf 5e3c 08b1 2d3d d859 8f3c 0056 4839
000003d0: aeb3 b9bc 5c0d d93b 6b1c b7bb fff1 d8bc
000003e0: 87a6 b63c ecba a6bb 1ef2 033c 8af9 acbb
000003f0: b0bd ae39 69ab d7bc 00e5 243d 44c6 3abb
0.012734622 0.005063123 0.040720638 0.011848887 0.030441564 -0.024541294 -0.021269014 0.006001598
-0.0023497026 0.008494036 -0.006702642 0.02628348 0.031327136 0.0016830117 0.010940446 0.0060256934
-0.010902979 -0.0056756856 -0.010232233 0.036035582 0.009450517 0.007992523 -0.0066915136 0.056051284
0.007577244 0.01867499 0.01789912 -0.030870607 0.016471863 -0.01888042 0.02085852 0.0035493006
-0.0058606006 -0.012337422 -0.023947084 -0.0077517764 0.048988953 -0.035208866 -0.03284637 0.0024185684
-0.011743981 -0.025680784 -0.011539097 -0.042612225 0.018212553 -0.0068613533 0.028316192 -0.00354271
-0.006039094 0.0043518897 -0.0073564546 -0.0009133145 0.044740178 0.010814418 0.030240666 0.025494816
0.004641112 0.004393149 0.005429945 0.0036734738 -0.031132635 0.030917615 -0.021301312 0.025071966
0.002235702 0.024650397 -0.010319309 0.01859113 0.02097802 0.01361344 0.031174319 -0.020462628
0.00046330225 0.0039681466 0.023917241 0.037509628 -0.0017692149 0.01244798 0.017001607 0.025386821
-0.0075777834 -0.0013972409 0.003522385 -0.0007663481 0.012365939 0.01661787 0.036650598 -0.004475912
0.030299753 -0.003560929 0.02804084 -0.016055644 0.0065674465 0.027578553 0.0021943422 0.04116822
0.04066275 -0.03296522 -0.00181178 -0.018500593 -0.029868439 -0.018075056 0.0026167668 0.011751263
-0.017226059 -0.008493246 0.0064327437 0.007055302 0.0065073934 0.005434305 -0.019266369 -0.022425398
-0.0350026 -0.013077367 0.0003552623 0.024791248 -0.008488448 -0.015159562 0.026739083 0.0101674795
0.02722795 0.002278231 0.03215226 -0.014183947 0.0053990204 0.039427288 0.020263253 0.02843793
0.0056011546 0.017792828 0.014024512 0.013415404 -0.020618383 0.021644829 -0.0020575505 0.0055386536
-0.017409002 0.005340671 0.03085021 -0.008138382 0.013529237 -0.015636174 -0.0064002713 0.012944943
0.040644396 0.027175838 0.012807481 -0.026456047 0.032348577 -0.00013086852 -0.015735038 -0.024975186
-0.0049801045 0.004655741 -0.029209627 -0.048604235 0.011235348 -0.015731335 -0.042067852 -0.0130235795
0.034041513 0.011769831 0.0038224973 0.0021329708 -0.011069077 0.018551676 0.009785945 0.0073139668
-0.006133687 0.008144511 0.018729134 0.049839642 0.02786238 -0.005292104 0.017902877 -0.0072765723
0.026016787 -0.008865853 -0.004549427 0.036435653 -0.0099815205 -0.013246787 -0.0041077896 0.011985641
0.002925857 0.024473902 -0.020642247 0.0058981767 0.0154502075 0.015112254 -0.011441403 0.021514116
0.028617935 -0.009499908 0.027100435 0.007910896 -0.0009956136 0.03207752 0.00071923016 -0.017678587
-0.049593937 -0.004482076 -0.017515859 0.00092697004 0.031649657 -0.040569097 -0.025601434 -0.02944583
-0.01659095 0.004885191 0.02371108 -0.027029794 0.031726386 -0.029967016 -0.018553382 0.054988213
0.030908488 -0.0063013183 0.023015082 0.0011075027 0.0139717795 0.028343609 0.022558944 0.008509892
0.0071217967 -0.03288704 -0.016504973 -0.00053993147 -0.0105985915 -0.023922559 -0.002361564 0.0035582855
-0.008782191 -0.006820995 -0.016843244 0.001346858 -0.0043100314 -0.029754966 -0.012237009 0.030076228
0.0135917645 0.04240516 0.017498896 0.00019105524 -0.022668686 0.006623907 -0.0055881045 -0.02648258
0.022296203 -0.005088201 0.008053331 -0.005278771 0.00033329194 -0.026326852 0.040257454 -0.0028499523

fc0.bias f4 [120]
00000000: 6369 133c 8c67 233d a69d febc b7bb 1f3d
00000010: 5042 ff3a ec25 38bc 0007 77ba c63d 0f3d
00000020: 9474 213d 2099 a6bc 4629 b03c d4f2 efbc
00000030: 311a 1dbd cc11 25bb 20b5 8a39 d00b 49bb
00000040: 01a6 2a3c b455 973c c147 86bc d17f b63c
00000050: aaf4 b33b 3a16 6bbc 75f8 ccbc 7af7 323c
00000060: 6cc5 3f3c 802d 7d3a 60a4 333d b041 88b9
00000070: da33 61bd a899 a9bc 7849 9e3c b459 8b3c
00000080: 601e 91bc 46cc d5bc a889 cb3b 64f1 7f3c
00000090: 8076 11b9 f2c4 923c 4335 593c f3bb 95bc
000000a0: b22b 90bc 5ea1 343c ac70 fbbc 6abc f63b
000000b0: da15 0ebd 2477 9ebb c236 0abc 9c3a e13c
000000c0: e9b3 173c 8074 ac3c 3196 30bc fd4c d1bb
000000d0: 0660 e43c ab2a 4d3c 3658 983c ca1b 50bc
000000e0: 1aa8 33bc c2ef 15bd c745 093d 9892 053d
000000f0: 3c05 5e3d 7adc ad3c c25a dd3c 9e02 febc
00000100: 04f2 9b3c 60ea 1e3d 6039 44b9 d539 0c3c
00000110: da1b 87bc d638 323c 873f a73c ba9f d43c
00000120: c4fa cdbc 3b84 f23c 0a4f 283d f68e 79bc
00000130: fe95 1bbc c089 833c b83a 303d a739 31bd
00000140: 2839 2ebc aa72 7dbd 3058 4f3b f565 1ebc
00000150: 426d 673c b407 df3b 8b54 cb3c c44f 7abc
00000160: 52f6 1abd f8b9 c43b 7ae8 60bc 7e2e 023d
00000170: 864d cfbc 3a64 2b3c 32b6 483c 5046 a83b
00000180: 62dd 8ebc 82b4 32bc 545c f33b 3417 ae3b
00000190: f5a9 db3b 5848 9a3c 9d8f 003c c93a c83c
000001a0: 0ead f03c 0b20 123d c9e7 9abc 0def 423c
000001b0: 2a69 4b3c a9ed 8fbc 78fc b73c 6a88 033d
000001c0: c7ff d0bc cc04 66bc 94b3 10bc 1649 0e3c
000001d0: 76c7 443c f991 473c b0d1 ffba dea5 f9bc
0.008997294 0.039893672 -0.031081032 0.03899738 0.0019474719 -0.01123951 -0.00094233453 0.03497102
0.03941782 -0.020336688 0.021504056 -0.029290594 -0.038355056 -0.002518761 0.0002645636 -0.0030677207
0.010415555 0.018473484 -0.016391637 0.022277744 0.0054918127 -0.014348561 -0.025020817 0.010923261
0.011704784 0.0009657964 0.043857932 -0.00025988882 -0.05498109 -0.020703152 0.019322142 0.017010547
-0.01771468 -0.026098382 0.0062114783 0.015621517 -0.00013872422 0.017916176 0.0132573275 -0.018278098
-0.01759896 0.011024801 -0.030693375 0.007529785 -0.034688808 -0.00483598 -0.008435907 0.027493767
0.0092592025 0.021051645 -0.010777996 -0.0063873515 0.027877819 0.01252238 0.01859675 -0.012701938
-0.0109653715 -0.036605604 0.03351381 0.032610506 0.05420421 0.021223295 0.027020816 -0.031007107
0.0190363 0.038797736 -0.0001871339 0.00855871 -0.016492773 0.010877809 0.020416034 0.02595507
-0.025143988 0.029604068 0.041091003 -0.015231838 -0.00949621 0.016056895 0.04302475 -0.043267872
-0.010633744 -0.06187693 0.0031638257 -0.009667863 0.01412517 0.006806338 0.024820587 -0.015277807
-0.037832566 0.0060036145 -0.013727302 0.03178262 -0.02530552 0.010460908 0.01225047 0.005135335
-0.017439548 -0.010907294 0.007426778 0.0053128246 0.00670361 0.018833324 0.00784674 0.024442093
0.029379394 0.03567509 -0.018909352 0.011897814 0.01241521 -0.01756938 0.022459254 0.032112516
-0.02551259 -0.01403923 -0.008831877 0.008684417 0.012010446 0.012180799 -0.0019517448 -0.0304746

fc1.weight f4 [84, 120]
00000000: 2276 0bbd 670d cdbc 7e55 9a3d e507 de3c
00000010: d91a 4abc 0b70 87bc 7432 483d 469b 0cbc
00000020: 4649 5c3d c2ad ddbc 5cdd 64bd 1c31 013c
00000030: c86d 673d 741f be3c 986c f13b 1ec9 4b3d
00000040: 48d7 2ebb b586 d93b d0f0 75bd f1c2 aa3d
00000050: cc06 203d 3869 6c3b bef9 63bd 6529 f6bc
00000060: fc2f 66bc 9ac2 fdbc 7888 e63c 461f 9ebd
00000070: f993 033c 7ad0 acbc a9e5 143d 15f2 0bbd
00000080: 9601 3cbc 6804 65bd c595 5b3d 22fa 913d
00000090: 26f0 673c f382 10bd 3fb1 ff3c 1e55 a33c
000000a0: dada b33c 688a 8bbb 4c1f 7fbd d45b a53d
000000b0: 9656 c93c ceee 313d ee0c 30bd da51 69bd
000000c0: 67b5 0b3d b868 fcbc 7ad2 96bc 1095 bebc
000000d0: 7418 83bd 927b 3dbd 162a 0bbd c9a9 e0bc
000000e0: 6e4f 923c f812 2cbd c408 623d bef0 023d
000000f0: d853 8cbc 8933 ab3d a94e b1bc 67da f4bc
00000100: c06b bf3a a443 53bc bf54 ac3c e013 60bd
00000110: b6f3 3a3d fbd6 8f3c 8a99 4bbc ae28 bebc
00000120: 5416 553d ab38 57bd 2274 46bc ec24 26bc
00000130: 1f2e 83bc fe6c e83c e44e 3a3c 7e1f 843d
00000140: 0418 f6bb 0965 353c 2d4c 28bd 98ef 7d3d
00000150: a54a 403c 9f4b f93c be02 353d ce9d 7d3d
00000160: 9e4c 8cbc 2732 a93c 9672 93bc 7005 06bb
00000170: 887c 3a3d eec3 823d 4c89 523c 3033 38bd
00000180: 0a7f aa3c b041 cbbc bc70 6f3d 9097 2bbd
00000190: 186f 563c 23b9 92bc 827a 1d3d e8af 06bd
000001a0: 245d a43b e64e 8ebc ca93 7e3c c5bd 42bd
000001b0: abf4 3cbc 51d9 acbc c0de a0ba 001e aa3c
000001c0: 7cd0 09bd 3b93 9dbc a056 3bbb 84e5 06bc
000001d0: 2ee7 6cbc 24ba 323d 6e89 68bd b887 153d
000001e0: be76 7ebd 2232 423d 2c6f dfbb 026d 123d
000001f0: a606 33bc 80e1 533a 98e6 453d f8d1 a13b
00000200: 20d4 99bd 0e88 bd3c aa7c d23b d8ea 693d
00000210: 3b25 163d 3ced ac3d 3332 773c 64b8 91bd
00000220: 20ee 3a3a 4171 cf3c c4b9 d4bc 286c 47bd
00000230: d291 a3bc b705 573c e019 113d fc9a 803d
00000240: 30ac 733b 2ccd cebb 8c19 6b3c a63a 83bd
00000250: 0b78 2a3d aea5 213d 8498 d7bc 6cfc 833b
00000260: be49 1dbd f2b7 a53d d2e5 d53c dc05 9fbc
00000270: 2512 45bd 1da7 d83c 846e d9bc 42d1 493d
00000280: 385a 133d 884d 403b f882 d1bb 21e3 8cbd
00000290: 1e6b 1ebd 30fc e13b 9e5f 7d3d 063c 1ebd
000002a0: 8d82 093d 88ad 9c3c 344f d03b 9a7d 663c
000002b0: e01b 4c3a 0f67 4b3c 9841 cf3c 7563 acbc
000002c0: 0a80 b53c 3828 41bc 689a 823b 83cd 303d
000002d0: 7e4c 3fbc 0873 0fbc 226d 6fbc 859d 763d
000002e0: a4f0 453d 5c87 a7bb 83dd 433c 2807 b83b
000002f0: b8b1 20bb 7670 9c3c 1627 bf3b 6a12 333d
00000300: f821 9ebd 5c10 88bd 04e9 4cbc a0c8 90bd
00000310: 3a5e 203d 26ec 2f3c 7ed3 1bbd 2393 d43c
00000320: bd55 c5bc f55f fcbc d06c ed3a 028a 6a3d
00000330: 2621 7bbc dd1d 9abd 13c0 03bd 5409 35bd
00000340: f23c 56bd 7a7d 1f3c 1e79 25bc c045 803c
00000350: 2c69 e33b 2d6e f53c 52d2 54bd f6dd 6c3d
00000360: 90dd 893c ec81 bc3d 80d9 44ba a8f7 893d
00000370: 8d6a 06bd c4ae c83c 94f8 593d 680c 31bc
00000380: e638 803d 9342 373d 2233 babc 3421 423c
00000390: 809b 1fb9 06f1 b43c a0ce f8bb 68ec 873a
000003a0: a0cc ea3a 68db eabb e086 efba 5ce8 8f3d
000003b0: 2e3e 60bd fcf8 6cbd 8052 3abd c56c b03c
000003c0: 50d9 babb bb64 21bd 1650 e53c 243d 86bc
000003d0: 6007 653b b2f3 7c3c e29a 38bd fd6f 043c
000003e0: 1631 14bd 70f5 79bd 857f a83c 7a7a 2abd
000003f0: 8318 00bd 0cf6 d0bb 3004 733c a54e 83bc
-0.034048207 -0.025030805 0.075358376 0.027103374 -0.012335503 -0.016532918 0.04887624 -0.008581942
0.053780816 -0.027060393 -0.055875167 0.007885244 0.05650118 0.023208357 0.0073676817 0.049752347
-0.002667861 0.006638373 -0.06004411 0.08337963 0.039068982 0.0036073457 -0.055658095 -0.030049035
-0.014049526 -0.030976582 0.028141245 -0.07720809 0.008030885 -0.021095503 0.036351833 -0.034166414
-0.0114749875 -0.055912405 0.05360963 0.07127787 0.014156377 -0.035281133 0.031212447 0.019938048
0.021954942 -0.0042584427 -0.062285706 0.080741554 0.02457742 0.043440633 -0.04298108 -0.056962825
0.034108546 -0.030811653 -0.01841091 -0.023264438 -0.064011484 -0.046260424 -0.033975683 -0.02742471
0.01786014 -0.042010278 0.05518414 0.03196787 -0.017129824 0.08359439 -0.021643953 -0.029889299
0.0014604256 -0.012894545 0.021036504 -0.054706454 0.045642577 0.017558565 -0.012426743 -0.023212757
0.052023247 -0.052544277 -0.012112649 -0.010140639 -0.016013203 0.028372284 0.011371348 0.06451319
-0.007510187 0.011071452 -0.041088272 0.061996073 0.011736547 0.030431567 0.04419207 0.061918072
-0.017126378 0.020653797 -0.017998975 -0.0020450018 0.04552892 0.06385027 0.012850117 -0.04497069
0.02081253 -0.024811596 0.05845712 -0.04189259 0.01308801 -0.017910546 0.03844691 -0.0328826
0.005015986 -0.017371606 0.015538165 -0.04754426 -0.011532943 -0.021099718 -0.0012273416 0.020766258
-0.03364609 -0.019235244 -0.0028585568 -0.008233432 -0.014459414 0.04363455 -0.05677169 0.036506385
-0.06212496 0.04741109 -0.0068186726 0.03574849 -0.010926878 0.00080826133 0.048315614 0.0049383603
-0.07511163 0.023136165 0.0064235525 0.05710873 0.0366566 0.08443686 0.015087652 -0.07115248
0.00071308203 0.025322558 -0.025967486 -0.04868713 -0.019966993 0.013123921 0.035425067 0.06279561
0.003718149 -0.0063110795 0.014349353 -0.06407671 0.04161839 0.039464645 -0.026317842 0.0040278938
-0.038400404 0.080917254 0.026110563 -0.019411974 -0.048113007 0.026446873 -0.026541956 0.04927183
0.03597471 0.0029343087 -0.0063937865 -0.06879259 -0.038676374 0.006896518 0.061858766 -0.03863146
0.03357177 0.019125715 0.006357098 0.014068032 0.0007786136 0.012414708 0.025299832 -0.021043519
0.02215578 -0.011789374 0.003985692 0.04316474 -0.011675952 -0.008755453 -0.014613422 0.060208816
0.048325196 -0.0051125716 0.011954668 0.0056160875 -0.002451999 0.019096594 0.005833517 0.043718733
-0.07721323 -0.06643745 -0.012506727 -0.07069516 0.03915236 0.0107374545 -0.03804349 0.025949067
-0.024088735 -0.030807475 0.0018114094 0.05726052 -0.015327727 -0.07525227 -0.032165598 -0.04419835
-0.052304216 0.009734506 -0.010099677 0.01565826 0.0069400277 0.029959762 -0.05195839 0.057828866
0.016829282 0.09204468 -0.00075092167 0.0673669 -0.03281646 0.024497397 0.05321558 -0.010806181
0.062608525 0.044741224 -0.02272946 0.011848737 -0.0001522135 0.022087585 -0.007592991 0.0010370137
0.0017913766 -0.0071672685 -0.0018274449 0.07026741 -0.0547468 -0.057854638 -0.045488834 0.02153624
-0.005702175 -0.039402705 0.02799229 -0.016386576 0.0034947023 0.015438961 -0.045069583 0.008083341
-0.036179624 -0.061025083 0.020568619 -0.04162071 -0.031273376 -0.0063769873 0.014832541 -0.016028712

fc1.bias f4 [84]
00000000: d32b f23c 8ddd 78bd 8a41 2cbd 20c6 3d3c
00000010: d28d f5bc 18a1 d93c b8ab 0fbd d1ca 183d
00000020: 1e04 c63c 346b 32bc 76ea ab3c 51fb 2a3c
00000030: 6f22 afbc 6170 2b3d 7cc8 07bc c63b a93d
00000040: 2247 32bd 28c5 a4bc 9368 b23b 507e 3fbd
00000050: a4c2 1e3d dd27 e73c fbef 8c3d 5c8b b03a
00000060: 34ac d53c 2ed2 f2bc fee8 df3c 0474 3a3d
00000070: 0053 533c 71c8 0cbd 8791 543d 5643 0dbd
00000080: d480 773d 10ac 3a3a afd0 84bd 10ba 8b3b
00000090: 85e9 4f3d c796 3a3c 44b8 abbb e9df 86bc
000000a0: 0d09 473d bcfe 263d 91d5 39bd dfd3 e83c
000000b0: 7577 6d3d 8d71 343d 7ea0 143c ceb3 7abd
000000c0: 20af 73ba a84b 6e3c 03df dc3c b4f3 0dbc
000000d0: bf9d a43c ad65 0cbd 0010 e53a c905 2ebd
000000e0: 6aaa 333d 0c67 6bbd 7ed0 ecbc 3bda 28bc
000000f0: 3148 98bd e7f8 1e3d 05ac 82bc 8c41 273d
00000100: de75 52bc 1027 16bb 22c4 f43c c450 583d
00000110: 0018 14ba b45b 83bd 4f5c 1c3d dc7f cb3d
00000120: b0c5 cc3c 3c83 023d cb6a c43c dd3c 503d
00000130: fe51 673c 2f4e d73c c15d 0cbd af31 af3c
00000140: 6b3f 2ebc e09e 01bd 45b8 be3d 7c74 82bc
0.029561913 -0.060758162 -0.04205469 0.011582881 -0.029974852 0.026566073 -0.035075873 0.037302796
0.024171885 -0.010889817 0.020985823 0.010435895 -0.021378724 0.04185522 -0.008287545 0.08263354
-0.04352487 -0.020113543 0.005444595 -0.04675132 0.038759843 0.02821725 0.0688171 0.0013469267
0.02608309 -0.029641237 0.027332779 0.045520797 0.012898207 -0.034370843 0.0518966 -0.034488045
0.060425594 0.0007120976 -0.06485116 0.0042641237 0.05075981 0.011388487 -0.005240472 -0.01646419
0.048592616 0.040770277 -0.04536969 0.02842134 0.05797525 0.044053603 0.009071467 -0.06120663
-0.000929581 0.014544405 0.026961809 -0.00866406 0.02009475 -0.034276653 0.0017476082 -0.042485986
0.04386369 -0.05747132 -0.02890801 -0.010305936 -0.074356444 0.03881159 -0.015951166 0.040833995
-0.012845485 -0.0022911467 0.02987868 0.0528114 -0.0005649328 -0.06413975 0.03817397 0.099364966
0.024996608 0.031863436 0.023976704 0.050839294 0.01411867 0.026282398 -0.0342691 0.021385996
-0.010635237 -0.031645656 0.093124904 -0.015924685

fc2.weight f4 [10, 84]
00000000: 38d9 c4bd 0899 6fbd 8ec9 3f3d a0e3 6fbd
00000010: c091 863b 3806 823d dcb1 63bc 07be 3bbd
00000020: 7dec cb3c 83a2 683d 8874 c9bb c60f 9ebd
00000030: de33 d93b b051 53bb 1791 d63c 84f9 cfbd
00000040: 1838 a03c 2ed4 193d 9631 193c 0461 f6bc
00000050: 2c6f 7a3c e865 f4ba ef1e 18bd 6044 a53a
00000060: 6fc5 ddbc e8c2 ddbc 46eb 0f3d 38a2 d53b
00000070: 7a40 a7bd 76e5 b3bc c499 a43c f2b1 1b3d
00000080: 8424 11bc e80f cebb 4287 dabd 6876 ac3a
00000090: f407 063c 6b99 ddbc 4881 3a3d 4600 243d
000000a0: a8eb 70bc 9135 5cbc 4e56 0bbd 676b a13c
000000b0: 5760 e2bc 38ad dabc c3f0 92bd 0111 bbbc
000000c0: 5531 463c 400a a43b c70e 9d3d 35ce 15bd
000000d0: 5104 34bc 3a92 b53c 26bd a93c 7033 b7bb
000000e0: 02f3 a9bd 0c7d ef3c 02d7 a43c 35da b53d
000000f0: 2d3d 403c 781f 0abc 31d9 89bd 835b c03d
00000100: 3ea2 a7bd 101e 983b 181c a33d 68eb 663b
00000110: 1db0 f83c 5a27 723c 0084 9e3d 24d0 32bd
00000120: a029 8dbd 9388 b03c d62e 973c dec6 26bc
00000130: 8f3a c93c 2ab7 dd3c 5a64 81bd f835 debd
00000140: 2338 95bd 628e 8f3d a044 c1ba 258c 60bd
00000150: ac1a 6c3d 5739 7b3d 3e8e 833c e0e4 c1bb
00000160: 06e5 15bd b3fb 27bd ea1f 093d f6a8 a73c
00000170: 6cbf d3bc 592a 8fbd f82b 95bd 5676 abbc
00000180: 407e f2bc b4f4 cabb 0e43 2bbd 8649 bfbb
00000190: 1440 a5bd 4062 8c3d b314 a43c a877 313c
000001a0: ea7f 1e3d 1a6e 26bd 8567 863d 74d6 5c3d
000001b0: 0222 69bd ae5a 27bd 02b7 6cbd 7e59 f33c
000001c0: 4e91 63bd fcd7 983c f6d3 a93b 505a 8e3d
000001d0: ce07 493c e8d3 c0bb 820d e53c 4e3d 3ebd
000001e0: bc36 9fbd 96e4 3b3c 7daa 1abd 1de3 81bc
000001f0: fea9 883c a6bd bc3c 3037 6ebb cafe 8dbd
00000200: 82c5 853c b859 49bc f2d4 173d d005 ef3b
00000210: e008 fcba 7077 ef3b c840 87bd c02d 3f3d
00000220: 8892 5b3d 8a8a a23c bded 9bbd 9a67 2e3d
00000230: 9263 0bbd b8c6 953c d82d 773b c061 9b3d
00000240: 13fb 473c 2209 8dbd 24c9 14bc 94d0 9d3d
00000250: d4bc 20bc b897 4f3b b673 84bd a0da 6ebc
00000260: 2c70 1bbd ae05 a63d 3517 8abd 0f53 963c
00000270: c45a c23d 30e1 883d ba08 4ebc f4a5 a7bd
00000280: 8272 003c 3557 b53d 1402 0dbd 379d 2a3d
00000290: 1b6a 96bc 3a77 563d 6703 b5bd 5e3a f33c
000002a0: 1a75 6b3d 1012 e13c 1077 633d acde 77bd
000002b0: a047 3f3c 4027 093d 0aeb 01bd 826f 8f3d
000002c0: 724f 913d e4ad 413d 7b48 37bd 6aa5 a93c
000002d0: 5aad 48bc 575d 223d ac06 703c 1d27 93bd
000002e0: 282f 8a3c c0de dc3c 72bc 8abc 9cf0 54bd
000002f0: 2e39 f13c cac6 26bd d0d7 0d3b 615c c23d
00000300: 30f3 6ebd 4844 583c a72e 003d f348 973c
00000310: 3233 acbd 5fb2 9abd e70b 843d bcee 96bd
00000320: 0008 ee38 b54a a33d cec8 54bd 60ec 7f3c
00000330: 157b f13c 80ee fab9 80dd febb e222 b4bd
00000340: cb69 efbc c806 ae3d dab5 693d a046 303d
00000350: 4718 8c3c a527 243d 96f8 9cbd 7d9b 91bd
00000360: c1a2 bbbd 9fc6 3dbd e4be cd3c a0e2 7dbc
00000370: 5cd7 9b3d 074e 29bd a2db 90bd 83fd 25bd
00000380: f900 ae3b 51b3 25bd bca4 bd3d 34a1 3dbc
00000390: 708f 9ebd 385f 01bb 90ed 12bd d3fd 4cbd
000003a0: cdbf d53d 8832 4dbc 9e39 7ebc 6238 6e3d
000003b0: ae53 ab3c 21c1 08bd 7363 8e3d 0708 d13c
000003c0: 2005 533d 0897 a63d 8a81 a3bd ceaa 463d
000003d0: ac02 a33c 4c46 26bd 7af3 a13d 0b21 e9bc
000003e0: bc0e ee3c e005 caba 33a5 0dbd 3b3d 45bd
000003f0: ebc2 83bd 4af4 3cbd d211 603d 336b 4cbd
-0.09611744 -0.05849555 0.046823077 -0.05856669 0.00410673 0.063488424 -0.013897385 -0.04583552
0.02489304 0.05679561 -0.006147925 -0.07717852 0.0066284975 -0.0032244734 0.026192231 -0.10155013
0.019557998 0.037555866 0.009350201 -0.030075558 0.0152852945 -0.0018646093 -0.037138876 0.0012608878
-0.027071683 -0.027070478 0.035136484 0.006519582 -0.08166595 -0.021960001 0.020092852 0.0380115
-0.008858804 -0.0062885173 -0.1067033 0.0013157846 0.008180607 -0.027050694 0.04553345 0.040039323
-0.014704622 -0.013440506 -0.034017853 0.019704534 -0.027633829 -0.026693925 -0.07174828 -0.022835257
0.012096723 0.0050061047 0.07668834 -0.036573607 -0.010987357 0.022164453 0.020720076 -0.0055908486
-0.08298303 0.029234432 0.020122055 0.0887951 0.011733335 -0.008430354 -0.06730879 0.093924545
-0.08185242 0.0046422556 0.07964343 0.0035235528 0.030357415 0.01477989 0.07740021 -0.04365553
-0.06892705 0.021549499 0.01845495 -0.01017925 0.024564056 0.027064878 -0.06317969 -0.108501375
-0.07286098 0.07009579 -0.0014745183 -0.054821152 0.057642624 0.06133398 0.016059037 -0.0059171766
-0.036595367 -0.041011523 0.0334777 0.020466309 -0.025848113 -0.06990499 -0.07283777 -0.02093045
-0.029601216 -0.0061937217 -0.041811995 -0.005837622 -0.080688626 0.06854677 0.020029401 0.010831751
0.038696207 -0.040632345 0.065627135 0.053915456 -0.056917198 -0.040857963 -0.057791717 0.02970576
-0.055558495 0.018657677 0.0051827384 0.069508195 0.012269927 -0.005884636 0.027960543 -0.046445183
-0.07774112 0.011468073 -0.037760247 -0.015855366 0.016682621 0.02303965 -0.0036348812 -0.06933363
0.01632953 -0.012289457 0.037068315 0.007294394 -0.0019228719 0.007307939 -0.06604153 0.04667449
0.05360654 0.019841451 -0.07613704 0.04257927 -0.034030505 0.018283233 0.0037716534 0.07587004
0.012205857 -0.068865076 -0.009081159 0.07705799 -0.009810645 0.0031676125 -0.064673826 -0.014578491
-0.037948772 0.08106552 -0.06742708 0.018350152 0.094899684 0.06683576 -0.012575323 -0.0818595
0.007839801 0.08854524 -0.03442581 0.041653838 -0.018361142 0.052359797 -0.088385396 0.029690918
0.057484724 0.027474433 0.05553347 -0.06051509 0.011674792 0.033484697 -0.03171829 0.0700369
0.07095231 0.047284976 -0.044746857 0.020708758 -0.0122483615 0.039639797 0.014650028 -0.07185195
0.016868189 0.026961684 -0.01693556 -0.051987275 0.02944621 -0.040716924 0.0021643527 0.09490276
-0.05833739 0.013199873 0.03129449 0.018467402 -0.08408202 -0.07553553 0.06447583 -0.07369754
0.000113502145 0.079732336 -0.051949315 0.015620321 0.029477635 -0.00047861412 -0.0077778697 -0.08795716
-0.02922525 0.08497387 0.057058193 0.043036103 0.01710142 0.04007687 -0.076646015 -0.07109735
-0.09161902 -0.046331998 0.025115438 -0.015495926 0.07609436 -0.04133418 -0.07073142 -0.04052497
0.0053101745 -0.040454213 0.09259936 -0.011574078 -0.07742202 -0.0019740593 -0.03587109 -0.050046753
0.10436974 -0.012524255 -0.015516667 0.05815924 0.020913925 -0.033387307 0.06952562 0.025516523
0.05151856 0.08134276 -0.07983692 0.048502736 0.019898735 -0.040594384 0.079077676 -0.028458139
0.02905976 -0.0015413128 -0.034581374 -0.048154097 -0.06433662 -0.04613141 0.054704495 -0.04990692

fc2.bias f4 [10]
00000000: c68b 43bd 5c60 a5bd a9d3 493d b84a 9b3b
00000010: 0833 943c 9efc f33b e8cf b53b c85e 3e3d
00000020: 9837 01bd 17db 563d
-0.04774072 -0.0807502 0.04927412 0.004739132 0.01809074 0.007445886 0.005548466 0.04647711
-0.03154716 0.052455034
