newmode.pt (torch, 251412 bytes, 10 tensors)

conv1.weight f4 [6, 3, 5, 5]
0	0x3ca35b59	0.019941019
1	0xbd7131e6	-0.058885477
2	0xbca7a7aa	-0.02046569
3	0xbb422800	-0.0029625893
4	0xbd0dfb41	-0.034663443
5	0xbcb556c3	-0.022136098
6	0xbc68ade9	-0.01420162
7	0x3cc4d450	0.02402702
8	0x3be6da48	0.007045064
9	0x3cfd030a	0.030885238
10	0x3d91cdfb	0.07119366
11	0x3d1f1ec1	0.03884769
12	0x3cbb81f0	0.022889107
13	0x3c9ff2c9	0.019524949
14	0xbc76d9ef	-0.015066608
15	0x3dba706f	0.09103476
16	0x3d40337a	0.046924092
17	0x3c70ab10	0.014689222
18	0xbd2c4d86	-0.04206612
19	0x3dd94f2a	0.106108025
20	0x3d46f16a	0.048570074
21	0x3db15b9e	0.08660053
22	0xbc491d46	-0.012275046
23	0x3dae3ca8	0.08507663
24	0xbc4374d8	-0.011929713
25	0x3ce7e279	0.028306233
26	0x3de6b35f	0.11264681
27	0x3cb29c5b	0.021803072
28	0xbc6b0562	-0.014344545
29	0x3d3912fe	0.045184128
30	0x3d0315b2	0.032003112
31	0xbdbe3f26	-0.09289388
32	0xbc87832a	-0.016542036
33	0xbd6559e2	-0.055993922
34	0x3d2d2608	0.042272598
35	0x3b2467a0	0.002508618
36	0x3d97183f	0.073776715
37	0x3dae9602	0.085247055
38	0x3d9cfeb6	0.0766577
39	0xbc8e55e3	-0.017374938
40	0x3c8b638d	0.017015243
41	0xbd1f1df6	-0.038846932
42	0x3d9344a4	0.071908265
43	0x3c92d3b9	0.017923223
44	0x3c0a17ec	0.008428555
45	0x3c584fb2	0.013202595
46	0x3d675154	0.056474045
47	0xbd3ea953	-0.0465482
48	0x3d322789	0.043494735
49	0x3dd5ef90	0.104460835
50	0xbd7fd565	-0.06245937
51	0x3d78620e	0.060640387
52	0x3d35e6ea	0.04440967
53	0x3b8c85c4	0.004288407
54	0x3d89d633	0.067303084
55	0x3da5859d	0.08082125
56	0xbcb3eae3	-0.021962589
57	0x3cde34ea	0.02712484
58	0xbbc737c4	-0.006079646
59	0x3d79df3c	0.06100391
60	0xbd0ac993	-0.033883642
61	0x3d5c6d0a	0.053814925
62	0x3dc3f2fc	0.0956783
63	0xbd06d117	-0.032914247
64	0x3c90abcb	0.017660042
65	0x3ddffcf3	0.10936918
66	0x3ce569d0	0.028004557
67	0x3db1188c	0.0864726
68	0x3ce117e6	0.027477216
69	0xbc8bfee6	-0.017089318
70	0x3dab05fb	0.0835075
71	0x3bc609b0	0.0060436353
72	0x3d2ce75c	0.04221283
73	0xbc9fe85e	-0.019519981
74	0x3daa72e1	0.08322693
75	0x3d04c6b5	0.032416064
76	0x3db8f381	0.0903082
77	0xbd7a9979	-0.06118152
78	0xbb2147c0	-0.0024609417
79	0x3d1f4e89	0.038893256
80	0x3d0117cc	0.031516835
81	0x3d9cdcce	0.07659303
82	0x3c9682d2	0.018372927
83	0x3ba1d664	0.0049388874
84	0xbda89800	-0.08232117
85	0x3dc7ce3a	0.097561315
86	0xbd24bdae	-0.040219955
87	0xbbe1f362	-0.0068954686
88	0xbb228b10	-0.0024802126
89	0xbd0d3d02	-0.03448201
90	0xbcbaae8c	-0.022788309
91	0xbcb84b09	-0.022496717
92	0xbd474675	-0.048651177
93	0xba813400	-0.0009857416
94	0xbcd347d7	-0.025791092
95	0xbcd73a5e	-0.026272949
96	0xbd3dd07b	-0.0463414
97	0xbd77afea	-0.0604705
98	0xbc0f5618	-0.008748554
99	0xbca3d228	-0.019997671
100	0x3d69836b	0.057010096
101	0x3b7d30f0	0.0038633905
102	0xbc8b769f	-0.017024336
103	0x3cd0c87f	0.025486229
104	0x3ce5227e	0.027970549
105	0x3c8de70a	0.017322082
106	0x3d57b6d6	0.0526646
107	0xbb8aa480	-0.0042310357
108	0xbdb4c4b0	-0.08826578
109	0x3caaec24	0.020864554
110	0x3b87eafc	0.0041478854
111	0x3d9f7d4a	0.07787569
112	0xbd221f8e	-0.039580874
113	0x3ae2c240	0.0017300323
114	0x3cbe43b6	0.023225646
115	0xbdb45298	-0.08804816
116	0xbd3decea	-0.046368517
117	0xbd4e2a5a	-0.05033336
118	0xbcfee0a5	-0.031112978
119	0xbd73df5d	-0.059539188
120	0xbd2ff446	-0.042957567
121	0xbc18ca5c	-0.00932559
122	0x3befbe00	0.007316351
123	0xbd537bf8	-0.051631898
124	0x3da1524e	0.078770265
125	0x3d70aac3	0.0587566
126	0x3d0bce28	0.034132153
127	0xbcdede0d	-0.027205491
128	0x3da49c94	0.080376774
129	0x3d3751c4	0.044755712
130	0x3d9d59d3	0.07683148
131	0x3d5f6936	0.054543696
132	0x3ddb88dd	0.10719464
133	0x3d8f9b2c	0.070120186
134	0x3d7aedeb	0.061262053
135	0xbd20c1f2	-0.03924746
136	0x3d78f6d6	0.060782276
137	0x3d40ffea	0.04711906
138	0x3d7f4f90	0.062331736
139	0x3c90d042	0.01767743
140	0x3d6ac710	0.057318747
141	0x3bde4868	0.006783534
142	0x3dccca0d	0.09999476
143	0xbd1a76a6	-0.03771081
144	0xbd42e0e3	-0.04757775
145	0x3dadaafc	0.08479878
146	0xbbf35ed8	-0.0074270777
147	0x3c1f342c	0.009717029
148	0x3c066b0c	0.008204233
149	0x3c926a75	0.017873028
150	0xbd5c8c86	-0.05384495
151	0x3da5735a	0.08078642
152	0x3d11a555	0.035558064
153	0x3afc37a0	0.0019242652
154	0x3d703838	0.058647364
155	0xbcc465ed	-0.023974383
156	0x3d576589	0.052587066
157	0x3cf0e9e8	0.02940841
158	0x3c880496	0.01660375
159	0x3d0e21d9	0.03470025
160	0x3d0681d4	0.032838657
161	0x3cf4677a	0.029834498
162	0x3ad75610	0.0016428847
163	0xbd87bc82	-0.06627752
164	0xbcd82d24	-0.026388712
165	0x3c54381c	0.012952831
166	0xbcc54f2d	-0.024085606
167	0xbd97d8d0	-0.074144006
168	0x3b816680	0.0039489865
169	0x3d775dfe	0.060392372
170	0x3ce501b8	0.027954921
171	0xbc876944	-0.016529687
172	0x3b3994d0	0.002831746
173	0xbcb0bc18	-0.021574065
174	0x3d86f5f7	0.06589883
175	0x3d12c3c1	0.035831217
176	0x3d9be502	0.07612039
177	0x3d4275b8	0.047475547
178	0x3a3aecc0	0.00071306154
179	0x3d9220b7	0.07135146
180	0xbbbdb108	-0.005788926
181	0xbdb6135d	-0.08890412
182	0xbc8f53c6	-0.017496001
183	0xbd8bd555	-0.06827799
184	0xbd7363b8	-0.05942127
185	0xbd0ebbbe	-0.034847014
186	0x3ca26e2a	0.019827921
187	0xbc9381d2	-0.01800624
188	0xbade3b40	-0.0016954914
189	0xbda35518	-0.07975215
190	0xbd39b0ba	-0.045334555
191	0xbc63e581	-0.013909698
192	0xbb175374	-0.0023090513
193	0xbd53b712	-0.05168826
194	0xbcbf9b43	-0.023389464
195	0x3d1771d4	0.03697379
196	0x3d4aa99f	0.04947817
197	0xbc410ba4	-0.0117825605
198	0xbd637f47	-0.055541303
199	0xbc1040a4	-0.008804474
200	0x3d39e97d	0.045388687
201	0x3d70d2cd	0.058794785
202	0x3d5e0320	0.0542022
203	0xbd681316	-0.056658827
204	0xbcb8bfaa	-0.02255233
205	0x3b05f5a0	0.0020440593
206	0x3dd8d1d3	0.10586896
207	0x3dac8d56	0.08425395
208	0xbd8d778c	-0.069075674
209	0x3df66a26	0.12031965
210	0xbd0ea0a3	-0.034821164
211	0x3d4fbe57	0.05071863
212	0xbd4efa48	-0.050531656
213	0x3bf24ac4	0.0073941667
214	0x3cb736c7	0.022364987
215	0x3d8ea832	0.069656745
216	0x3dfc0e7c	0.1230745
217	0x3c3508fa	0.011049503
218	0x3da6e614	0.08149353
219	0x3dca9de6	0.09893398
220	0x3b7448f6	0.0037274933
221	0x3d9e3dc0	0.07726622
222	0x3c78d9ce	0.015188647
223	0x3e0c203f	0.13684176
224	0x3d579bb0	0.05263871
225	0x3d9cca61	0.07655788
226	0x3da7028a	0.08154781
227	0x3cb277f7	0.02178572
228	0xbd396fca	-0.045272626
229	0x3d09a35a	0.03360305
230	0x3db347bc	0.087539166
231	0x3c795dcc	0.015220117
232	0x39ccf400	0.00039091706
233	0x3bc62418	0.006046783
234	0xbc8e6d6a	-0.017386157
235	0x3cb158c3	0.02164877
236	0x3c877e1a	0.016539622
237	0x3d0ce94a	0.03440217
238	0xbdb627be	-0.08894299
239	0xbd05a49d	-0.03262769
240	0xbc9ebe16	-0.01937775
241	0xbb7c5180	-0.0038500726
242	0x3daf13d3	0.08548703
243	0xbca1c055	-0.019745031
244	0xbd2928f8	-0.041298836
245	0x3c664cee	0.014056427
246	0x3d9f9076	0.077912256
247	0x3c213714	0.009839792
248	0xbd5690fc	-0.05238436
249	0x3d9cb662	0.07651974
250	0x3d65e59a	0.05612717
251	0x3c485f68	0.012229778
252	0xbd622b7e	-0.05521726
253	0xbdb960ec	-0.090516895
254	0xbd7620be	-0.06008982
255	0xbd1db020	-0.038498044

conv1.bias f4 [6]
0	0x3cf6dda2	0.03013498
1	0x3c646ce2	0.013941975
2	0xbccae2e9	-0.024766402
3	0x3d2d3f56	0.04229673
4	0x3d8b1674	0.06791392
5	0xbd74fd72	-0.059812017

conv2.weight f4 [16, 6, 5, 5]
0	0xbc9278bd	-0.017879838
1	0x3d7d33f8	0.06181714
2	0x3d041c7a	0.03225372
3	0x3d154278	0.036440343
4	0x3d072256	0.03299173
5	0xbcfaf530	-0.030634493
6	0x3d0498c8	0.032372266
7	0xbd17e827	-0.037086632
8	0xbc7932f0	-0.015209898
9	0x3d70b1f0	0.058763444
10	0x3c5725e5	0.013131593
11	0x3b93ae00	0.0045068264
12	0x3d8fa693	0.070141934
13	0x3cbd72d6	0.023126047
14	0xbcb2df88	-0.021835104
15	0x3d934acc	0.07192001
16	0x3d1c4bf9	0.03815839
17	0x3cd66634	0.026171781
18	0x3d804851	0.06263793
19	0x3da6dfd6	0.08148162
20	0x3d231cb0	0.03982228
21	0xb8157000	-3.5628676e-05
22	0x3ccfd097	0.025368018
23	0xbd06ad6d	-0.032880235
24	0x3dadcc8c	0.0848628
25	0x3a77e940	0.0009457059
26	0x3b841f96	0.0040320856
27	0x3cdcae52	0.026938591
28	0x3da761de	0.081729636
29	0x3c208358	0.00979694
30	0x3d8ba002	0.068176284
31	0x3cb3205a	0.021866012
32	0xbd30de7a	-0.04318092
33	0x3d36f064	0.044662848
34	0xbd5557a6	-0.05208554
35	0x3d729c62	0.05923117
36	0x3d0a01b9	0.03369305
37	0xbcb05f6e	-0.02152988
38	0x3c72217b	0.01477849
39	0x3dc2a047	0.09503227
40	0x3d9ab3e4	0.07553843
41	0x3c058764	0.008149955
42	0x3d65f72f	0.056143936
43	0x3cf8ede1	0.030386867
44	0x3ad8e2d0	0.0016547088
45	0x3bc09644	0.005877288
46	0x3dbe22c6	0.09283976
47	0x3d53a078	0.051666707
48	0x3d343cf2	0.044003434
49	0x3a6b2f90	0.0008971626
50	0x3d64fc60	0.055904746
51	0x3cdcb15c	0.02694004
52	0x3d0af2f5	0.033923108
53	0x3d64a67a	0.055822827
54	0xbc88f5c2	-0.016718749
55	0xbd54a5f8	-0.051916093
56	0x3cecccad	0.02890619
57	0xbd3ad84c	-0.045616433
58	0x3dc5d8b0	0.096604705
59	0x3c1fc48c	0.00975145
60	0x3cbafd60	0.022825897
61	0x3d201cc2	0.039089926
62	0x3ba408a8	0.0050059147
63	0xbc60b783	-0.013715628
64	0x3d50cc66	0.05097618
65	0x3d6c4680	0.05768442
66	0xbcb91742	-0.022594098
67	0x3a4ea440	0.00078827515
68	0x3d908211	0.07056058
69	0x3a57c9b0	0.0008231653
70	0x3d9f3888	0.07774454
71	0xbb789868	-0.0037932638
72	0x3ba681b8	0.0050813816
73	0xbd0ebceb	-0.034848135
74	0xbd148a00	-0.03626442
75	0x3ce1711e	0.027519759
76	0xbc1d904e	-0.009616924
77	0x3c9fc18e	0.019501474
78	0xbd21792a	-0.03942219
79	0x3c33452c	0.010941785
80	0xbccbdad4	-0.024884619
81	0x3d180792	0.037116595
82	0x3d6f1617	0.058370676
83	0x3cf58d0a	0.02997448
84	0xbc2b2ae2	-0.010447236
85	0xb8a5c800	-7.905066e-05
86	0x3c8dee48	0.017325535
87	0xbd17014d	-0.036866475
88	0x3d1c3edd	0.03814589
89	0x3c491516	0.012273094
90	0x3d168a4e	0.03675299
91	0xba0b3f30	-0.0005311845
92	0xbb8d2c04	-0.0043082256
93	0x3cd049b2	0.025425766
94	0x3d2a682c	0.041603252
95	0xbcec2f60	-0.028831184
96	0x3d3c70d9	0.046006057
97	0xba161268	-0.00057247886
98	0xbb9d2c44	-0.0047965366
99	0x3c877cfa	0.016539086
100	0xbd737d1c	-0.059445485
101	0xbd8858a1	-0.066575296
102	0xbc079e14	-0.008277435
103	0x3c295f3e	0.010337649
104	0xbb855ee4	-0.0040701497
105	0xbce40d5e	-0.027838405
106	0x3cadd6fd	0.021220678
107	0x3ca7c703	0.020480638
108	0xbd5b3414	-0.053516462
109	0x3b172360	0.0023061857
110	0xbd496719	-0.049170587
111	0xbd3797d8	-0.044822544
112	0x3cc6bab2	0.024258945
113	0xbbd25318	-0.006418597
114	0x3d53a232	0.051668353
115	0xbb0c32c0	-0.0021392554
116	0xbc0ff5c0	-0.008786619
117	0xbd47ce5d	-0.048780788
118	0x3c5c605a	0.013450706
119	0x3c4c7404	0.012478832
120	0x3d96f80e	0.073715314
121	0x3d655878	0.055992573
122	0x3caa82da	0.020814348
123	0x3d3010a8	0.042984635
124	0x3cbe8bc6	0.023260009
125	0xba31f6c0	-0.0006788783
126	0xbccbcc00	-0.024877548
127	0x3ca40c0a	0.020025272
128	0x3d1e5b90	0.03866154
129	0x3d26b5d5	0.040700752
130	0xbc7ab13b	-0.015301044
131	0xbb848554	-0.0040442143
132	0x3cfff4d2	0.03124467
133	0x3c472e1c	0.012156989
134	0xbd0450e0	-0.03230369
135	0xbd01697b	-0.031594735
136	0x3d7cf6d1	0.06175882
137	0x3d8c59b7	0.06853049
138	0xbd25780c	-0.04039769
139	0x3cc04bc8	0.023473635
140	0xbce044c1	-0.027376534
141	0x3cc8c27a	0.024506796
142	0xbd1d36c2	-0.0383823
143	0xbd0219d4	-0.031762913
144	0x3bee3c18	0.0072703473
145	0xbca89b1c	-0.020581774
146	0x3c152b51	0.009104566
147	0x3cc712c3	0.024300938
148	0xbd3a9f23	-0.04556192
149	0xbb04463c	-0.0020183465
150	0x3c918688	0.017764345
151	0x3d29c33c	0.041445956
152	0x3cc4b411	0.024011644
153	0x3d873e60	0.06603694
154	0xbb056c34	-0.0020358684
155	0x3db0f55e	0.0864055
156	0x3d42b0fc	0.047532067
157	0x3c011436	0.007878354
158	0xbbc448e0	-0.0059901327
159	0x3d985d76	0.07439701
160	0x3bcbc932	0.0062190527
161	0x3badfe10	0.0053098276
162	0xbb8d6b81	-0.004315794
163	0x3c8a27c3	0.016864663
164	0x3d6d0db9	0.057874415
165	0x3ccaa15c	0.024735145
166	0x3d0fbe19	0.0350934
167	0x3d22389a	0.03960476
168	0x3c30b75c	0.010785904
169	0xbcf819c5	-0.030285725
170	0xbcf4f387	-0.02990128
171	0xbd4fabbe	-0.050700895
172	0xbd83e05f	-0.0643928
173	0xbba20634	-0.004944587
174	0x3bea3364	0.0071472395
175	0xbc37b9bc	-0.011213716
176	0x3c4986bc	0.01230019
177	0x3c67ecb3	0.014155555
178	0x3d888c92	0.06667437
179	0xba92d880	-0.0011203438
180	0x3b475610	0.0030416287
181	0x3d2f4c80	0.042797565
182	0xbb9440a8	-0.004524309
183	0x3c82a4ba	0.015947688
184	0xbd332136	-0.043732844
185	0xbc24889d	-0.010042337
186	0x3cbe4dbc	0.023230426
187	0x3d4e7d00	0.050412178
188	0x3d9c399d	0.07628176
189	0x3ad183f4	0.001598476
190	0xbc1b8731	-0.009492681
191	0xbd233d6c	-0.0398535
192	0x3d70fe02	0.05883599
193	0x3d97484c	0.073868364
194	0x3d680914	0.056649283
195	0x3db9be8f	0.09069549
196	0x3db15598	0.08658904
197	0x3c84607e	0.016159292
198	0x3b8081d0	0.003921725
199	0xbd23ae90	-0.039961398
200	0x3c44d94c	0.012014698
201	0x3d2bdbf4	0.04195781
202	0xbc5f1e70	-0.013618097
203	0x3d598eb0	0.053114593
204	0xbd0b213c	-0.03396724
205	0x3d034ae0	0.03205383
206	0x3d253d68	0.040341765
207	0x3d188edc	0.037245616
208	0x3d8ed2b2	0.06973781
209	0xbb62ff28	-0.0034636948
210	0x3cfa534d	0.030557299
211	0xbbfd4b3f	-0.0077299173
212	0x3cc91039	0.024543868
213	0xbcb5ebda	-0.02220719
214	0x3d8d9586	0.06913285
215	0x3ca176bc	0.019709937
216	0xba1ace78	-0.00059054
217	0x3d121bb6	0.03567096
218	0xbb95ae38	-0.0045678876
219	0xbc956ee2	-0.01824135
220	0x3be0573c	0.0068463366
221	0x3d477600	0.048696518
222	0x3c9cf56e	0.019159999
223	0xbd346082	-0.04403735
224	0x3c929d30	0.017897218
225	0xbd811484	-0.06302741
226	0x3c83f7d1	0.016109379
227	0x3cbe16d1	0.02320424
228	0x3d8541a7	0.06506663
229	0x3b301158	0.0026865806
230	0x3d477384	0.04869415
231	0x3d7f4156	0.06231817
232	0xbae66620	-0.0017578043
233	0x3bbbef70	0.0057353303
234	0x3da5066d	0.08057866
235	0xbce682ea	-0.028138597
236	0x3cfc9d56	0.030836742
237	0xbc876ccf	-0.016531376
238	0x3c54b672	0.0129829515
239	0x3bcad590	0.0061900094
240	0x3d35e2ba	0.044405676
241	0x3bf23486	0.007391515
242	0x3b3563c0	0.0027677864
243	0x3bd034eb	0.0063539646
244	0x3cd671e2	0.02617735
245	0x3d94ad7a	0.072596505
246	0x3cc81083	0.024421936
247	0x3d0e8e8b	0.03480391
248	0x3bccfe5c	0.006255908
249	0xbd0daaf6	-0.03458687
250	0xbbba9e9c	-0.0056951772
251	0xbcf54b67	-0.029943181
252	0xbda4f5ed	-0.08054719
253	0x3d0e6ffe	0.034774773
254	0x3c46a4dc	0.0121242665
255	0xbc2e26f1	-0.010629402

conv2.bias f4 [16]
0	0xbc4441b8	-0.011978559
1	0x3b43ea38	0.0029894244
2	0x3c8533dc	0.01626008
3	0x3d59c464	0.05316581
4	0xbce16bde	-0.027517255
5	0x3cba3e9f	0.022734938
6	0xbd2bd78f	-0.04195362
7	0x3b0d1014	0.0021524476
8	0xbc1abeb6	-0.009444883
9	0xbd10c1e4	-0.03534116
10	0xbcbd9eb2	-0.02314696
11	0x3bf28680	0.0074012876
12	0x3d60bc54	0.054867104
13	0x3b808828	0.003922481
14	0xbd239773	-0.039939355
15	0x3d0c755b	0.034291606

fc0.weight f4 [120, 400]
0	0xbbdda3b5	-0.0067639
1	0xbd2952e8	-0.04133883
2	0xbc5ce941	-0.013483346
3	0x3cd769e6	0.026295613
4	0xbc696635	-0.014245559
5	0xbb6e80dc	-0.0036392724
6	0xb97a9a60	-0.00023899367
7	0xbc2c30b2	-0.010509657
8	0xbc5f2df6	-0.013621798
9	0x3d194c0d	0.037426043
10	0x3ceb0652	0.028689537
11	0xbd0901a2	-0.033448823
12	0xbcd404ec	-0.025881253
13	0x3cc22a0e	0.023701694
14	0x3d0fd740	0.035117388
15	0xbbd2fd94	-0.0064389203
16	0xbc21802e	-0.009857221
17	0x3cf681fe	0.030091282
18	0xbd1e6931	-0.038674537
19	0xbcbe065c	-0.023196392
20	0x3cd7a6bc	0.026324622
21	0xbc740f33	-0.014896202
22	0x3c82c5cb	0.015963456
23	0x3c187dbf	0.009307324
24	0xbc9464c6	-0.018114459
25	0xbce8665a	-0.028369118
26	0x39185fe8	0.00014531577
27	0xbb421668	-0.0029615406
28	0xbc26d84d	-0.010183406
29	0xbd16ad87	-0.036786582
30	0x37051800	7.933006e-06
31	0xbac60008	-0.001510621
32	0xbc05af9a	-0.008159542
33	0x3d337ef4	0.043822244
34	0xbcff63bd	-0.031175489
35	0x3bfbc194	0.0076829884
36	0xbcbecd34	-0.023291208
37	0x3c23bed6	0.009994229
38	0x3cd39796	0.025829118
39	0x3b32cd78	0.0027283113
40	0xbb711350	-0.0036785193
41	0xbcace3b2	-0.021104667
42	0x3bbbca49	0.0057309014
43	0x3c546e8d	0.0129658105
44	0xbac2a440	-0.0014849976
45	0xbbfeb178	-0.007772621
46	0x3cd13084	0.02553583
47	0x3bb68cb3	0.005570972
48	0xbd1f4d44	-0.038892046
49	0x3c8829c9	0.016621487
50	0xbd34351e	-0.04399597
51	0xbc01f227	-0.007931269
52	0xbcd1f86a	-0.025631148
53	0xbcd8456d	-0.026400292
54	0xbcd8daae	-0.026471462
55	0xbd2380e4	-0.03991784
56	0x3af2e820	0.0018532313
57	0xbc931b99	-0.017957496
58	0x3ceaf9ee	0.028683629
59	0xbc5e4fb0	-0.013568804
60	0x3bab489b	0.005227161
61	0xbc50c09e	-0.012741236
62	0xbc3cc206	-0.011520868
63	0x3b7fd2b7	0.0039035508
64	0x3b5aaa28	0.0033365581
65	0xbd165cea	-0.036709704
66	0x3bfd7ff2	0.0077361995
67	0xbc8cd046	-0.017189156
68	0x3b482360	0.0030538663
69	0xba9fb4f0	-0.0012184661
70	0xbbfbf96d	-0.007689646
71	0x3d2e7dac	0.04260032
72	0xbc34a6d9	-0.011026108
73	0x3cbeea7a	0.023305167
74	0x3bd72a26	0.006566304
75	0x3c262dd5	0.010142763
76	0xbcad8108	-0.021179691
77	0xbcc8a625	-0.024493286
78	0xbbabcf83	-0.005243243
79	0x3a7cbb00	0.0009640902
80	0x3caa9cfd	0.020826811
81	0xbb28c362	-0.0025751223
82	0x3c4d9d0e	0.012549652
83	0xbba0e04c	-0.004909551
84	0xbc9eebe3	-0.019399589
85	0xbd09d4d8	-0.03365025
86	0x3c0ec0a2	0.008712919
87	0x3b88ef9a	0.0041789534
88	0x3d40e5e4	0.04709424
89	0xbc60c4e3	-0.013718816
90	0xbd16862d	-0.036749054
91	0xbad79290	-0.0016446877
92	0x3d4b2e26	0.049604557
93	0x3c347e4d	0.011016441
94	0xbcc3a30c	-0.023881458
95	0x3bac859e	0.005264952
96	0xbaa67ed0	-0.0012702588
97	0x3cb36f70	0.021903723
98	0x3b14382c	0.002261649
99	0xbd021d2c	-0.0317661
100	0xbcd61211	-0.026131662
101	0xbb38113d	-0.0028086447
102	0x3b862b60	0.004094526
103	0x3ce97ee5	0.02850289
104	0x3d2b0bd9	0.041759346
105	0x3c3b17c4	0.01141924
106	0xbc7c0948	-0.015383072
107	0x3cccb871	0.024990292
108	0x3c3c1149	0.0114787305
109	0x39dfc200	0.00042678416
110	0x3cd79330	0.026315302
111	0x3b9081ab	0.004409989
112	0x3c702617	0.014657519
113	0x3c953f0d	0.018218542
114	0xbbf73f62	-0.0075453976
115	0xba92f028	-0.0011210488
116	0xbc83b3c4	-0.01607693
117	0x3c31b5ca	0.010846565
118	0x3c21fd8a	0.009887109
119	0x3d18709c	0.037216768
120	0x3c44e6a9	0.012017884
121	0x3b55aae8	0.0032603089
122	0xbc2032a2	-0.009777697
123	0xbc4b8e9e	-0.012424139
124	0x3b6a07a8	0.003571013
125	0xbc683f31	-0.014175222
126	0xbcab044d	-0.020876074
127	0xbc0d0460	-0.008607
128	0x3ba5dd46	0.0050617782
129	0x3c1e8108	0.009674318
130	0xbc8435b6	-0.016138893
131	0x3b7f5ed8	0.0038966443
132	0x3cbd0561	0.023073854
133	0xbc92baa2	-0.01791126
134	0x3c6ce246	0.014458245
135	0xbd336925	-0.043801446
136	0xbcc12429	-0.023576813
137	0x3c22fd3e	0.009948073
138	0x3d406c4a	0.046978272
139	0xbd06bfaf	-0.032897647
140	0xbaff76a0	-0.0019490309
141	0xbbe09f47	-0.006854925
142	0x3d0ead63	0.034833323
143	0xbce1223e	-0.027482148
144	0xbc17d3f1	-0.009266839
145	0xbb83fbb4	-0.004027808
146	0xbd1d05a5	-0.03833546
147	0x3c0765f2	0.008264052
148	0x3c45c082	0.012069823
149	0xbd10038e	-0.03515964
150	0xbbe073a4	-0.006849723
151	0xbc872de8	-0.016501382
152	0xbb714f92	-0.003682111
153	0xbbad92fc	-0.005297063
154	0x3b1c4da8	0.0023849998
155	0x3cf0a1e6	0.029374074
156	0xbc8cbb40	-0.017179132
157	0x3cee0062	0.029052917
158	0xbb6fbefc	-0.0036582341
159	0x3c1ac3c1	0.009446085
160	0xbba6503a	-0.0050754817
161	0xbc3b2656	-0.011422714
162	0x3cb4188a	0.021984357
163	0x3bf27d81	0.007400215
164	0x3cfa9ca0	0.030592263
165	0x3c8f8167	0.017517759
166	0x3c4d048e	0.012513293
167	0x3c1a918a	0.009434113
168	0x3a31a1b8	0.0006776112
169	0xbc02750c	-0.007962476
170	0x3d26cb82	0.040721424
171	0x3c221484	0.009892587
172	0x3c001dc9	0.007819601
173	0x3cf9b7ce	0.030483153
174	0x3ae167bc	0.0017197053
175	0xbc8d06c5	-0.017215142
176	0x3d0a8305	0.033816356
177	0x3cc932fc	0.024560444
178	0x3ca63fde	0.020294126
179	0x3be3687c	0.0069399457
180	0xbb50dbaa	-0.0031869211
181	0x3cb8a8bf	0.022541402
182	0xbc4fc132	-0.012680339
183	0xbca5763f	-0.020197986
184	0x3c0642be	0.0081946235
185	0x3c3fa64d	0.011697364
186	0x3ca135ca	0.019678969
187	0xbca797a8	-0.020458058
188	0x3b86f38a	0.0041183876
189	0xbadfc2c9	-0.00170716
190	0xbc3e0bfe	-0.011599539
191	0xbce162db	-0.027512958
192	0xbb69f9a8	-0.0035701785
193	0x3b8aa7ea	0.0042314427
194	0xbd1a18e8	-0.03762141
195	0xbc5c0c14	-0.013430614
196	0x3c89503b	0.01676189
197	0xbc1c1186	-0.009525662
198	0x3c0590ae	0.00815217
199	0x3ba18734	0.0049294475
200	0x3cb1180e	0.021617915
201	0x3c8c8a0a	0.017155666
202	0x3c2c1c1f	0.0105047515
203	0x3c06de3a	0.008231694
204	0xbb93277e	-0.004490792
205	0x3c10ddc8	0.008841939
206	0xb9a1e540	-0.00030879118
207	0xbcb562a6	-0.022141766
208	0xbc8562cb	-0.01628246
209	0x3d1ff16a	0.03904859
210	0x3c077150	0.008266762
211	0xbb89586a	-0.004191448
212	0x3d00cb95	0.03144415
213	0x3c3957a9	0.011312404
214	0x3c2cd7e0	0.0105495155
215	0x3cb32bcd	0.021871472
216	0x3c5064f0	0.012719378
217	0xbb0433a2	-0.0020172377
218	0xbb208a4c	-0.0024496494
219	0x3c0009ea	0.007814864
220	0x3d0357f2	0.032066293
221	0xba8b076c	-0.001060707
222	0xbd0d1208	-0.034441024
223	0xbbf65cbe	-0.00751838
224	0x3d194db7	0.03742763
225	0xbc7cffb7	-0.015441827
226	0x3cf5564d	0.029948378
227	0x3cfd6e82	0.030936483
228	0xbb831ebc	-0.0040014666
229	0xbd039b91	-0.03213078
230	0xbcf2b9c6	-0.0296296
231	0xb841e200	-4.6225265e-05
232	0x3d003d91	0.031308714
233	0x3d2fbe6a	0.042906202
234	0x3d25cdba	0.0404794
235	0xbc22a700	-0.009927511
236	0xbcfb39c0	-0.030667186
237	0x3c434b68	0.011919834
238	0x3d115dad	0.035489727
239	0x3d260122	0.040528424
240	0xbc69f96c	-0.014280658
241	0xb9a44a1f	-0.00031335742
242	0xbc95e5ed	-0.018298114
243	0xbcc37489	-0.02385928
244	0x3ccd47b3	0.025058603
245	0xbcbd461c	-0.02310472
246	0xbc4128cc	-0.011789512
247	0xbbd900f1	-0.0066224267
248	0xbbb0d098	-0.00539596
249	0x3d28d712	0.041220732
250	0xbc2621ad	-0.010139865
251	0xbc37c29a	-0.01121583
252	0x3c0cd35f	0.008595317
253	0xbcb708da	-0.022343088
254	0xbc2020ae	-0.009773416
255	0x3cd4bbea	0.02596851

fc0.bias f4 [120]
0	0x3d141e40	0.03616166
1	0x3aa18460	0.0012322776
2	0x3c7bf362	0.015377851
3	0xbc23ba93	-0.009993213
4	0xbcfca222	-0.03083903
5	0x3c839e10	0.016066581
6	0x3b8e6354	0.004345337
7	0xbc721ee9	-0.014777877
8	0x3cc988ec	0.024601422
9	0x3c9092ec	0.017648183
10	0x3ca5b404	0.02022744
11	0x3cd8d339	0.026467906
12	0xbcd25894	-0.025677003
13	0xbd44c7a4	-0.048041955
14	0xbb240d60	-0.0025032386
15	0x3d04dbf1	0.032436315
16	0x3c07a2e6	0.008278584
17	0xbab0b562	-0.0013481791
18	0x3cb9a352	0.022660885
19	0x3c03bc67	0.008040524
20	0x3d48b4d6	0.049000584
21	0xbc54b8bb	-0.012983496
22	0xbcda9e3c	-0.02668678
23	0x3aab133c	0.0013051997
24	0x3c76cd3c	0.01506358
25	0x3c8426b7	0.016131742
26	0x3d08dfb2	0.033416457
27	0x3cdd3255	0.02700154
28	0x3cfd497d	0.030918831
29	0x3c24219b	0.010017778
30	0x3c4ca2ba	0.012489969
31	0xbb8b54a4	-0.0042520333
32	0xb9b0f5c0	-0.00033752434
33	0xbc9d2f0a	-0.019187469
34	0x3c122387	0.008919603
35	0xbcd9ab96	-0.026571076
36	0x3bb5c9c5	0.0055477344
37	0xbc83da46	-0.016095292
38	0x3d06b1b1	0.032884303
39	0x3ce80686	0.028323423
40	0xbbd535e6	-0.0065066693
41	0x3d0fcc4e	0.03510695
42	0x3c9b1725	0.018931935
43	0xbcef8cb6	-0.0292419
44	0x3d3fac39	0.046795104
45	0x3ca5cd99	0.020239638
46	0x3c81a398	0.015825078
47	0x3ca757f8	0.020427689
48	0xbbb915fa	-0.0056483718
49	0xbd03f054	-0.032211617
50	0xbba5cda8	-0.0050599165
51	0xbcef5c18	-0.029218718
52	0x3d5371be	0.051622145
53	0x3d0dbb68	0.034602553
54	0xbcf4fff8	-0.029907212
55	0x3d1a8663	0.037725817
56	0xbc0086dc	-0.007844653
57	0x3c2ea1d2	0.010658698
58	0x3c6273b8	0.013821535
59	0xba36f780	-0.00069796294
60	0x3d2553de	0.040363185
61	0x3afaf5b0	0.0019146707
62	0x3ccc8a5f	0.024968324
63	0x38837a00	6.269291e-05
64	0xbd254c52	-0.040355988
65	0x3d08480b	0.03327183
66	0xbc14777d	-0.009061691
67	0x3d06860a	0.032842673
68	0x3ad60318	0.0016327826
69	0x3b7ac7c8	0.0038266052
70	0x3c95a20c	0.018265747
71	0xba553c80	-0.00081343204
72	0x3ca0dc1b	0.019636204
73	0xbbf69724	-0.0075253416
74	0xbcd34b79	-0.025792824
75	0x3d21346e	0.03935664
76	0x3c0750ce	0.008259011
77	0x3ad85a80	0.0016506463
78	0x3c72e723	0.014825615
79	0x3c98cd7f	0.018652676
80	0x3c25068c	0.010072362
81	0x3c86fa67	0.016476823
82	0xbb8aca80	-0.0042355657
83	0x3cde5905	0.027142057
84	0xbd3a84e9	-0.04553691
85	0xbbbdf6ce	-0.0057972437
86	0x3cc2eb61	0.023793878
87	0xbc07a5b4	-0.008279253
88	0x3c471622	0.012151273
89	0x3c626a9c	0.013819363
90	0x3c9a07f6	0.018802624
91	0x3d407349	0.046984944
92	0xbc0702f7	-0.008240453
93	0xbca5c0a3	-0.020233458
94	0xba60563c	-0.0008557772
95	0xbc61f3c6	-0.01379103
96	0x3bddc198	0.006767463
97	0xbc537a1d	-0.012907532
98	0xbc120cee	-0.0089142155
99	0x3b246c70	0.0025089048
100	0x3917af40	0.00014465768
101	0x3c9fa038	0.019485578
102	0x3b0977a4	0.0020975852
103	0xbbde436e	-0.0067829406
104	0x3b5d5176	0.0033770478
105	0xbac39620	-0.001492206
106	0x3cac9af6	0.021069985
107	0xbd61892e	-0.055062465
108	0xbcbe3968	-0.023220733
109	0x3caaf190	0.02086714
110	0x3b8480c9	0.0040436727
111	0x3c83bd71	0.016081544
112	0x3c46d102	0.012134792
113	0xbbcf2761	-0.006321833
114	0xbb8ee79e	-0.004361107
115	0x3d17a681	0.037024025
116	0x3cbd70ce	0.023125079
117	0x3a9fda58	0.0012195809
118	0xbc342bee	-0.010996802
119	0x3c8cc7d0	0.017185122

fc1.weight f4 [84, 120]
0	0x3d9edac4	0.0775657
1	0x3be988fe	0.0071269264
2	0x3d0b1679	0.03395698
3	0xbc70a76e	-0.014688356
4	0x3d6a0e40	0.057142496
5	0x3bbb643c	0.005718736
6	0xbcf60582	-0.030031923
7	0x3d5ef750	0.054435074
8	0x3d1939f7	0.037408795
9	0xbd85533a	-0.06510015
10	0x3d227dca	0.039670743
11	0xbc09ca0c	-0.008409988
12	0xbd4bfa64	-0.049799338
13	0xbb890ffb	-0.004182813
14	0xbd2c64b3	-0.04208822
15	0x3b73fb70	0.0037228726
16	0x3ca67035	0.020317176
17	0xbb6828f8	-0.003542481
18	0xbc23c908	-0.00999666
19	0x3d0a4827	0.033760216
20	0xbc4c904a	-0.012485573
21	0x3d35a409	0.04434589
22	0xbbac4e6f	-0.0052583735
23	0xb8a50400	-7.868558e-05
24	0xbc3226d0	-0.010873511
25	0x3bb52594	0.0055281613
26	0xbd1c29bf	-0.03812575
27	0x3caf278f	0.021381168
28	0xbce1ccba	-0.027563442
29	0xbc707c6c	-0.014678102
30	0x3d0f9384	0.03505279
31	0xbcd52bdb	-0.026021888
32	0x3d1bb8c0	0.03801799
33	0x3d5932b9	0.05302689
34	0xbc63dca2	-0.013907583
35	0x3bdec710	0.0067986324
36	0xbcb36d20	-0.02190262
37	0xbce50245	-0.027955184
38	0xbd294cf6	-0.04133316
39	0xbd90a5b6	-0.07062857
40	0xbd183bef	-0.037166532
41	0x3d430c4b	0.047619145
42	0x3cad04e2	0.021120492
43	0x3c38b67a	0.011273975
44	0x3d6b5a98	0.057459444
45	0xbd130a02	-0.035898216
46	0xbd5b64c6	-0.053562902
47	0xbc2d4c09	-0.01057721
48	0xbd6ed07e	-0.058304302
49	0xbd7e682c	-0.062111065
50	0x3c0f776c	0.0087565
51	0x3d1ae522	0.037816174
52	0xbd1b37e8	-0.037895113
53	0xbcb122a4	-0.021622963
54	0xbd85077c	-0.06495568
55	0xbd24c654	-0.040228203
56	0x3d602418	0.05472192
57	0x3c8c1bf7	0.017103178
58	0xbd620072	-0.055176206
59	0x3d05994f	0.03261691
60	0x3beaa644	0.0071609337
61	0x3d674c19	0.056469057
62	0x3dabe2e7	0.083928876
63	0x3b805e58	0.0039174967
64	0xbd11cec8	-0.035597593
65	0xbd127758	-0.035758346
66	0xbb9d4860	-0.0047998875
67	0xbc0d9c72	-0.0086432565
68	0x3b76d5a0	0.0037663952
69	0xbc17e6f0	-0.009271368
70	0x3d89a51d	0.06720946
71	0x3ccd869e	0.025088605
72	0xbd7a2e01	-0.06107903
73	0x3cacca76	0.021092635
74	0xbd63cb2c	-0.05561368
75	0x3cf1a0d3	0.029495632
76	0x3bf3cbf0	0.0074400827
77	0xbcd8b4ec	-0.026453458
78	0xbd736fc9	-0.05943278
79	0x3d81b20b	0.06332787
80	0x3d9ca9ea	0.07649596
81	0x3d550467	0.05200615
82	0xbd81d981	-0.06340314
83	0x3c1bf0f2	0.009517895
84	0xbc1d72cb	-0.009609888
85	0xbb922130	-0.0044595227
86	0x3d0d0b4f	0.034434613
87	0xbd0f5c12	-0.034999914
88	0x3cd667f5	0.026172617
89	0x3bb399b0	0.0054809675
90	0xbcfc275e	-0.03078049
91	0x3d0ddceb	0.034634512
92	0x3d16e15a	0.036836006
93	0xbcfe8c23	-0.031072682
94	0xbd92a0b0	-0.07159555
95	0x3d46548f	0.048420485
96	0x3cdb3d4a	0.026762623
97	0xbd6a1d3e	-0.057156794
98	0xbc13e9bc	-0.009027895
99	0x3da556c2	0.08073188
100	0xba4c001e	-0.0007782
101	0xbd8f931c	-0.07010481
102	0x3d1f36b0	0.038870513
103	0xbd854748	-0.065077364
104	0x3bbdfabc	0.005797712
105	0xbca08a20	-0.019597113
106	0xbbec5928	-0.0072127767
107	0x3d119a85	0.035547752
108	0x3cdf8e95	0.027289668
109	0xbd2a9e39	-0.0416548
110	0xbb408568	-0.0029376391
111	0xbab27060	-0.0013613813
112	0xbb8658a0	-0.0040999204
113	0xbcf127d3	-0.029437935
114	0x3d2953c3	0.041339647
115	0x3d3fe3d0	0.04684812
116	0x3be1ffe0	0.0068969578
117	0xbd10715a	-0.03526435
118	0xbc6a34a9	-0.014294782
119	0x3cdf7532	0.027277563
120	0xbc9093f1	-0.017648669
121	0x3d9aa5c3	0.07551148
122	0xbcbf4844	-0.023349889
123	0xbd62b37e	-0.05534696
124	0xbcea3bf5	-0.028593043
125	0x3b8648c8	0.0040980317
126	0xbc1da270	-0.009621248
127	0x3d189f63	0.037261378
128	0xbd7eab4e	-0.062175088
129	0x3cd72fbe	0.026267882
130	0x3d4f8bbd	0.050670374
131	0xbdb7317c	-0.08944985
132	0xbb8a3248	-0.00421742
133	0x3d28838d	0.04114108
134	0xbc324ab6	-0.01088207
135	0x3a26e6f8	0.00063668145
136	0xbd42cea3	-0.047560345
137	0xbcb36d43	-0.021902686
138	0xbc30bc17	-0.010787032
139	0xbd341eda	-0.043974735
140	0xbd0babaa	-0.03409926
141	0x3c93e850	0.018055111
142	0xbd03cd69	-0.032178316
143	0xbbd19492	-0.006395885
144	0x3ca06d3b	0.019583335
145	0xbcb22e06	-0.021750461
146	0x3c2947ab	0.010332028
147	0x3d87158e	0.06595908
148	0x3da16454	0.07880464
149	0x3d83b4e1	0.06430984
150	0x3d27261e	0.040807836
151	0xbd7f6ab2	-0.062357612
152	0x3c8d1891	0.017223628
153	0xbc77b4a0	-0.015118748
154	0x3d57b60f	0.05266386
155	0xbcb9690f	-0.022633104
156	0x3c4002d1	0.0117194215
157	0x3d210064	0.039307013
158	0x3d450ec9	0.048109803
159	0x3d34f32d	0.044177223
160	0xbcc6a3d4	-0.024248041
161	0xbb68f8c0	-0.0035548657
162	0xbd079a94	-0.0331064
163	0x3c810587	0.015749706
164	0xbda90308	-0.08252531
165	0xbafb1960	-0.0019157343
166	0xbd0ba78c	-0.034095332
167	0xbda212a4	-0.07913712
168	0x3c878063	0.016540712
169	0xbd2d2eac	-0.042280838
170	0x3c85e43d	0.016344184
171	0x3a3ddfe5	0.0007243141
172	0xb9d77dc0	-0.00041101687
173	0xbd204b8d	-0.03913455
174	0xbcb44fd4	-0.022010721
175	0x3d3b1fc0	0.045684576
176	0x3b845e10	0.0040395334
177	0x3c470cd4	0.012149055
178	0x3cf4aee8	0.029868558
179	0x3c3ff7b8	0.011716776
180	0x3ce720ea	0.028213937
181	0xbb115cce	-0.002218056
182	0xbd475da4	-0.048673287
183	0xbd44102b	-0.04786698
184	0x3cd29602	0.025706295
185	0x3d18be54	0.037290886
186	0xbb58e724	-0.0033096755
187	0x3c9ef0c2	0.019401912
188	0xbd78d4b0	-0.06074971
189	0xbd18b961	-0.037286166
190	0x3d157274	0.036486104
191	0xbceb7c78	-0.028745875
192	0x3bb1ae9c	0.0054224264
193	0x3d3a628b	0.045504134
194	0xbbb73280	-0.005590737
195	0xbb626cf2	-0.00345498
196	0x3cd9234d	0.02650609
197	0xbce6d089	-0.02817561
198	0x3c7b2174	0.0153278
199	0xbc2804ac	-0.01025502
200	0xbd0f88dc	-0.03504263
201	0x3d875204	0.0660744
202	0xbcc27486	-0.023737203
203	0x3c334b00	0.010943174
204	0xbadd9d60	-0.0016907863
205	0xbd1cea0a	-0.038309135
206	0x3c301c56	0.010748943
207	0x3d87c6bc	0.066297024
208	0x3d8a16a9	0.06742603
209	0x3d138195	0.03601225
210	0x3c801e55	0.015639463
211	0x3a7c8380	0.0009632632
212	0x3d430472	0.04761166
213	0xbd8b40cd	-0.06799469
214	0xbc811ca4	-0.015760727
215	0x3bc208ca	0.005921458
216	0x3d478157	0.048707332
217	0xbc64d934	-0.013967801
218	0x3c69b56c	0.014264446
219	0x3d8835ac	0.06650862
220	0x3d7ffb5b	0.06249557
221	0xbd064a06	-0.032785438
222	0x3cf44284	0.029816873
223	0xbcf482a0	-0.029847443
224	0x3d56eeca	0.05247382
225	0x3d69431e	0.056948774
226	0xbc83dc55	-0.016096273
227	0x3ca849fc	0.020543091
228	0x3c06078e	0.008180512
229	0x3ce42686	0.0278504
230	0x3d4ed470	0.050495565
231	0x3d42e8b9	0.047585223
232	0x3c2e8ca4	0.0106536485
233	0x3da8218c	0.082095236
234	0x3ce54f58	0.027991936
235	0x3db7ec1c	0.08980581
236	0x3d2927b3	0.041297626
237	0x3d25bc2b	0.040462654
238	0x3d50b231	0.050951187
239	0xbcf26e07	-0.02959348
240	0xbd8aa545	-0.06769804
241	0x3d34b678	0.04411933
242	0x3abc7282	0.0014377388
243	0xba11e0c0	-0.00055648014
244	0xbc6e18d2	-0.014532285
245	0x3d086c59	0.033306453
246	0xbce1d858	-0.027568981
247	0xbcbd7677	-0.023127778
248	0x3d4dcb10	0.050242484
249	0x3d4821b8	0.04886028
250	0xbc29c86a	-0.010362724
251	0x3d6d1fbe	0.0578916
252	0x3d14ec4f	0.036358174
253	0xbc9454ed	-0.018106902
254	0xbd89cf5f	-0.06729006
255	0x3b64bda8	0.0034903083

fc1.bias f4 [84]
0	0x3d0631e1	0.032762412
1	0xbd3e16ca	-0.046408452
2	0x3c930c3f	0.017950175
3	0x3ce7c5e8	0.028292611
4	0xbb69ad10	-0.0035656132
5	0xbd5b035c	-0.05347
6	0x3d03e9b2	0.03220529
7	0x3d7a4d40	0.061108828
8	0x3cf301ce	0.029663946
9	0x3dbcf110	0.092256665
10	0xbca28357	-0.019838018
11	0x3c0b35da	0.008496726
12	0x3c940204	0.018067367
13	0x3c6a8a67	0.014315224
14	0xbb52df40	-0.0032176524
15	0xbd19f288	-0.03758481
16	0x3c67ff5e	0.014160005
17	0x3cf6019c	0.030030064
18	0x3d70c8ee	0.05878537
19	0xbc420430	-0.011841819
20	0xb8439400	-4.662946e-05
21	0x3d82e9a9	0.063922234
22	0x3bb42f18	0.005498778
23	0x3bb0e920	0.0053988844
24	0xbcbcc3e2	-0.023042623
25	0xbd6bde9c	-0.057585344
26	0x3d8726b3	0.06599178
27	0xbd0e6898	-0.034767717
28	0x3d8b8040	0.06811571
29	0x3cec7dca	0.028868575
30	0x3c01685d	0.007898417
31	0xbc2792ee	-0.010227902
32	0xbd6acfee	-0.057327203
33	0xbd62d5d0	-0.05537969
34	0x3c9cc220	0.019135535
35	0x3ca917bc	0.0206412
36	0xbd65cb60	-0.056102157
37	0xbcaa5e30	-0.020796865
38	0x3c8b7846	0.017025124
39	0x3c9301e4	0.017945237
40	0x3cad1dfb	0.02113246
41	0xbcd24f2a	-0.025672514
42	0xbc672544	-0.014108006
43	0x3d6131be	0.05497908
44	0xbd3109cd	-0.043222237
45	0x3c271b0c	0.01019932
46	0x3c09342e	0.008374257
47	0x3c1daf1e	0.009624271
48	0xbc2945c0	-0.010331571
49	0x3be84cb0	0.00708922
50	0xbc19e13a	-0.009392077
51	0x3d963a02	0.07335283
52	0xbc4522a0	-0.012032181
53	0xbcbb5576	-0.0228679
54	0xbd85579c	-0.06510851
55	0xbcc0e112	-0.023544822
56	0x3d148f19	0.03626928
57	0x3c47d2b8	0.012196235
58	0x3d2218f9	0.039574597
59	0x3d82a87a	0.063797906
60	0xbd2c8702	-0.04212094
61	0x3ca35e7e	0.019942518
62	0xbd715eac	-0.058928177
63	0x3d209211	0.0392018
64	0xbd7bcd6a	-0.061475195
65	0x3d8a1818	0.06742877
66	0xbc6f88af	-0.01461999
67	0x3c21f67a	0.009885425
68	0x3c88616a	0.016648013
69	0x3d12e428	0.035862118
70	0x3b99b894	0.004691193
71	0x3cba2722	0.022723738
72	0x3d0a96d1	0.033835236
73	0x3d545102	0.051835068
74	0x3d449a1c	0.047998533
75	0x3d9fc9de	0.07802175
76	0xbdab2006	-0.08355717
77	0xbd580bfd	-0.052745808
78	0x3d114662	0.035467513
79	0xbc965f1a	-0.018355895
80	0x3d21350a	0.039357223
81	0xbd2686ea	-0.040656008
82	0xbd8f62f9	-0.070012994
83	0x3c915f2f	0.017745582

fc2.weight f4 [10, 84]
0	0xbb324a50	-0.0027204938
1	0x3d85d7ca	0.06535299
2	0xbc2d2a32	-0.010569142
3	0x3d0d430b	0.034487765
4	0x3c7ae8ee	0.015314324
5	0x3d2b5dd4	0.04183753
6	0x3d8f281e	0.069900736
7	0xbc19424e	-0.009354187
8	0xbd851281	-0.0649767
9	0xbcb2594e	-0.0217711
10	0xbd8bc274	-0.06824198
11	0xbdb6fe1b	-0.089351855
12	0xbc8bd658	-0.01706998
13	0x3c17d82c	0.009267848
14	0xbd418152	-0.04724247
15	0x3d1edbb4	0.038783744
16	0x3cee3dc8	0.029082194
17	0x3cbf62cc	0.02336254
18	0xbd3036f8	-0.043021172
19	0xbca6e4f0	-0.020372838
20	0xbbb1f504	-0.0054308195
21	0x3d869d10	0.06572926
22	0xbc206434	-0.009789515
23	0x3d3b967d	0.045797814
24	0xbcdaea63	-0.026723092
25	0x3a680de9	0.00088521704
26	0xbd16ebe5	-0.03684606
27	0x3d3798e6	0.04482355
28	0xbdcd5cf4	-0.10027495
29	0xbd14edec	-0.036359712
30	0xbd9f09bf	-0.07765531
31	0x3c030aca	0.007998178
32	0xbb7090f0	-0.0036707483
33	0x3d99be9a	0.075070575
34	0x3dc12f76	0.094328806
35	0x3d4a1bc6	0.049342893
36	0x3ccee774	0.02525685
37	0xba9ef300	-0.0012126863
38	0x39fd3d80	0.00048301741
39	0xbcb45a9c	-0.022015862
40	0x3cced1e3	0.025246566
41	0xbdab4eb2	-0.08364619
42	0xbd4bfc1f	-0.04980099
43	0x3db94fc6	0.09048419
44	0x3d3a7c71	0.045528833
45	0xbc5da67c	-0.0135284625
46	0xbd80322a	-0.06259568
47	0x3d615aa6	0.05501809
48	0x3d135a4c	0.035974786
49	0x3d9d4056	0.07678287
50	0x3cab356a	0.020899493
51	0x3d97974a	0.07401903
52	0x3b8bebe4	0.0042700637
53	0x3ca94f0a	0.020667572
54	0x3ccf79b0	0.02532658
55	0xbc91ef92	-0.017814431
56	0x3d3bb939	0.04583094
57	0x3ce95e24	0.028487273
58	0x3af18328	0.0018425928
59	0xbc4e5c00	-0.012595177
60	0xbd5c1185	-0.053727645
61	0xbdaa3052	-0.083099976
62	0x3d0908a5	0.03345551
63	0x3db2ce48	0.08730751
64	0x3d92f3a5	0.07175378
65	0xbd071c08	-0.032985717
66	0x3d3a4be4	0.04548253
67	0x3c34f826	0.011045491
68	0xbc961275	-0.018319348
69	0x3d8a06db	0.06739589
70	0xbd4dbb20	-0.050227284
71	0x3d2f2d98	0.04276809
72	0x3c5dfa04	0.013548378
73	0xbdb9f1ea	-0.090793446
74	0xbd26edfe	-0.04075431
75	0x3cab09de	0.020878728
76	0x3cb6e471	0.022325726
77	0x3d734b7d	0.059398163
78	0x3bf2c8d2	0.0074091936
79	0x3d85f821	0.065414675
80	0x3c878d7e	0.01654696
81	0x3c4503fc	0.012024876
82	0xbd31ba5f	-0.043390628
83	0xbd5255f2	-0.051351495
84	0x3d323bd6	0.043514095
85	0xbd887cce	-0.066644296
86	0x3d787556	0.060658775
87	0xbda194b7	-0.07889693
88	0xbcab4911	-0.020908864
89	0x3c24b42a	0.01005272
90	0x3cac1956	0.021008175
91	0xbdb7c86c	-0.08973774
92	0x3bb5b3a0	0.0055450946
93	0x3c0d6254	0.0086294
94	0x3c01e2f8	0.007927649
95	0xba3776b0	-0.0006998582
96	0x3ce7173d	0.028209323
97	0xbd0c24a1	-0.03421462
98	0x3bb42c44	0.005498441
99	0x3cbabf47	0.022796286
100	0xbc14e8b7	-0.009088687
101	0xbdabe48d	-0.08393202
102	0x3c16b170	0.009197578
103	0xbd3dc5a4	-0.046331063
104	0xbbef6788	-0.007306043
105	0xbcad8e54	-0.021186031
106	0x3cb13496	0.02163152
107	0xbda09ca2	-0.07842375
108	0xbcb519a5	-0.022106955
109	0x3c4631c4	0.012096826
110	0xbb999e10	-0.004688032
111	0xbcd8a064	-0.026443668
112	0xbc9daa8c	-0.019246362
113	0x3c016234	0.007896949
114	0xbceaa3c1	-0.028642537
115	0xbc01a63e	-0.00791317
116	0x3d35ea1a	0.04441271
117	0x3cdc22ca	0.026872057
118	0xbd7dd124	-0.06196703
119	0x3c8bf534	0.017084695
120	0xbc7721ca	-0.0150837395
121	0x3c9dac48	0.01924719
122	0x3d605f18	0.05477819
123	0x3c37b5a0	0.011212736
124	0x3cfb6008	0.03068544
125	0x39c53afa	0.0003761871
126	0xbddbff15	-0.107420124
127	0xbd0ddf0a	-0.034636535
128	0x3d23c6bd	0.039984453
129	0x3d9dc6e8	0.07703954
130	0x3c93ebdb	0.0180568
131	0xbc0b82c8	-0.008515067
132	0x3cd64264	0.026154704
133	0xbb9baec9	-0.0047510606
134	0x3bd220d4	0.006412605
135	0x3c0437e4	0.008069966
136	0xbcda30a1	-0.026634516
137	0xbcb62155	-0.02223269
138	0x3c485100	0.012226343
139	0x3ce71831	0.028209778
140	0x3c07e87a	0.008295173
141	0x3d2d4146	0.042298578
142	0x3d8980cb	0.067140184
143	0xbd00ae81	-0.03141642
144	0xbd5f71b6	-0.054551803
145	0xbd8ff111	-0.07028402
146	0xbdb111d8	-0.086459816
147	0xbd7e10b3	-0.062027644
148	0xbcd1b3ce	-0.025598433
149	0x3d192228	0.03738609
150	0xbd6a9acf	-0.057276543
151	0x39ed3100	0.0004524067
152	0x3bdaca1c	0.0066769253
153	0x3d51f8c3	0.05126263
154	0x3ce6a4c8	0.028154746
155	0x3c8c751e	0.01714569
156	0x3ced5dcb	0.028975388
157	0xbcf08146	-0.029358517
158	0xbc5c6632	-0.0134521
159	0x3d1ad4f0	0.03780073
160	0x3c8111f6	0.015755635
161	0xbd2c516c	-0.042069837
162	0xbca9c68b	-0.020724555
163	0x3c98620d	0.018601442
164	0xbd159f34	-0.03652878
165	0x3d657dd1	0.05602819
166	0x3d1b2c05	0.037883777
167	0xbdce1f42	-0.10064556
168	0xba313400	-0.0006759763
169	0x3d9d401a	0.07678242
170	0xbcf23fbe	-0.02957141
171	0xbd375ac6	-0.044764303
172	0x3d884144	0.066530734
173	0x3af53f60	0.0018710904
174	0xbd757268	-0.05992356
175	0xbc67b7ec	-0.0141429715
176	0x3d7933a3	0.06084026
177	0x3dd88800	0.10572815
178	0x3ac4e220	0.0015021004
179	0xbd7056f9	-0.058676694
180	0xbdc2cdca	-0.095119074
181	0xbb0e8f00	-0.0021752715
182	0xbcc0d4ac	-0.02353891
183	0x3cb9c65a	0.02267759
184	0xbd1c88f4	-0.038216546
185	0x3d333ed5	0.043761093
186	0xbd8c4b5b	-0.068503104
187	0xbc69134c	-0.014225792
188	0xbb9b92f8	-0.0047477446
189	0x3cc466e3	0.023974841
190	0xbcb6277a	-0.02223562
191	0x3d54ca14	0.05195053
192	0xbd9190f0	-0.07107723
193	0xbd9d7a55	-0.076893486
194	0x3c24b314	0.010052461
195	0xbd216c7e	-0.039410107
196	0x3cbe8e08	0.023261085
197	0xbc1b1fd7	-0.00946804
198	0x3cf09785	0.029369125
199	0xbbe1ccf8	-0.0068908893
200	0xbd2224ed	-0.039585996
201	0xbc42b02e	-0.011882825
202	0xbd051e5a	-0.03249965
203	0x3c9936ac	0.018702827
204	0xbd4a6f14	-0.04942234
205	0xbd4c83ee	-0.049930505
206	0xbd741d78	-0.059598416
207	0xbd42168b	-0.04738478
208	0x3d237180	0.039903164
209	0x3bf6d5bc	0.0075328033
210	0xbb8d48b0	-0.0043116435
211	0x3d772416	0.06033715
212	0xbce0c83d	-0.027439231
213	0x3cdf92af	0.027291624
214	0xbd182117	-0.037140932
215	0xbcc4d730	-0.02402839
216	0x3d854d68	0.06508905
217	0xbd88b8ff	-0.0667591
218	0xbd0431d4	-0.032274082
219	0x3d5096b6	0.05092498
220	0x3c9966dd	0.018725807
221	0xbdacfeca	-0.08447035
222	0x3d67958c	0.056539103
223	0xbd09cd38	-0.033642977
224	0x3cde55d0	0.027140528
225	0x3cae207b	0.021255722
226	0x3d33c0e4	0.043885127
227	0x39c47dc0	0.00037477724
228	0x3b304ee0	0.0026902482
229	0xbd16e6db	-0.036841255
230	0x3cc1b881	0.023647549
231	0xbbd76bac	-0.006574115
232	0xbbfddad4	-0.0077470336
233	0x3c43b314	0.011944551
234	0xbd7234bb	-0.05913232
235	0x3d202ca0	0.039105058
236	0x3cfb9f43	0.03071559
237	0xbdb8367c	-0.08994767
238	0xbd9e2af2	-0.07723035
239	0xbade45c0	-0.0016958043
240	0x38a37280	7.793773e-05
241	0x3b7f2b08	0.003893556
242	0x3d9134e9	0.0709017
243	0x3daac24e	0.08337842
244	0x3d588eb5	0.05287047
245	0x3db829b2	0.08992328
246	0x3d96387f	0.073349945
247	0xbd0f1f84	-0.034942165
248	0xbd570a9b	-0.05250035
249	0xbca43b6f	-0.020047871
250	0x3d875841	0.0660863
251	0x3d90f704	0.070783645
252	0x3d2d733e	0.04234623
253	0xbdc95ad4	-0.09831777
254	0xbc7f8ef8	-0.015598051
255	0xbbfc59cc	-0.0077011343

fc2.bias f4 [10]
0	0xbd99bb9f	-0.07506489
1	0xbbe0c05c	-0.0068588685
2	0x3de2c0d6	0.11071937
3	0xbd53eafc	-0.05173777
4	0x3d9ea36c	0.07746014
5	0xbc0a404b	-0.00843818
6	0xbc67299d	-0.0141090425
7	0xbc4167b8	-0.011804514
8	0x3d9f7df9	0.07787699
9	0xbdd7f730	-0.10545194
