newmode.pt (torch, 762658 bytes, 40 tensors)

conv1.weight f4 [6, 3, 5, 5]
00000000: 92ed e83d aee3 9bbd 8d67 efbc 879f bfbd
00000010: 42cb 66bd 5b07 103e 0fe8 95bc af14 93bc
00000020: fdcc 48bd 07a0 873d 8978 fbbc 3a3b e9ba
00000030: a2a3 dcbd c96f 01be 1b06 9abc 84b3 dabd
00000040: a62c de3d 5134 8e3d 03b5 6fbd d643 fbbd
00000050: 0d29 903c 63a2 eb3d 030e 4e3d 34a7 9c3d
00000060: 3f2a 773c 6853 4b3c 5d61 293d 3a4f 883d
00000070: 11a5 1ebd 2ba7 0cbe 8596 463d 3728 5c39
00000080: ded6 cd3c a745 9cbc f5bf 88bd d90e ac3c
00000090: d2d5 0d3d 97e6 5e3c 869f e6bd 53e6 11be
000000a0: 72a7 84bd ba33 68bd c77c 253d 8d5c 84bd
000000b0: b736 07be 10a9 8c3d d815 edbc d4a9 cdba
000000c0: a241 00be 8371 c6bc 4eb1 b63d ccce a9bd
000000d0: 45a0 3e3d 33ac a6bd 961c b73b 4639 f63d
000000e0: 019b 2bbd 15c7 11be 0ed0 b0bb b828 06be
000000f0: 477d 27bd 4672 973c 2979 acbc a2e2 933d
00000100: 7e60 dcbd 5c5b 7ebc e1d0 e3bd 0254 d5bd
00000110: a9a7 31bd dd37 b9bd a5d6 56bd 7cc4 003d
00000120: fb6a 2abd 2a21 b03c 1953 d5bd 9bfb d5bd
00000130: da1d 66bd ce11 d3bd b24d a9bd 4033 7cbd
00000140: a204 a23d 5469 5d3d f73c ff3d 87dd eb3d
00000150: 997c e23d e34e d5bc 53ab b13c dcaa 8cbd
00000160: 9fed c13c 6cf7 5dbc 5f9d 8b3b 6b0a 4bbd
00000170: b914 3f3d 6c6c 61bc bac1 00be 39d1 10bd
00000180: c517 223d 5bf4 a33d acc7 4abd 9fe9 7abc
00000190: b0a2 be3d ceba aabd c5e9 823d 5ba3 d93d
000001a0: 6445 e03d 42cc b63d da0b 8a3d 5b9c 513d
000001b0: b15c b03b ec92 013e a66c 23bd aefa e7bd
000001c0: 2c21 913d b3ee c03c 0d8b 553d a738 d9bd
000001d0: f637 57bd 5608 01be 4489 14be 3328 0fbe
000001e0: 4579 dbbc 4cd7 903d d629 3b3c b140 78bd
000001f0: 28b6 b5bc 15b0 b8bc 9019 e63d 314f 083e
00000200: 2b8e 7b3c 29f3 2abd cfb1 053c 01b9 163d
00000210: 8b4a 04bd 4d32 083e 19ff ec3c 98ac 5d3d
00000220: a207 ab3c 1515 ca3d e59b 383d f479 d43c
00000230: 0a8c b73d d0d7 553d 038b 37bd d0a5 95bd
00000240: 6b69 b23c fcdb bdbd 3b6c c2bd 476d a2bd
00000250: fbe1 c13d 8832 c7bd 77c4 fcbc 5532 f4bd
00000260: 98e0 b33c f422 dabd 6103 e2bd 5e21 12bd
00000270: 5c59 1fbd eaed cf3c be2b 31bb e37e d9bc
00000280: cd22 9abd e95d 31bd 4da7 993d b283 10bd
00000290: ac3e 9b3d 09a5 a23d 3419 b9bc a1d5 923d
000002a0: e3ff ab3d 1358 87bd d8b0 01be d704 a43d
000002b0: 87c5 6f3d ad91 19bd ec1e afb9 0acd b73d
000002c0: e766 a03b c8ed 9dbd 1b72 823c 76a6 e93d
000002d0: eeab 143d 5fb3 ae3c 233d 74bd aba5 9c3c
000002e0: ce0e afbd 4837 993d b668 41bd 063f 91bd
000002f0: a0ad 46bd b64d bc3d 9695 d23c 5d67 19bd
00000300: dfbb a93c 33c6 e5bd 48bf f2bc 0954 893b
00000310: 0969 d2bd 8db0 723c 6a0f b1bc 4260 82bd
00000320: 3bc3 ae3d 9597 10bd 054f b03a 5e35 be3d
00000330: ddad 98bd ba5a 28bd fb10 2cbd 738e 043e
00000340: 2aa6 9f3d 020e 2b3d a196 d63d 4a99 173e
00000350: b533 523d de8e 143e 391c 933d 58b1 6c3b
00000360: 781b a93c 6779 bdbd 6ddb e03d 17aa 473d
00000370: 9cbb 923d bcb5 5cbd 2650 3a3d 34fc b2bd
00000380: 35d7 80bd 3c46 cbba b861 01bd b145 e23d
00000390: fccf ccbd 3e1a 7f3d 3dcd 8b3d 8416 b83d
000003a0: 8fa3 8c3c f218 69bd 6fe2 89bc 1047 b03c
000003b0: c2c5 7a3b 9f60 b13d d722 a83d f2ef 08bd
000003c0: 1ea3 b5bd 334c 42bd f58b 98bd a316 f83d
000003d0: a3a7 943d b817 433d 2b09 92bc 6929 883d
000003e0: c43a c43d 2b73 ecbd 2cd0 cbbc ee4d 033e
000003f0: dde3 82bc 2cb1 533d 3f74 0c3d 2599 cb3d
0.11373438 -0.07611786 -0.029224182 -0.09356599 -0.056346186 0.14065306 -0.01829913 -0.017954199
-0.049023617 0.0662232 -0.030697124 -0.001779414 -0.10773398 -0.12640299 -0.01880174 -0.10678771
0.1084836 0.06943572 -0.058522236 -0.12268798 0.0175977 0.11505582 0.05030633 0.07649079
0.015085756 0.012410022 0.04135262 0.06655736 -0.03873164 -0.13735645 0.04848339 0.00020995816
0.02512687 -0.019076182 -0.06677238 0.021003174 0.034627743 0.013604782 -0.112608954 -0.14248018
-0.0647725 -0.056689955 0.0404022 -0.06462965 -0.13204466 0.068681836 -0.02894108 -0.0015690872
-0.12525037 -0.024224048 0.08920537 -0.082913965 0.046539564 -0.08138313 0.0055881245 0.12022643
-0.04189587 -0.142361 -0.005395896 -0.1310147 -0.04089096 0.018487107 -0.021053867 0.07220961
-0.10760592 -0.015524711 -0.11123825 -0.10416414 -0.043372784 -0.09043858 -0.052450795 0.031437382
-0.04160593 0.021500189 -0.1041624 -0.104483806 -0.056180812 -0.1030613 -0.08266772 -0.061572313
0.0791104 0.054055527 0.124628 0.11516862 0.11058921 -0.026038593 0.021688139 -0.06868526
0.023672877 -0.0135477595 0.0042607035 -0.049570482 0.046650622 -0.01375876 -0.12573901 -0.03535578
0.03957345 0.080055915 -0.04950683 -0.015314489 0.09308374 -0.083364114 0.06392244 0.10626861
0.10950735 0.08925678 0.06740542 0.051174503 0.0053821434 0.12653702 -0.039898537 -0.1132711
0.07086405 0.02355132 0.052134562 -0.10606509 -0.052543603 -0.12600836 -0.14505488 -0.13980179
-0.026791224 0.070723146 0.011423549 -0.06060857 -0.022181585 -0.0225449 0.112353444 0.13311459
0.01535372 -0.0417358 0.008160069 0.036797527 -0.032297652 0.13300438 0.028930234 0.054119676
0.020877663 0.09867302 0.045070548 0.025937058 0.08962257 0.052207768 -0.044810306 -0.07307017
0.021778783 -0.09270474 -0.094932996 -0.07930999 0.094669305 -0.09726435 -0.0308554 -0.119236626
0.02195768 -0.10651198 -0.11035801 -0.035676353 -0.03890358 0.025382001 -0.002703413 -0.026549762
-0.07526169 -0.04330245 0.07502613 -0.035281844 0.07580313 0.07941634 -0.022595026 0.07169653
0.08398416 -0.06608596 -0.12665117 0.080087356 0.058537986 -0.037492443 -0.0003340164 0.08974655
0.0048950794 -0.07711369 0.01592355 0.11408703 0.036296777 0.021325765 -0.059628617 0.019121965
-0.08547746 0.07481247 -0.047219 -0.07092099 -0.048505425 0.0919451 0.025706094 -0.03745209
0.020719467 -0.11219444 -0.029632226 0.004190926 -0.1027394 0.014812601 -0.021613795 -0.06366016
0.08533331 -0.03530081 0.0013451284 0.09287523 -0.07455037 -0.04110215 -0.04200838 0.12944965
0.07795365 0.041761406 0.10477949 0.14804569 0.051318843 0.14507625 0.071831174 0.0036116447
0.020642981 -0.09251671 0.10979352 0.048746195 0.0716469 -0.053884253 0.04548659 -0.0873951
-0.062910475 -0.0015508602 -0.031587332 0.11048449 -0.10000607 0.062280886 0.068262555 0.089886695
0.017167835 -0.056908555 -0.016831605 0.02151826 0.0038264845 0.08661007 0.0820977 -0.033431955
-0.08869003 -0.04743595 -0.0744857 0.121136926 0.07258537 0.04763004 -0.017826637 0.06648523
0.09581521 -0.11545404 -0.024879538 0.12822697 -0.015977794 0.051682636 0.03429055 0.099413194

conv1.bias f4 [6]
00000000: 60fd 073e 1ec3 93bd 7a0b bcbb d95b 983d
00000010: 25f0 16bd 1b09 6a3d
0.13280249 -0.0721495 -0.005738673 0.074393936 -0.036850113 0.05713759

conv2.weight f4 [16, 6, 5, 5]
00000000: ba16 a63d 1e38 053d bc2c b53d 7a98 bc3d
00000010: 9c8c b73c 9af9 0e3c 9591 a93c 0ef1 a53d
00000020: 42a2 6e3c b259 59bd 41c3 50bc dd07 fbbc
00000030: 6b63 2cbd 8f87 b53b 1b19 183d f367 a4bc
00000040: ed14 11bd 8d2b 7dbd 700c ab3c ca5d 9d3d
00000050: d5fc a93d 008b 293d 06ca a9bd b579 a7bc
00000060: 1c64 913d c20a 2c3d 1e3d 453d 6069 393d
00000070: 4564 fdbb 1988 c8bd cb27 afbd 5d43 a1bd
00000080: 345c 983d a3c3 8d3d 79b5 1fbd 13d5 63bb
00000090: b57e ea3c 3236 853d 3ecb 753c dd77 16bd
000000a0: 5c50 c2bd 5bc5 d13c 1655 6b3d 7044 68bc
000000b0: a342 103d 7709 0c3d 8caa 6ebd 9cf6 7c3d
000000c0: 053c 4ebd d750 17bd 2813 2c3d 8c52 8dbd
000000d0: 19c4 96bc 1875 b4bd f855 fb3c 5219 c6bc
000000e0: 5746 cdbc d515 c0bd 2253 1b3d ab01 813c
000000f0: 770a cbbd 664a c0bd 7eb7 59bd 1230 a5bc
00000100: 01ba edbc 9020 91bd 71d4 13bc 5032 9dbd
00000110: 2bec 33bb f797 3c3c d199 193c ecfb b2bd
00000120: edcd c738 34b8 bbbc c674 efbb 117a af3d
00000130: 421c b53c d882 46bc a4c2 b33c 8915 a83d
00000140: 68f6 41bd 63c5 24bd d004 c23b 0f1e 9ebb
00000150: 5f08 e53c cd62 a33c 983b 44bd cfe1 433c
00000160: 080b 803d d3d3 5ebd 2768 03bb 55b9 ba3d
00000170: 4737 d23d b7a5 913d 4b91 6c3d 8a5d 823d
00000180: 5fb7 00bc 571b b33c 362b 53bc 62fc 5fbd
00000190: 896d f03b 0dbd e1bc c4d6 96bd 8212 a53d
000001a0: d033 533d 79d7 9cbd 71e3 683d cfa3 5ebc
000001b0: 658b 29bd 16f3 6abd 0a35 533d 3ccb 96bd
000001c0: 6187 fd3c 68e8 9fbd 87da a7bd 4147 7ebc
000001d0: 8ae0 a8bd 9b1e 5dbb f7ea 9abc 5b97 893d
000001e0: e5a6 9ebd eb61 a3bd 2154 d1bd 09d2 3fbc
000001f0: 6b4c 40bd a183 43bd e16a 9f3d 3b1e 7c3d
00000200: 1fff 383d 1c5f 05bd d235 96bd 2e8b 2dbc
00000210: 441c ca3d 07e2 7ebc dfa2 693d e679 b1bc
00000220: 4919 893d 006e 0ebc 061b 8b3b c327 af3d
00000230: f2e0 11bc 1c4d 8d3b 64f7 a63d d1e5 f9bb
00000240: bd70 04bd 8c0c c33d d887 c63d 8613 943d
00000250: 2fe5 9e3d fdac 53bc 6a69 0dbd 1a68 3ebd
00000260: a408 9bbd 392b 2f3d d36d 183b 0ee8 9d3d
00000270: 5c8b 33bd c27f 29bd d7f5 8c3d a171 a23c
00000280: ed8e 473d ff06 d8bc 61d9 6cbd 3e3a 803c
00000290: b13d fbbc 9f76 c43d cb29 a83c 2e15 0c3d
000002a0: d06e 87bd aac5 383d 58a8 a73d 8c48 9dbc
000002b0: cdc5 46bd b13e 433d 03d4 41bd 5a57 9fbd
000002c0: 6010 64bb 20cd 7d3c 7308 7fbd edc3 8cbd
000002d0: cf5e 85bd ba25 23bc eaed 42bd 8ebb 40bd
000002e0: a71a 4fbd 82e2 10bd 82c5 8fbd fa7d 6b3d
000002f0: 9230 b9bc bf87 223b e862 0d3d 806d 86bd
00000300: 22f5 79bc dbd8 4e3c 8b06 2e3d f434 ad3c
00000310: 1c88 a0bd aad9 09bd 1e82 bf3d aa5d ba3d
00000320: 2edc a13d 998c 96bd 302f a23c 36ca a2bd
00000330: b7e1 083d d67d 503d 9e76 fdbc 65ad 553d
00000340: bcc3 67bd e05f 853d d98e 8d3d 9d82 4fbd
00000350: faa1 1ebc 66b6 a3bd 87cf a93d 6cae 59bd
00000360: 2af4 4c3c 04a3 96bd 2e0d 73bd ad6f b1ba
00000370: 8ce5 493d 5c0b a03d 426c 843d fe52 c6bc
00000380: 057c 5a3d 791e 99bd b659 04bd b5a2 10bd
00000390: 7cf9 83bd fe0e 743d 95de 2d3c a30a a83c
000003a0: aa12 133d aec5 1ebd 121b 97ba db2d 693d
000003b0: ab4c 8cbd 6606 70bd d04c 533c fb41 c63d
000003c0: 6603 70bb 0af3 f93c 4124 8fbc e1f8 adbc
000003d0: 6da7 dcbc bf25 853d 720a 05bc f7d8 963d
000003e0: b3f0 683d 0857 bb3d 2725 d03c 9e3e 26bd
000003f0: 0da7 67bd f869 72bd e655 35bd 2009 0c3d
0.081098035 0.03252422 0.08846423 0.0920877 0.022405915 0.008726502 0.020699302 0.08102618
0.014565052 -0.053064056 -0.012741865 -0.030643398 -0.042087 0.0055398415 0.037133317 -0.020069098
-0.035420347 -0.06180911 0.020879954 0.076839045 0.08300177 0.041392326 -0.08290486 -0.020443777
0.070991725 0.042002447 0.04815399 0.04526651 -0.0077329003 -0.097915836 -0.08552512 -0.07874177
0.07439461 0.0692208 -0.038991425 -0.0034764453 0.028624872 0.065044776 0.01500207 -0.036735404
-0.094879836 0.025606802 0.05745419 -0.014176473 0.0352198 0.034188714 -0.058268115 0.061758623
-0.050350208 -0.03694233 0.042010456 -0.0690051 -0.018404054 -0.08811396 0.030680642 -0.024181996
-0.025057955 -0.09379164 0.03792108 0.015747866 -0.099141054 -0.093891904 -0.053153507 -0.020164523
-0.029019358 -0.07086289 -0.009022818 -0.07675612 -0.0027454 0.011510841 0.009375052 -0.087394565
9.527416e-05 -0.022914983 -0.0073076217 0.08568204 0.022108201 -0.0121161565 0.021943398 0.082072325
-0.047354132 -0.040227305 0.005920984 -0.0048253606 0.027958093 0.019944573 -0.047908396 0.011955692
0.06252104 -0.05440123 -0.0020051093 0.091173805 0.102644496 0.07111686 0.05775575 0.063654974
-0.007856219 0.021863623 -0.01288872 -0.05468405 0.0073372764 -0.027555967 -0.07365182 0.08060171
0.051563084 -0.07658286 0.05685753 -0.01358886 -0.041392703 -0.05736073 0.051564254 -0.07362983
0.030948343 -0.07808 -0.08195978 -0.015519918 -0.082459524 -0.0033740166 -0.018910868 0.06718322
-0.07746676 -0.07977661 -0.102211244 -0.011707791 -0.046947878 -0.047732953 0.077840574 0.061552268
0.045165177 -0.032561406 -0.07334484 -0.010592265 0.098686725 -0.015556819 0.05704009 -0.021664571
0.06694276 -0.008693218 0.004245165 0.08552506 -0.008903729 0.0043121707 0.08152655 -0.007626273
-0.032334078 0.095238775 0.09693879 0.07230286 0.07758557 -0.012919662 -0.03452436 -0.046485998
-0.075700074 0.04276583 0.002325882 0.077102765 -0.043834075 -0.041381605 0.06882828 0.019829573
0.04872029 -0.026370523 -0.057824496 0.015652772 -0.030669065 0.09592938 0.020527741 0.034199886
-0.06612933 0.045110382 0.08186406 -0.019199632 -0.04852848 0.04766721 -0.04732133 -0.07780333
-0.00347998 0.0154908 -0.062263917 -0.068733074 -0.06512224 -0.009957725 -0.047590174 -0.047053866
-0.050562527 -0.035372265 -0.070200935 0.057493187 -0.022606168 0.002480015 0.034518152 -0.06563854
-0.015256198 0.012624945 0.04248671 0.021143414 -0.07838461 -0.033654846 0.0935099 0.09099896
0.07903324 -0.073510356 0.019797891 -0.07948725 0.033418383 0.050901257 -0.03094035 0.052167315
-0.05658315 0.06512427 0.06912012 -0.050661672 -0.009682173 -0.07993774 0.08291536 -0.053144857
0.012509385 -0.073553115 -0.05933874 -0.001353731 0.04929118 0.07814667 0.06465961 -0.024209496
0.05334093 -0.07476515 -0.032312118 -0.03531142 -0.0644407 0.05958461 0.01061215 0.020512884
0.03590647 -0.03876274 -0.0011528453 0.056928497 -0.06850561 -0.058599852 0.0128967315 0.096805535
-0.003662312 0.030511398 -0.017473342 -0.021236839 -0.026935304 0.0650134 -0.008120166 0.073656015
0.056870174 0.09147459 0.02540834 -0.04058706 -0.056555796 -0.05918309 -0.044271372 0.03418839

conv2.bias f4 [16]
00000000: 27df 983d b806 973d 483a 68bd 844e 033d
00000010: 8804 8f39 385a 4abc 5d5f 7c3d 5f67 2b3d
00000020: a9a9 6e3d 8cc0 e83c 144e fc3d cc59 eebc
00000030: d2cf 78bc 56ac 01bb 74b4 6e3d 179d f93c
0.07464438 0.073743284 -0.056696206 0.0320573 0.00027278461 -0.012350611 0.061614383 0.04184663
0.05826727 0.028412126 0.1231958 -0.029095553 -0.015186267 -0.0019786558 0.058277562 0.030470414

fc0.weight f4 [120, 400]
00000000: c2b1 9dbc f300 d7bc f919 66bc 0bb0 c13c
00000010: cf3f 2cbd efd2 3fbd 1de9 09bd 2793 e53b
00000020: 9c6e 48bc abce d6bc 61fd 18bd 9b9f 44bd
00000030: 90b4 c5bb dcea 043d 601e 253c 95e2 65bd
00000040: 4965 11bd d106 d53c da65 b4bc 1990 fd3c
00000050: f75d 343d f90d 15bd b46c 713c 6439 653c
00000060: a9cc 123b 6caf ea3c fe88 0b3d 576a 8a3c
00000070: 44b6 16bd df11 83bc 5af1 c1bc 898a 8e3c
00000080: 70e0 5fbd 7abb 50bd fdd2 debc 3584 57bd
00000090: 16fb 6b3b 64f5 febc c8bd d53b 5a0b 683c
000000a0: 2465 133d 6058 2bbd b14a 52bd 4cf4 c7ba
000000b0: dce8 5fbd ecb4 06bd a2a7 5dbd 9d8b bdbc
000000c0: 37f4 cbbc 0726 dbbb 1012 203d 5d1f 433d
000000d0: 84d9 06bd 242e 083b a50b 853d 54f4 393d
000000e0: 31c8 0fbd be65 1fbd ca76 643c 3ff0 1b3d
000000f0: 1894 cbbc 38da 7f3b 3c8e 93bc 240c 993c
00000100: feb0 643d d02c 533c 5dbf c2bc de92 dd3c
00000110: eed6 8d3c f00e 893d b424 293d f432 c6bc
00000120: 0473 203d 7952 a93c 83f0 313c 23c5 f23c
00000130: 9a24 b5bc 461a 193d 18f4 ca3c 520b fdbb
00000140: 774a a9bb 8299 eb3c e76b 123d 4921 543c
00000150: c18b 3c3c 1cca 303d e0ec 4e3d e53b 0fbd
00000160: ee8c 08bd 37f4 fcba d239 2c3d 6da5 52bb
00000170: d721 573d 24c9 683d 7ec8 fc3c 60e1 f13c
00000180: ca72 3ebc 728b e3bc e5b0 b73c 9cd9 6abd
00000190: 7115 c83a 2148 293d 23f3 babc 90f5 e2bc
000001a0: b751 623d dbd5 513d 7152 5cbd 29a3 0ebc
000001b0: 0a64 c13b deac 82bc f16c 2ebc 9568 cfbc
000001c0: 6211 41bb 4035 17bd 0bea 253d c0c6 cf3c
000001d0: 9729 5b3c 3579 d3bc c137 aabc 5ff6 783c
000001e0: ab51 333c f209 583d 8ff8 1fbc 27c5 ab3b
000001f0: 0efd f93b b550 2a3d 4f0a bb3c adcd 08bc
00000200: 5f36 af3b 3cb6 4b3d 7d69 9fbc be9e 2b3d
00000210: 9a18 be3c c06b 1b3d 8413 1a3c 29b7 963b
00000220: ab12 633b 4a65 343d 93da f53b abf0 1b3d
00000230: fd36 38bb a76b dd3b 3aeb 0abd 4134 bc3c
00000240: e8a0 dfbc a82d af3c ba00 72bc f6aa a93b
00000250: 44c8 d9bb e572 96bc 6948 fc3b 9002 073d
00000260: b18c 7d3d 43d0 bd3c 759e 673d 31a5 353d
00000270: 6c84 08bd 80a1 21bc 7c1e 303d a471 133d
00000280: eb76 2c3d df53 f9ba 8398 e3bc 1704 383d
00000290: 3668 20bd b8bd 58bd c0cd 44bd c8cf cc3c
000002a0: ba99 37bc c5bb 01bd 4c3b 35ba 6494 82bd
000002b0: 624a 1b3c c862 7e3b 0ed3 0dbd 1cd8 583c
000002c0: 160b 613d 343b dbbc 9816 23bc a395 b63c
000002d0: 6e05 4dbb bf45 4d3d e215 02bc 2138 9dbc
000002e0: 0724 3e3d 8ebd 033d 9892 113b 80e6 37bb
000002f0: 34e0 b5ba 7959 2abd fcc5 dcbc 5c73 2d3c
00000300: 5162 d0bc 3a7d 55bd dac5 f5bc 9b4e 8dbc
00000310: 308c c83b d59a 2dbd 7239 21bc 335e 093d
00000320: aff3 b83c 6686 073d 462d 18bd b70d fcbc
00000330: 3e65 8d3b 041b 563c c43d 15bd 02d6 2c3c
00000340: 022c 7b3c 44e9 aebb 24ff 09bd 2687 23bd
00000350: 3ade 20bd fee7 24bc a73b 2a3d 7998 103c
00000360: cfc1 413c ad18 2dbd db99 27bc b08b 523d
00000370: 3533 663d 6320 8d3c 17dc 0fbd 20fd c33c
00000380: 0aab eaba f6ba a2bc 2631 1dbc e27b 06bd
00000390: 8faf 383d 64a6 ff3c 6739 ac3c fcd9 f63c
000003a0: a885 b6bb 9281 98bc 8bfb 86bc 44ba 3a3c
000003b0: caaa 44ba 9e3f 5e3d 5c7e 5c3d b3b2 a6bc
000003c0: 0c72 cfbc e90e e33c 9f61 4bbd e618 db3a
000003d0: b693 5ebd 7a81 5ebd 0fb2 07bd fbf3 923b
000003e0: bb72 f1bc 319d 38bd a929 253c cd7d 5abc
000003f0: 11c6 82bd 6cc4 a83b 90cf 113c 3e05 1d3d
-0.0192498 -0.02624557 -0.014044278 0.023643514 -0.04205304 -0.04683202 -0.03366958 0.0070060673
-0.012233403 -0.026221594 -0.037351016 -0.048003774 -0.0060334876 0.03245054 0.010078043 -0.05612429
-0.035496984 0.026004227 -0.022021223 0.0309525 0.044034924 -0.03639028 0.0147353895 0.013990734
0.002239982 0.0286481 0.034066193 0.01689641 -0.036794916 -0.015999733 -0.023674656 0.017400043
-0.0546574 -0.05096004 -0.027200216 -0.052616317 0.0036007813 -0.03112287 0.006522868 0.014162863
0.035985127 -0.041832328 -0.051340763 -0.0015255301 -0.05466543 -0.032887384 -0.054114945 -0.023137862
-0.024896724 -0.006687883 0.039079726 0.047637332 -0.032922283 0.0020779455 0.06496362 0.045399025
-0.035103027 -0.03891539 0.013944337 0.038070913 -0.02485089 0.003903998 -0.018012159 0.018682547
0.055832855 0.012889102 -0.02377289 0.02704757 0.0173144 0.06692302 0.04129477 -0.024194218
0.039172187 0.020669209 0.010860565 0.029635018 -0.02211218 0.037378572 0.024774596 -0.0077222968
-0.0051663476 0.028759722 0.035747435 0.012947389 0.011507929 0.043161497 0.05051887 -0.03496923
-0.033337526 -0.0019298856 0.04204733 -0.0032142058 0.052522507 0.056832448 0.03085732 0.029526412
-0.0116240475 -0.027776454 0.022423217 -0.057336435 0.0015265179 0.041328553 -0.022821015 -0.027704984
0.05525371 0.05122934 -0.05378956 -0.008705893 0.005901818 -0.01595157 -0.010646091 -0.025318423
-0.0029459824 -0.036916018 0.040506404 0.025363326 0.013376615 -0.025814632 -0.020778539 0.015195458
0.010944764 0.05274386 -0.009763851 0.0052420083 0.0076290434 0.041580874 0.022832064 -0.008349818
0.0053470577 0.04973434 -0.01945948 0.041899435 0.02320509 0.037944555 0.009404067 0.004599471
0.0034648578 0.04404191 0.0075028627 0.038071316 -0.0028108947 0.006757218 -0.033915736 0.022974135
-0.027298406 0.021384075 -0.014770681 0.005177851 -0.006646188 -0.018365333 0.0076990617 0.03296143
0.061901752 0.023170596 0.0565476 0.044346992 -0.033329412 -0.009865165 0.042997822 0.035997048
0.042105597 -0.0019022188 -0.027782684 0.044925775 -0.039161883 -0.052915305 -0.04804778 0.025001422
-0.011206085 -0.03167321 -0.0006913438 -0.063759595 0.009478183 0.0038816202 -0.034625106 0.013235118
0.054942213 -0.026761629 -0.009954117 0.02228815 -0.0031283754 0.050115343 -0.007939788 -0.019191803
0.046421077 0.032163195 0.002221262 -0.0028060973 -0.0013876022 -0.041589234 -0.026949875 0.010586586
-0.025437506 -0.05212138 -0.03000157 -0.017249396 0.0061202273 -0.042383987 -0.009840356 0.0335371
0.022577135 0.033087157 -0.03715255 -0.030768258 0.0043150475 0.013067964 -0.036435857 0.01054907
0.0153303165 -0.005337866 -0.033690587 -0.03992381 -0.03927443 -0.010065077 0.041560795 0.008825415
0.011825993 -0.04225986 -0.010229553 0.051402748 0.05620118 0.017227357 -0.035122003 0.02392441
-0.0017903757 -0.01986454 -0.009594237 -0.032832988 0.0450893 0.03120727 0.021023465 0.03013324
-0.0055701323 -0.018616471 -0.016477367 0.011396948 -0.0007502256 0.05425989 0.053831443 -0.020348882
-0.025322936 0.02771707 -0.049653646 0.0016715794 -0.054340087 -0.054322697 -0.033128794 0.004484651
-0.029473653 -0.045071784 0.010080733 -0.013335657 -0.063854344 0.0051503684 0.008899584 0.038335077

fc0.bias f4 [120]
00000000: b447 843c d8a9 56bd 7f81 393c 8a2d 063d
00000010: 5b14 2b3b f8dc 5b3d 1c27 e8bc ca72 5a3d
00000020: 48ba 483d 90cf 7dbc 6cde 1fbd 8c28 d2bc
00000030: 1eef eabc b44b 42bd c6b7 44bd 60f0 a1bc
00000040: e148 0a3d 3060 243c 633e 263d d935 08bc
00000050: b1f2 a23c 6d2a 1abd c7f2 693d c16f e53c
00000060: 5ae5 54bd f5dc 6e3d b3f7 273d 5d4e e8bb
00000070: 4d4f 6b3d 9721 b7bc 820a abbc 6004 80bb
00000080: 3cbc 533d 43fe 62bd 9eba cb3c 63fe cbbc
00000090: 5b04 f2bb 8d1a 193d 670e 993c dc8d 643d
000000a0: eb2b 173d f6ff 53bd 6169 b13c f171 a63c
000000b0: 8edf 853c 66ad 15bd 5e94 fbbc f4bf 08bc
000000c0: 0eeb dabc 0fab 913d c8a6 3dbc 6d30 e73c
000000d0: f5aa fe3c 1803 40bd f705 80bc 45b3 613c
000000e0: c5cf 163d eedc e9bb bd88 05bc 78f9 05ba
000000f0: 64a3 4c3c 82f5 d3bc beba bc3c 35d9 413d
00000100: 8793 51bc c89e a53d 4eda 893c 417d c33b
00000110: 3ffd 88bc d386 803d 0372 893d 1e8b 84ba
00000120: 7c68 ff38 ffa2 9cbb 7a94 f1bb 7e47 403d
00000130: 77f8 0ebd de78 3abd a7c5 b5bc 528a 82bc
00000140: 07b5 123d 9489 59bc 3666 17bb 20dd 8b3c
00000150: 3a52 00bd 8d18 313d b3f6 513d 2119 203d
00000160: bbaa 9abc 7856 d5bc 23ae b53a 0885 463d
00000170: 4d3d 41bd eb1a 90bd 3975 d9bc 1333 bfbc
00000180: 46e8 a73b 3524 d63c e3f6 2b3d cbd6 673b
00000190: 2a17 14bd e3ef 29bd 04e7 e03c 5a8c c2bb
000001a0: 732a b53c 2939 a13c f97b cabb 5ecb 22bc
000001b0: b30b 4a3d c4de cabb f3e8 323d 6dfc d53b
000001c0: d9a7 6a3d a252 623b 8ad7 283d b373 aa3c
000001d0: a92b 76bd 8c4f 09bc 269c e1bc dce3 ca3c
0.016147472 -0.05240807 0.011322378 0.032758273 0.0026104662 0.05367753 -0.028338961 0.053332128
0.049005777 -0.015491381 -0.039030477 -0.0256541 -0.028678473 -0.047435477 -0.048026823 -0.01976794
0.03376091 0.0100326985 0.04058684 -0.0083136195 0.019891115 -0.037638117 0.057116296 0.02800739
-0.05197654 0.05831619 0.04100771 -0.0070894198 0.057448674 -0.022354884 -0.020879034 -0.0039067715
0.051693186 -0.055418264 0.02486926 -0.024901574 -0.007385773 0.037378836 0.018683625 0.05579935
0.036907118 -0.051757775 0.021656694 0.020318003 0.01634195 -0.03654232 -0.030710395 -0.008346546
-0.026723411 0.07112705 -0.011575408 0.028221333 0.031087378 -0.04687795 -0.015627844 0.013775651
0.03681924 -0.0071369326 -0.008150277 -0.0005110721 0.012490127 -0.025873903 0.023038264 0.047326285
-0.012791521 0.08086926 0.016827729 0.005965859 -0.01672232 0.06275716 0.06711199 -0.0010112261
0.00012178809 -0.004780173 -0.007372436 0.04694318 -0.034904923 -0.045525424 -0.022188975 -0.015935097
0.035817172 -0.01327743 -0.0023101694 0.017073214 -0.031328417 0.043236304 0.05126066 0.039086465
-0.018880239 -0.026042208 0.0013861101 0.048466712 -0.0471776 -0.07036384 -0.026545154 -0.023339784
0.0051241247 0.026140312 0.041983496 0.003537583 -0.036154903 -0.04148854 0.027453907 -0.0059371414
0.022114968 0.019680576 -0.0061793295 -0.009936182 0.049327563 -0.0061911065 0.04367919 0.0065303356
0.05728898 0.0034534116 0.04122118 0.020807123 -0.06010023 -0.008380782 -0.027540278 0.024766855

fc1.weight f4 [84, 120]
00000000: 9faf c03d 2957 053d 8abf a33c 7fd8 843d
00000010: 249d a1bc 63c2 54bc f4f1 353b 1de2 143d
00000020: 72c5 443d d92d 993d b23f 833d 2714 df3a
00000030: 1aa8 be3d fbee b8bc 68ae 1ebd 883b b53d
00000040: 16b6 40bd da13 613d 1834 56bd bca8 d23d
00000050: cf99 b93d f47a bdbc 46e8 0b3d 40d0 d23c
00000060: b544 bf3c 2a11 9bbd e891 cabc b53c 443d
00000070: 131b 97bc 0ff6 ebbc d91d 71bd dd8c 8dbd
00000080: b97e cebd 4633 073d ccd4 693d c4cd 023d
00000090: dd81 44bd a311 903d 4033 0ebd 6fdc afbb
000000a0: 120c 153d 7d8d 43bd 3538 2cbd e4b8 9dbd
000000b0: cf8a 67bd bc78 30bd c113 32bd 4330 0b3d
000000c0: bb97 583d df15 a3bd f510 96bd dbf0 c33c
000000d0: 46fd bc3d 79f9 33bc 859f 923d 0cbd 2e3c
000000e0: 78e2 4abc 8219 3f3c ed3c 2ebd d103 f0bc
000000f0: dab3 b23c ca82 8cbd a6c5 ef3c d71e a93d
00000100: 408a 2abd 3ab7 8dbd 4def 653d ccd0 c73c
00000110: 3c05 c9bb 34cc b7bd 54a6 8abd 0760 1abc
00000120: cfb7 803d 8a73 0ebd 4321 6a3a 5ca4 a9bb
00000130: 120f 8f3d fc82 623d 40a7 8f3d dc67 f23c
00000140: 84c8 a93d 70ab ba3d 83c3 3ebd eb4e b0bc
00000150: 2cca 183d 5916 cdbc b37b 54bd 6361 9cbd
00000160: a287 51bd 04a3 0b3d a384 9b3d 330d ee3c
00000170: 3e9a 993d 4cc2 d13d 7796 3cbd fc37 593d
00000180: efa3 ebbc 3107 4f3d 9e4f 38bd a123 a3bd
00000190: 54bb a8bc 8e52 ad3d 42cd a73d df27 cb3d
000001a0: 62a5 9bbd 5160 85bd e917 cf3d bbfe 18bd
000001b0: 70f7 0fbd 59ad b23d f40e 9b3d f1f2 80bd
000001c0: b246 76bd 66c4 1c3c 8d33 85bc cc0f 2dbd
000001d0: 1c64 3a3d f447 60bd 5c8b 5ebd b4ba 8a3d
000001e0: 491b c4ba 4a7c 8b3d df7f 263d cb18 31bd
000001f0: 14da aa3b e04a 8d3d 51ce 02bd f4ae 55bd
00000200: 61d7 523b 6861 16bd ed40 24bd 130c 023d
00000210: 6b7f 513d b815 343d 46d0 98bd 8300 25bc
00000220: 77f6 02bd 9c72 c43d eeb9 2f3d d1ab 0f3d
00000230: e89d 363b 6013 9d3c 5230 00bd 66ea 833d
00000240: 72e0 c43b 871d 823d 5fd4 28bd 85c3 c1bd
00000250: 5a6f 003d eec2 da3c a6a3 383d b8e5 843d
00000260: 1987 b53c f3e1 7e3c a5cf 6ebd 0251 23bd
00000270: 3316 92bd 5d4f d83c 5e1f 5d3d 43e9 653d
00000280: c246 35bd 388b 4c3c 1ef0 59bd 68c0 04bd
00000290: fd6f 6bbd 1c56 a53d 1dbf 8ebd 5fc3 803d
000002a0: a274 4abd 32fb a33d c70a a9bc 34df 66bd
000002b0: 477e a53b 8844 2c3d 1ae1 913d 6175 923d
000002c0: 8bd9 97bd 4302 743d 9e95 f23c 1378 a43c
000002d0: fff9 bbbd 8e95 0a3d e554 9dbc 4c18 b7bd
000002e0: 6278 0bbd 26dd 303d 680e 7ebd caaa 88bd
000002f0: b030 efbc b4c9 db3c 1f38 a5bc 40a1 1fbc
00000300: ed90 e73c 2674 d43b 98da 93bc 41cb 7a3d
00000310: 17b4 1f3d 95c4 f13c 12c0 823c fbcd 3cbd
00000320: fad5 713d c00e 33bd 8785 843d c5f3 a03c
00000330: 2b4b 953c 85cd aa3d e007 223d 74c7 07bd
00000340: ff0c 82bc a74f b13c 4bf9 143d 625b c1bd
00000350: aad4 c5bc 4658 903d 228c 023d b142 3e3c
00000360: 878d 31ba be30 8b3c 4258 6f3d c0cb a6bd
00000370: 6e2c 90bd a02a 16bc 47f5 c7ba 34b3 2d3d
00000380: 9dac 3b3d ffcf 853d c57b c9bd c1ce 813d
00000390: da8e 093d c74d 01bd 4ead f83c 9ae3 8e3d
000003a0: ab63 e0bc 2dc1 f4bc 8931 a63d c5ab 93bc
000003b0: 1cd1 753d 051c 5ebd 202a c3bd 734e 71bc
000003c0: 1412 ecbc d4a4 a1bd 6577 a83c c7c1 973c
000003d0: 7ba9 08bd 64be 503d c94f 9abd c8b4 643d
000003e0: c3eb 66bd 8cab 05bd 2756 8ebd aa8e fb3c
000003f0: 5216 9c3d f669 4b3d f777 d6bc 40b2 993c
0.09408497 0.032553826 0.019988794 0.06486606 -0.01972825 -0.0129857985 0.0027762624 0.03634845
0.04803986 0.07479448 0.06408633 0.0017019556 0.093094066 -0.022574892 -0.038740546 0.08849245
-0.04704865 0.054950573 -0.052295774 0.1028609 0.0906254 -0.023129918 0.03415706 0.025734067
0.023348192 -0.07571633 -0.024727777 0.047909457 -0.018445527 -0.028803853 -0.058866356 -0.06911633
-0.10082764 0.033007883 0.057087705 0.031934515 -0.04797541 0.07034614 -0.034716845 -0.005366854
0.036388464 -0.047742356 -0.04204579 -0.07701281 -0.056528863 -0.04308389 -0.04347587 0.033981573
0.052879076 -0.07963156 -0.07327453 0.02391856 0.092279956 -0.010984772 0.07159332 0.0106651895
-0.012383096 0.011663796 -0.042538572 -0.029298695 0.021814276 -0.068608835 0.02926905 0.08257835
-0.04163575 -0.06919713 0.056136418 0.024391554 -0.006134657 -0.089744955 -0.06770006 -0.009422309
0.06285059 -0.034778155 0.0008931348 -0.005177064 0.06985296 0.055300698 0.07014322 0.02959054
0.082901984 0.0911473 -0.046573173 -0.021522006 0.03730218 -0.02503507 -0.05187578 -0.076357625
-0.05115474 0.03409101 0.07593658 0.029059028 0.075001225 0.10242137 -0.046041932 0.053031906
-0.028764693 0.050543968 -0.044997804 -0.0796578 -0.020597138 0.08463012 0.08193447 0.09919714
-0.07599904 -0.065125115 0.101119824 -0.037352305 -0.035148084 0.0872447 0.075712115 -0.062963374
-0.060126014 0.009568309 -0.016259933 -0.042251393 0.045505628 -0.05475612 -0.054332122 0.06773892
-0.0014961745 0.06810816 0.04064929 -0.043236535 0.005213985 0.06899047 -0.03193504 -0.0521688
0.0032171833 -0.036713988 -0.04010098 0.031749796 0.051146906 0.043966025 -0.074616 -0.010070923
-0.03197333 0.095921725 0.042901926 0.035075966 0.0027865116 0.019174278 -0.03129608 0.06441192
0.0060082013 0.06353288 -0.041218158 -0.094611205 0.031356193 0.026704278 0.045077942 0.06489128
0.022159146 0.0155568 -0.058303494 -0.039872177 -0.071331404 0.02640503 0.053984992 0.05613066
-0.044256933 0.012484364 -0.05320751 -0.032410055 -0.057479847 0.08073065 -0.06970046 0.06287264
-0.049427636 0.08006896 -0.020635022 -0.056365207 0.005050454 0.042057544 0.07123013 0.071512945
-0.0741454 0.05957247 0.029612359 0.020076787 -0.09178542 0.033834033 -0.01920552 -0.08940181
-0.034050353 0.043179654 -0.062025458 -0.066732004 -0.02919802 0.026829578 -0.020168362 -0.009743035
0.028267348 0.0064835725 -0.01804857 0.061228994 0.038990106 0.029512683 0.015960727 -0.046094876
0.059041955 -0.04371524 0.06470781 0.019647488 0.01822432 0.08339981 0.03955829 -0.033149198
-0.015875338 0.021644427 0.036370557 -0.09441258 -0.024149258 0.07048087 0.031871922 0.01161258
-0.00067731034 0.016991016 0.05843378 -0.08144331 -0.07039724 -0.009165436 -0.0015255593 0.04240723
0.045818914 0.06533813 -0.0983806 0.06338263 0.0335835 -0.031568315 0.030356076 0.06977005
-0.027391275 -0.02987727 0.08114917 -0.018026242 0.060013875 -0.05422594 -0.09529519 -0.014728176
-0.028817214 -0.078927666 0.020564744 0.018525017 -0.033364754 0.05096282 -0.07534749 0.05583647
-0.056377184 -0.032634303 -0.06950026 0.030707676 0.07621445 0.0496616 -0.02618025 0.018761754

fc1.bias f4 [84]
00000000: 98bb c7bc ee80 67bd 7fae af3d c3bf 063d
00000010: ada5 3bbc 4413 413b 4626 68bd 300a 443d
00000020: 839c c0bd 4813 acbc 568c a7bb 2343 803d
00000030: 1a64 5ebd c8f6 9dbc ac56 043b 49dc a03d
00000040: 0339 8dba d040 833d 709d 1abc 10b5 423d
00000050: bba7 dbba 7b9c 23bd 481d 0f3d 9434 df3c
00000060: a3c1 2c3d 0085 12bc 250e f53c 21cd 9dbd
00000070: 2bef 96bc 6d6e fbbc 8d44 3ebd 2b7f b0bd
00000080: 4900 8d3d 8660 5a3d 9749 a33d e79d 59bd
00000090: b949 ee3c a6f7 46bd 424b d03c b795 f03c
000000a0: b733 38bd 89c9 c33d 2567 3bbd 4783 a9bc
000000b0: f04f 75bd 101c 603d e4ed 343d 7966 143c
000000c0: 5ce0 3a3d 0013 c73c e90d 4d3a 320a 24bd
000000d0: e2d2 903d 140c aa3c 7e8d 8c3d 02b4 e23d
000000e0: 4273 d4bc beb8 c73d f666 3cbd aa4c 883d
000000f0: 19c9 943d c475 5e3d 51e7 13bd a7a1 4d3d
00000100: 49e6 90bd 79f1 77bd cdec 22bd e46a 3a3d
00000110: c011 fcbb 0fe0 ae3d 71b7 853d 5119 fbbc
00000120: 913e 763d 2f08 41bd 34ab 603a cd09 6e3d
00000130: c0b3 56bc 8a16 18bd 16c2 53bd d9b7 eeba
00000140: b02b 91bc 7183 bebc d204 373c a6ff 86bd
-0.024381444 -0.05651944 0.08578204 0.032897722 -0.011453074 0.0029460946 -0.056677125 0.047861278
-0.09404852 -0.021005288 -0.005113165 0.06262805 -0.054294683 -0.019282714 0.0020193262 0.07854516
-0.0010774437 0.064088464 -0.00943695 0.047535956 -0.0016758362 -0.039944153 0.034940034 0.02724675
0.042176854 -0.0089428425 0.029913971 -0.07705141 -0.018424591 -0.030692304 -0.046452094 -0.08618005
0.0688482 0.05331471 0.079730205 -0.053129103 0.029087888 -0.04857602 0.02542651 0.029368265
-0.044971194 0.09559924 -0.045752663 -0.02069248 -0.059890687 0.054714262 0.044172183 0.0090576345
0.045624122 0.024301052 0.0007822202 -0.040048786 0.07071473 0.020757712 0.06862925 0.1106949
-0.025933865 0.09752034 -0.04599663 0.066552475 0.07264919 0.05431153 -0.036109272 0.05020299
-0.070751734 -0.06053302 -0.039776612 0.045512095 -0.0076925457 0.085388295 0.06529129 -0.03065172
0.06011826 -0.047126945 0.0008570433 0.058114816 -0.013104379 -0.03713087 -0.051698767 -0.001821275
-0.017721027 -0.023256036 0.011170583 -0.0659173

fc2.weight f4 [10, 84]
00000000: e4dc 0a3c e231 703d c2f0 9e3d 311f a2bd
00000010: 4426 93bc 7f9a eabd 811c b9bc 06ab 043d
00000020: 20b4 3abd f03c e43d 42e9 56bd e570 65bc
00000030: c7c7 05bb 72b6 7ebd 4507 dabd 9a2b ea3d
00000040: a1ee 703d 158f d5bc 649d be3c 4643 25bd
00000050: 9700 5fbd dd70 9dbd 8076 81bc daf2 b8bc
00000060: d0eb d8bb 6c8e 94bd 751f 653c 7c5f 443d
00000070: d457 c03c a491 b7bd 2696 b7bd a59a b73d
00000080: 2c0f 3cbd 2612 49bd 940d a63b 522e 493b
00000090: d096 3fbd 4e91 c4bd a53d 293d 0ceb 9dbd
000000a0: 3cd1 f4bc d58a a3bd 2775 d83d 04c4 f93a
000000b0: ddf2 083d a343 ab3c 1ab8 273d 7943 39bd
000000c0: 6d6e 9e3c 1856 1a3d 21f1 773d 3d9b c33d
000000d0: 2d75 c5bd 7bd7 073c 9ec4 6f3d 3bc8 5cbc
000000e0: b51f 74bc c1ba f8bd 9319 f2bd 11ba 26bc
000000f0: 13c4 db3c 7897 00bd 1434 5fbd 72db eb3d
00000100: dc75 253d ba76 0c3d 72d5 21bd d0aa 61bd
00000110: 1d56 e7bc 8820 36bb 2e14 a6bc 7c89 273d
00000120: 5d21 1abd 032f ccbd ed20 43bd 127c 64bd
00000130: 1dfb 8bbd 7841 a83d 8c5a 14bd 9ca2 fdbd
00000140: b9de 8d3d f08c d2bd 1e44 8ebc 5093 a53d
00000150: 1f09 a8bd 958b 073d 0d6e 26bd da12 ccbb
00000160: 182f dbbd 6f38 4f3b 90f0 32bd dc68 9d3d
00000170: dae8 4c3d f314 1c3d 65e7 6f3d 7222 a9bd
00000180: fb3d cfbc f6e8 a03d c87f 863d b6a5 d93d
00000190: 37d7 7cbc e3c7 bcbd e4b7 a63c a77d e4bd
000001a0: 9b49 a5bd e804 403d 18d2 293d 37c7 da3d
000001b0: b253 9a3c b3a2 db3d 7d75 473d 6476 c8bd
000001c0: 9673 023d ec25 023c 99ce ce3d 9867 4abd
000001d0: 62f1 47bd fe86 703d 8d19 363d 7d0e 03bc
000001e0: 5524 e43b 8079 b63d 0109 bcbd ab8c d93d
000001f0: 92a0 933d 6d80 16bd c8d8 2dbd 0f07 583d
00000200: f5c2 753c 4fd2 20bc 5935 02bd e811 b1bd
00000210: d05d 7cbc c243 b7bd 3d6c 5bbc c798 d23d
00000220: 2789 693d 0955 d7bd c68f 883c b235 1bbd
00000230: a0e0 d93d 0b55 2b3c a5a1 fd3c bd1a a13d
00000240: 3df5 f2bc b92e efbd 9549 e2bd cd25 81bd
00000250: f4ff a4bd 3a5f 92bd 1b2c c43d 1043 87bc
00000260: c9e2 c43d aa84 2a3c 6f15 3ebd 7e91 2d3d
00000270: 14d0 333c 9ce3 cabc 22e1 9ebd a99f 90b9
00000280: b181 e2bd c0bb c03d 12e9 3fbd cd07 00be
00000290: 221c cd3d 6434 5b39 3885 d4bc 08f8 8dbd
000002a0: f62a 87bc 47e4 d53c 0315 69bd 941d 6c3d
000002b0: bc7c c23b 8885 5abd 01d1 50bc 7480 1e3d
000002c0: eb27 fbbc 4b39 f73c d636 2c3d e6e6 88bd
000002d0: e36d 083d 781b cabd 13cb 8d3a 80b3 bebc
000002e0: 5636 a53d a92d 8c3d c05a 123b c8cc f13d
000002f0: 4ec9 8dbd 12cd 54bd fab4 0b3d a43c 2d3d
00000300: b20e ac3b 6153 e6bc d019 cc3c bb81 393d
00000310: 20ff b3bc 58bc abbd 732b 503d 12ff 99bd
00000320: 4735 c7bd 77ba cf3d 115b 273c bf7b 0d3b
00000330: c499 36bd eb1e 8a3d 8b75 3fbd c646 86bd
00000340: 3a57 cbbb bee9 a23d 0fc2 aabc fde5 543d
00000350: 0e01 eb3c 7589 cd3c baf5 603d b22b c33d
00000360: 7541 a53c ee89 a2bd df34 d8bd 74a9 053d
00000370: a36a 913d f19b 67bc 9ecc 10bd c20f 793d
00000380: 11b0 b83c aca8 143c aacc c1bd cf22 74bd
00000390: 5cee 4dbd 3cee 133d 63c2 00bd b8bb 8b3d
000003a0: 133a 61bc 0ac2 15bd 6fbb ceba db30 6aba
000003b0: b9ca 753c c9ff 843d e704 1d3d 007c 94bd
000003c0: cf7b 3bbd f81e b43d ce78 02bd f5ac 6c3d
000003d0: 4218 df3d 5abb af3d 2601 c2bc 51ba 8f3d
000003e0: e237 cabc 78b6 f73c c346 a2bd 1b35 aabd
000003f0: 7520 e9bd 3396 30bd 8347 563d 029b c03c
0.008475516 0.058641322 0.07760765 -0.079161055 -0.017962582 -0.11455249 -0.0225966 0.032389663
-0.045581937 0.111444354 -0.052468546 -0.014003967 -0.0020413266 -0.062185712 -0.10645918 0.114340976
0.058821324 -0.026069203 0.02326841 -0.04034736 -0.054443922 -0.076875426 -0.015803576 -0.022576738
-0.006619908 -0.07253727 0.013984551 0.047942623 0.02347938 -0.089633256 -0.089641854 0.08965043
-0.045912907 -0.049089573 0.0050675366 0.0030697775 -0.046774685 -0.09598027 0.041318554 -0.07710847
-0.029884927 -0.079854645 0.1056922 0.001905561 0.033434737 0.020906275 0.040947057 -0.045230363
0.019339764 0.03767976 0.060532693 0.09551094 -0.0964149 0.008291121 0.058537118 -0.013475473
-0.014900138 -0.121449955 -0.11821284 -0.010176198 0.026826894 -0.03139445 -0.054493025 0.11516465
0.040395603 0.034292914 -0.039510198 -0.05509454 -0.028239304 -0.0027790386 -0.020273294 0.0409026
-0.037629474 -0.09969904 -0.047638822 -0.055782385 -0.068350054 0.08215612 -0.036219165 -0.12384531
0.069272466 -0.10280788 -0.017366465 0.08084738 -0.08204865 0.0330921 -0.040632296 -0.006227833
-0.10702342 0.003161933 -0.04368645 0.07686016 0.050026752 0.038105916 0.058570284 -0.08258523
-0.02529811 0.07856934 0.06567341 0.1062731 -0.015432171 -0.09217813 0.020351358 -0.11156779
-0.0807068 0.04687968 0.041460127 0.106825285 0.018838737 0.10724392 0.04869603 -0.09788206
0.031848513 0.007943612 0.10097999 -0.0494152 -0.048814185 0.05872249 0.04445796 -0.00799906
0.006962339 0.08909893 -0.09181405 0.106225334 0.07208361 -0.03674357 -0.042443067 0.052741107
0.015000095 -0.0098157665 -0.031789158 -0.086459935 -0.015403226 -0.08948471 -0.013392505 0.10283046
0.057015564 -0.10514266 0.016670119 -0.037893005 0.10638547 0.010457288 0.030960867 0.07866428
-0.029657954 -0.116788335 -0.11049191 -0.06306038 -0.08056632 -0.07147069 0.09578725 -0.01651147
0.09613568 0.010407606 -0.04640716 0.04237508 0.010974903 -0.024766736 -0.077577844 -0.00027584776
-0.11059893 0.094108105 -0.046853133 -0.12502976 0.100151315 0.00020904985 -0.02594243 -0.06932074
-0.016499978 0.026109828 -0.056904804 0.057645395 0.0059352797 -0.05335 -0.012745143 0.03869672
-0.030658683 0.030178687 0.042044483 -0.066846654 0.03330792 -0.098685205 0.0010817967 -0.023278952
0.080670044 0.068446465 0.0022331923 0.11806637 -0.069231614 -0.051953383 0.03410814 0.04229416
0.0052507753 -0.02811593 0.024914652 0.045289736 -0.021972239 -0.08385533 0.050822686 -0.07519354
-0.09726959 0.10142987 0.010214583 0.002158865 -0.044580236 0.067441784 -0.046742957 -0.06556468
-0.0062054666 0.07954739 -0.020844487 0.051977146 0.028687026 0.025089959 0.054921843 0.095298186
0.020172814 -0.07936464 -0.10556959 0.032632306 0.071004175 -0.0141363 -0.03535139 0.060806043
0.022544893 0.009073418 -0.09462865 -0.05960351 -0.050276145 0.03611587 -0.03143538 0.06822914
-0.013746756 -0.036562003 -0.0015772412 -0.00089336716 0.015001946 0.064941 0.038334753 -0.072502136
-0.04577237 0.08794969 -0.03185349 0.057782132 0.10893299 0.08580656 -0.023682188 0.07017959
-0.02468485 0.030238375 -0.07923653 -0.0831091 -0.11383144 -0.04311199 0.052314293 0.023511413

fc2.bias f4 [10]
00000000: 1f0d 333d a174 a43c a713 5a3d 98e1 923c
00000010: 516a 98bd 9641 8cbc 1db6 593d e5c5 83bd
00000020: efc9 11bb a875 debd
0.043713685 0.020075144 0.0532414 0.017929837 -0.07442153 -0.017121118 0.053152192 -0.0643423
-0.0022245606 -0.10862285

exp_avg f4 [6, 3, 5, 5]
00000000: 8848 0cbd de41 e5bc 5fc2 ccbc 56a9 bebc
00000010: 602d cebc f6c5 0fbd 18e7 e4bc 4c70 bbbc
00000020: 88cc acbc d71c babc 7c9f 08bd 8f5e ebbc
00000030: 17c9 cabc ccdd a7bc 7ce6 b1bc 0999 01bd
00000040: d6d1 dbbc 717b c6bc f3f4 9bbc 1512 a0bc
00000050: 668a e1bc 6c01 bbbc fb05 99bc eb9e 78bc
00000060: eb3b 82bc 443f 14bd a633 eabc 659f c0bc
00000070: 66b7 b1bc 2b42 c8bc c1f7 2bbd dce2 0bbd
00000080: 7f7d e3bc 5ec6 d6bc 1abd e9bc 1b18 38bd
00000090: 6061 27bd 7142 11bd e144 ffbc e68c 05bd
000000a0: 934b 49bd d77d 3dbd 530d 2fbd e8ba 14bd
000000b0: e54c 13bd 112c 4abd dc03 40bd 8871 2dbd
000000c0: 4d65 16bd 320d 12bd 1b2a e9bc 10d7 abbc
000000d0: 3fce 7fbc 773a 4cbc 7c8b 6bbc a0f4 11bd
000000e0: 8fc7 e5bc 4def acbc 81da 94bc 77fe 9ebc
000000f0: b355 21bd 75db 12bd 786e f2bc c88b bebc
00000100: 5eaa c1bc a06a 35bd b509 2cbd 20df 18bd
00000110: 60e7 e9bc 3931 debc d95d 38bd cb08 30bd
00000120: 925c 19bd c365 f5bc 62dd e9bc 2897 1abc
00000130: adf3 dabb e2ca babb 106c 87bb c4f8 d5bb
00000140: aa2b 3abc e0c6 41bc 3354 22bc 83ea 07bc
00000150: 3431 25bc a9f3 a339 62e0 7c3a bc8d 423b
00000160: 3b06 293b dfaa c93a 97b2 503c cacc 8f3c
00000170: a203 a03c b266 823c 24dd 773c 1ae0 8d3c
00000180: 7d1c b53c b0fc b23c 186f 8b3c acb1 8b3c
00000190: 16a9 17bc 65ae cbbb 459d 9bbb adf9 69bb
000001a0: f906 bbbb 7812 28bc b13f 2bbc b84b 02bc
000001b0: 50ac dabb 1f53 0bbc 85b9 553b 8a74 943b
000001c0: 5e5b e93b 6561 e03b 20d9 a43b 89ef 8b3c
000001d0: 9b77 ba3c a326 d03c ff89 b23c 71d4 a13c
000001e0: d610 b03c 1b4f da3c d30d da3c cefa b03c
000001f0: 1295 a73c 2852 3cbc 25a6 14bc 4eb8 04bc
00000200: 8175 f0bb ee61 2abc dfae 53bc e7b8 60bc
00000210: 36a7 42bc 14e1 37bc e2ed 63bc 887a 97ba
00000220: d666 06ba 3b87 d43a 6742 ff39 923e f1ba
00000230: b5d5 2b3c 78ea 7d3c 4a8c 903c f74f 603c
00000240: 3945 393c d2b3 5d3c aa35 913c c186 913c
00000250: 7c53 543c 8fff 353c 9a73 613c 80e4 813c
00000260: 415f a13c fdf9 b43c 6959 8c3c 62a0 173b
00000270: b1ea 86b9 2271 d139 7762 a13b 8b55 813a
00000280: d8d3 1cbc 7aaf 54bc afae 7ebc 0e87 4bbc
00000290: f12e 49bc 0e28 223b ed3d 773b 2e93 ec3a
000002a0: bafd 823a 2158 023b 0908 963c 9189 b13c
000002b0: f2e0 a73c 5e68 833c e886 773c 8416 bc3b
000002c0: 3bc8 d43b 2df2 383c 2b16 5b3c 0ee1 f63b
000002d0: a609 ddbb eca5 1fbc cb99 febb 2eaf 57bb
000002e0: 9f22 e8bb 9033 8cbc f478 a4bc 6994 adbc
000002f0: 14b4 8dbc c5a2 88bc ed1d 18ba 70cb 0c3b
00000300: ed2d eb3a 0745 ba3a e27a f53a 744b 983c
00000310: 326d c33c 94aa c63c efd1 a23c d06f 933c
00000320: f392 0c3a 91f9 f639 f333 ad3b ea73 003c
00000330: 1501 083b b92a 47bc 4dc8 81bc 45a9 63bc
00000340: 5531 11bc 28f1 4cbc 7ea6 b7bc 61b9 d1bc
00000350: fcfd dbbc 9bae b6bc 5f0f b3bc f871 debb
00000360: 5e93 8dbb 9630 85bb 51e6 8fbb 9c32 9abb
00000370: ee49 3a3c 3915 853c 73fb 8d3c d625 4d3c
00000380: a287 233c af44 e93b dad7 8f3b 6085 b13b
00000390: 0bc4 043c d3e8 0e3c bd3e 233c 2ad9 e23b
000003a0: 1910 0e3c 31af 453c 75a4 723c e61f 4e3c
000003b0: ff80 1e3c dcc5 2f3c b06f 633c 9be9 a03c
000003c0: a8de 283c cd52 e13b b2f8 cc3b a564 223c
000003d0: 5f69 873c 0ec4 ed3b 38cf 5e3b 8bff 1a3b
000003e0: 2feb b83b 6193 443c 6422 1b3c e433 eb3b
000003f0: e36f 123c 53f5 483c a0a5 573c 2fad 443c
-0.03424886 -0.02798551 -0.024995027 -0.023274105 -0.02516812 -0.0351009 -0.027942225 -0.022880696
-0.021093622 -0.02271883 -0.03335522 -0.028731612 -0.02475409 -0.020491503 -0.021716349 -0.031640086
-0.026833456 -0.024228783 -0.0190377 -0.019539872 -0.027531814 -0.022827826 -0.01867961 -0.015174608
-0.015897712 -0.036193147 -0.028589081 -0.023513505 -0.021693897 -0.024445614 -0.041984323 -0.034151897
-0.027769802 -0.026217636 -0.028532553 -0.044944864 -0.04086435 -0.035463754 -0.031160774 -0.032605074
-0.04914434 -0.04626259 -0.042737316 -0.03631106 -0.035962004 -0.04935843 -0.04687868 -0.0423446
-0.0367177 -0.035657115 -0.02846246 -0.020976573 -0.015613138 -0.012465111 -0.014376517 -0.035633683
-0.028049259 -0.021110201 -0.018170597 -0.019408448 -0.03938837 -0.03585382 -0.029593691 -0.023260012
-0.023640808 -0.04429114 -0.042001445 -0.037322164 -0.028552711 -0.02712308 -0.045011375 -0.042977136
-0.037441798 -0.02995575 -0.028547946 -0.0094354525 -0.0066818804 -0.005700455 -0.004132755 -0.0065298993
-0.011362949 -0.011827201 -0.00990777 -0.008295658 -0.010082532 0.00031271324 0.0009646473 0.002968653
0.0025791067 0.0015386007 0.012737892 0.017553706 0.019532982 0.01591811 0.015128408 0.017318774
0.02210831 0.021849006 0.017020747 0.017052494 -0.009256622 -0.006215858 -0.0047489726 -0.0035701797
-0.0057076183 -0.01025831 -0.010452197 -0.007952623 -0.0066733733 -0.008503704 0.00326118 0.004530494
0.0071214875 0.006847548 0.005030766 0.017081993 0.02276211 0.025409048 0.021794317 0.01975462
0.021492403 0.026649049 0.02661792 0.021603968 0.020456824 -0.011494197 -0.009072815 -0.008100582
-0.0073382263 -0.010399325 -0.0129201105 -0.013715959 -0.0118806865 -0.011223096 -0.013911696 -0.0011556903
-0.0005127018 0.0016214618 0.00048686864 -0.0018405488 0.010487963 0.015497796 0.01764502 0.01369094
0.011308008 0.013531642 0.017725784 0.017764451 0.012959357 0.011108293 0.013760472 0.015856028
0.01969874 0.02209186 0.017132478 0.0023136367 -0.0002573333 0.00039947877 0.004925068 0.0009867413
-0.009571992 -0.01298129 -0.0155445775 -0.012422336 -0.012279258 0.0024743113 0.003772612 0.0018049234
0.0009993829 0.0019888955 0.018314378 0.021672042 0.020493004 0.016040977 0.015107848 0.0057399888
0.006493596 0.011288208 0.0133719845 0.007534153 -0.006745535 -0.009744149 -0.0077697984 -0.0032910812
-0.0070842053 -0.01711443 -0.020077206 -0.021188932 -0.017297782 -0.016679177 -0.0005802799 0.0021483563
0.0017942764 0.0014211246 0.0018728639 0.018590666 0.02385578 0.02425126 0.019875495 0.017997652
0.00053624733 0.00047106718 0.005285734 0.007840136 0.0020752598 -0.012156182 -0.015842581 -0.0138953375
-0.008861859 -0.012508668 -0.022418257 -0.02560109 -0.026854508 -0.022300055 -0.021857915 -0.0067884885
-0.004320546 -0.00406463 -0.0043914695 -0.00470574 0.011370165 0.016245471 0.017331814 0.012521228
0.009981068 0.0071187834 0.004389745 0.005417511 0.008103381 0.008722502 0.009963688 0.0069228606
0.00867083 0.012065695 0.014809717 0.012580847 0.00967431 0.010728326 0.013881609 0.019642642
0.010306992 0.0068763257 0.0062552327 0.009911691 0.016529737 0.0072560376 0.0033998024 0.002365085
0.0056432704 0.0119980285 0.009468649 0.0071778167 0.008937809 0.012265521 0.013162047 0.012004181
