saved_model/CifarModel.pt (torch, 762658 bytes, 40 tensors)

conv1.weight f4 [6, 3, 5, 5]
00000000: 7c29 183d 8a93 963d ee78 fc3c ac8e f83d
00000010: a9b1 b7bc 2539 bbbd eae1 9d3d 5e5b d2bc
00000020: ad99 b2bd ab14 9bbd 2f42 7dbd 4a0f 96bd
00000030: 335b 9b3d 7f82 043e 0d18 9f3d 2461 4cbc
00000040: 83ed 05be e8d8 e23d 1f4c 70bd 00e1 2c3c
00000050: d7b8 f6bd 7ac2 793c 8e06 cf3d 8709 f63b
00000060: 4410 973d 10d1 b7bc fb00 c63b 6918 783d
00000070: 1f65 153d b544 bcbd fef8 f53b e0e9 ec3b
00000080: 1e4d eb3d d5f2 0b3e ae81 97bd eebb cf3c
00000090: 1946 84bd df90 e63c a76d 01bd 32c0 0a3d
000000a0: 8605 143b 1c48 a7bb a0c2 093e 8bd8 253d
000000b0: ba0a 95bd b365 81bc 249b 183d 4b6c 29bd
000000c0: fe90 293c eaea 973d 2135 84bd 8f94 44bd
000000d0: f6e1 c33c ba53 973d c4eb edbd bbcf dfbd
000000e0: d416 903c 817e 893c cd48 c1bd 372c 80bd
000000f0: f9e5 683d 39d8 ecbc 4551 a2bd 4ae2 b03d
00000100: fb47 383d 959d cdbd 75fc b2bd 2397 bdbd
00000110: 08fc 783d 7921 b33c c5eb 903d 1702 323d
00000120: a30b 0a3d 6f30 4abd 2602 17bd a441 04be
00000130: 6ab5 04be 7686 fcbd 9e67 393d 8764 88bd
00000140: 2d60 b83d 0ef4 f2bd bf1a 713d 9baf e2bd
00000150: 1bfc 853d de3b 933d 0ff8 02be bcc7 263d
00000160: 00bc ccbd 4e90 cfbc ea84 373c 44e1 a7bd
00000170: b97b 56bd c76a a13d 6e1a 623d 2d23 183d
00000180: deb2 023e bcd2 54bd d1e2 84bd b198 ba3d
00000190: a84e bbbd 6854 9ebd 6270 fdbd 0cbd 51bd
000001a0: 7f95 743c b29b 26bc bc09 41bd af7d 87bd
000001b0: a28d 07bd 25f2 b6bd 20d2 acbd 46c8 f3bd
000001c0: b68c c5bd 258f e0bd ee29 fdbd 5ad4 08ba
000001d0: 3f07 d33d 3ce5 afbd ea08 8f3d 48e5 343c
000001e0: bf1e 743d 103a 3bbd 8aed 003e e6b0 983d
000001f0: 6330 403d cab0 ba3d 893f 78bc 020c e93d
00000200: fef5 ddbb 0cf8 463d 02a8 5d3d 1741 8abc
00000210: 00e9 80bc 7ef6 4abd efc4 943d 7a4f 4bbb
00000220: 6ae4 c93d 5ea7 b93d 2ffa 823d 2f6a d0bd
00000230: d04c d23c 4730 903d 152c a23d 21db 98bd
00000240: 1b26 6e3d 8087 7dbd 8f99 243d ba7a b83c
00000250: 1f45 f43c fe43 0a3e 73ea 89bd 901a 90bc
00000260: abe5 1b3d 58da 3c3d 9941 ecbc 5c17 7bbd
00000270: a864 ac3d 819e ebbd 6e2b 813d 40da d33c
00000280: f0f7 febc 2ed3 5f3d f887 553c 5d1b c93c
00000290: 33ba ba3d cbc2 3ebd 8475 eabd 3181 c43d
000002a0: 627c c9bd eba3 5f3c 06d5 833c b661 c23d
000002b0: 4545 283d 38cc a9bd 4865 0f3d ecc1 6d3c
000002c0: 7a1d 023c d92b b23d 714c 84bd 2784 ba3d
000002d0: 9cb0 b63d c5e5 abbd ac14 d43d b13b 823d
000002e0: c889 c23d 08f3 e2bd 053d f73d 5596 cabc
000002f0: dd9f 2b3b ad2a a53c ae61 51bd 3093 723d
00000300: 981a c33d 0138 353d 29af 9dbd 4f41 e2bc
00000310: c9b5 f93d 2bd9 3a3c a97e 513d 3493 403d
00000320: b6a3 0bbe f04b 0abe a149 f8bd ad4a f0bd
00000330: 3ab9 333d 8cbb 273d eb66 c7bc e3fe 5e3d
00000340: ecfe 10bc 3181 3a3c 8dcb 89bd 6499 c1bc
00000350: 2b18 3a3d a27e d13d fdd3 223d b8cf 1abd
00000360: 46c9 f4bd c30f ccbd bc51 06bd 8fda 50bc
00000370: 0ff3 613c 9130 973c 34c4 86bd af77 81bd
00000380: 9b27 92bd 1a0f 0c3e 1691 bfbc 281b f43d
00000390: 678b 003e 3909 ba3d bcf6 cc3d 106a b73d
000003a0: 2119 08bc c29e 4dbd 765c 8ebc 69ee a2bd
000003b0: 5676 b93d a8f7 b13d 7f4b 483d 317e fa3d
000003c0: 13c1 39bd 9035 edbd e9ef aebd f981 123d
000003d0: 437b 9ebd 4d3e 813d 924f fcbd 3bfc 55bd
000003e0: 2532 d3bd 49ff a2bd c1b9 a4bc 13ee 64bd
000003f0: 106a 033d 2939 873d 8e17 613d 2b7d c9bd
0.037148938 0.073523596 0.030819383 0.121365875 -0.022423582 -0.09141759 0.07709105 -0.025678333
-0.087207176 -0.075723015 -0.061830696 -0.07327135 0.07585754 0.12940405 0.07768259 -0.012474332
-0.13078885 0.11076528 -0.058666345 0.010551691 -0.12046974 0.015244121 0.10108672 0.00750846
0.07376149 -0.022438556 0.0060425973 0.060570154 0.03647339 -0.09192792 0.007506489 0.0072300285
0.11489318 0.13666852 -0.07397781 0.025358167 -0.064586826 0.028145252 -0.031598713 0.033874698
0.00225863 -0.0051050317 0.1345315 0.040489715 -0.072774366 -0.015795564 0.03725733 -0.04136304
0.01034951 0.07417853 -0.06455446 -0.04799324 0.023911458 0.073890164 -0.11617234 -0.10928293
0.01758901 0.016783955 -0.09437714 -0.06258433 0.056859944 -0.028911697 -0.07925657 0.08636911
0.04499052 -0.10039822 -0.087395586 -0.09257343 0.06078723 0.021866547 0.070762195 0.043459024
0.033702504 -0.049362596 -0.036867283 -0.12915665 -0.12959829 -0.12330334 0.045264833 -0.06659799
0.09002719 -0.11862956 0.058863398 -0.1106865 0.06542226 0.07189153 -0.1278994 0.040717825
-0.09996796 -0.025337365 0.011201123 -0.08197263 -0.052364085 0.07881694 0.055200987 0.03714292
0.12763545 -0.051958784 -0.06488574 0.09111155 -0.09145862 -0.07730943 -0.12374951 -0.05120568
0.014928221 -0.010168957 -0.047128424 -0.06615769 -0.033094056 -0.08932904 -0.08438516 -0.119034335
-0.09645979 -0.10964803 -0.12361513 -0.0005219631 0.103041165 -0.08588645 0.06984122 0.011040993
0.059599634 -0.04570967 0.12590614 0.07455616 0.046921145 0.09115751 -0.015151867 0.113792434
-0.0067737093 0.0485764 0.054115303 -0.01687674 -0.015736103 -0.04955148 0.072641246 -0.0031022714
0.0985802 0.09065126 0.06395375 -0.10176503 0.025671393 0.07040458 0.07918564 -0.074636705
0.05814181 -0.0618968 0.040185507 0.022519458 0.029818116 0.135025 -0.06734171 -0.017590791
0.038060825 0.046106666 -0.028839873 -0.061301574 0.08417636 -0.115048416 0.06307112 0.025860906
-0.031124085 0.054644756 0.013032906 0.02454918 0.09117546 -0.046572488 -0.114481956 0.09594954
-0.09838177 0.013649921 0.016092788 0.09491293 0.041081686 -0.08290905 0.0350087 0.014511567
0.007941598 0.086997695 -0.064598925 0.09107237 0.08920404 -0.083934344 0.10355505 0.063590415
0.09498936 -0.11081511 0.120721854 -0.024729887 0.0026187815 0.020161951 -0.051118545 0.0592224
0.09526557 0.044242863 -0.07699425 -0.027619032 0.12192876 0.011404316 0.051146183 0.047015384
-0.1363667 -0.1350553 -0.121234186 -0.11732993 0.043877818 0.040950343 -0.024341067 0.054442298
-0.008849841 0.011383341 -0.06728277 -0.023632713 0.045433205 0.102292314 0.03975295 -0.037795752
-0.11952452 -0.09963944 -0.03279279 -0.012747421 0.01379086 0.018455775 -0.065803915 -0.06321656
-0.071364604 0.13677636 -0.023384612 0.11919242 0.12553178 0.0908379 0.10007998 0.08955777
-0.008306772 -0.05020023 -0.017378073 -0.079556294 0.09055774 0.08689815 0.048900124 0.122311
-0.045350146 -0.11582482 -0.08541853 0.035768483 -0.07738354 0.06310711 -0.12319864 -0.0522425
-0.10312299 -0.07958848 -0.020108106 -0.055891108 0.03208357 0.06602699 0.054954104 -0.09838327

conv1.bias f4 [6]
00000000: a923 8a3d dc15 e83d 0c43 87bd 4799 953d
00000010: 50ea 89bc 0095 0a3e
0.06745083 0.11332294 -0.06604585 0.07304626 -0.016835362 0.13533401

conv2.weight f4 [16, 6, 5, 5]
00000000: 2a58 9a3d 4601 19bd 7853 1e3c d577 4a3c
00000010: 7253 b43d 9a2d 22bd 4852 c03c cc51 19bd
00000020: 8c58 5ebd 7170 1abd 04f9 aa3d d5d3 ccb9
00000030: 8a48 903d cb45 373d 459a 1ebd e27f c03c
00000040: de25 843d 99a9 cc3d 4dda d93d d456 b13d
00000050: 4a6e aebc 0ea7 763d 8033 b33d 6b50 083d
00000060: 63e5 593d abac 823c 4895 a73d c5af 983d
00000070: 2c6c 3abc f5ac 24bd 0e8f 9dbd 79c6 96bb
00000080: 831e 69bd 62ed 5ebd a8f6 fb3b dd77 33bc
00000090: b323 2a3d e159 dbbc 9076 3c3d 1102 443d
000000a0: 7c35 aabd 54f0 853b aedb f53c 45e4 0abd
000000b0: a576 8c3d 7142 083d b14a b23a fa7e 693d
000000c0: c9c1 37bd 84f7 3abd cb8e bf3d b209 66bd
000000d0: 1169 7ebc 9296 cc3d 6c44 5e3d 93a6 8c3d
000000e0: 94d8 cf3d f90b 0d3d 84ef 5f3d 0a25 5fbc
000000f0: 11d4 823d baa8 cf3d 4f0e d4bc 5ecc 873d
00000100: 3ad6 e3bc 5fdf 1abd 3a6f a83d e123 d13b
00000110: 7a6e d6ba ccb1 5b3a 198f 863d 3889 ecbc
00000120: 617f c83d 4cda a63d 5be4 9c3d 5b37 d03c
00000130: de99 9fbd 0648 6abd 945d 8abd a308 b93d
00000140: 1146 bc3c f42a 113d 797d 00bb ca50 4c3c
00000150: b714 bc3d 4e26 9a3c 8d2d cf3b 7380 ba3d
00000160: 3c08 4f3d 9335 f5bc 5ba2 50bd 721c 8a3c
00000170: a942 963c 87eb 33bd a37c 36bc cfe0 da3c
00000180: fffc 1ebc dc2e 55bd 0d11 ee3b 5ce2 4bbd
00000190: cbf6 ec3c 1edc 78bd 6944 c23c 0b38 81bd
000001a0: e5e6 2d3d 2f0a 90bb 4a7e 063c 72fe 763d
000001b0: 3988 8cbc 3f70 5d3d aec3 97bd 812e bcbc
000001c0: a87c 6a3d 3026 6abd 3a5b 2fbd 7fe5 2dbd
000001d0: 321d c6bc 3d2e a4ba afe0 dfbb 1b28 9e3d
000001e0: 3b02 883d 306c 803b 8f5c 5c3d 2efc 773b
000001f0: ec0f cf3c cb41 0a3b 7508 943d f802 733d
00000200: 1a6d a8bc 587f 79bd 5be1 fa3c 348b 77bd
00000210: 273a 93bd 521a a2bd 0eb1 f53c 1ba6 aebc
00000220: 160c f33b 5e30 883d 61b7 ad3d 66b7 a1bd
00000230: c404 293d 5015 a93b 401e 88bb b815 5bbd
00000240: 9089 243b 2b2f 6abd 3fdf 613d 1612 a33d
00000250: ca8e 73bd 89ca a43d 3214 ae3c 57d0 993c
00000260: 4ac0 7f3d 6cf8 833d 9306 4ebd 4093 8c3c
00000270: 343f afbd 3850 06bc f2ef 16bd 2029 f6bc
00000280: 1dc5 97bd 1753 8f3d 139c 9a3d 6a9b 89bc
00000290: 2475 a63d 8d01 81bd 0cd3 83bd a554 8abd
000002a0: 5664 83bd 58ef dcbc 994b c7bc 4969 923b
000002b0: 1f0a 0fbd e8da 983b cd20 1a3c e9fe 94bd
000002c0: cf4b 7abd 2d5c 7b3d 41c9 95bd 24d0 6d3c
000002d0: 29ac 823c 863a 343d 2829 33bc c021 8e3d
000002e0: 743b 24bd 67c4 ae3d 2215 813d 036b 58bd
000002f0: 9978 5d3d 98f2 6f3d 0324 923c 7e51 8e3d
00000300: 4383 c43d f35e 7a3d 6fd9 de3c a6b9 96bc
00000310: 740a 923d 4bc3 cdbc a61f 90bb cc54 073d
00000320: 0351 473c 1f2b 703d e4bc f23b d831 3c3d
00000330: 1f2f 603d 72fa 4cbd 6bce 9a3d d074 43bc
00000340: 7cac 95bc a81a de3c f8d2 623c 4bb8 72bd
00000350: d586 593d 37c9 583d 408d a13c c97e 7abc
00000360: dd0d a9bd b4a2 333d 2a02 a5bd e98d 04bd
00000370: 9ea7 3cba 229f 413d e102 ccbd 9894 0abd
00000380: 1301 54bd 4779 a13b 169d bb3d 7ae2 143d
00000390: 07ed e1bb 57a1 1ebc 61be a03d ac91 ca3d
000003a0: 5cb3 233d b778 aa3d f745 213d 14bd ad3d
000003b0: 8e6b 28bc 3767 973d b34c 4f3d 2adb 3cbd
000003c0: a84d 58bd 43cc a03d c83a 903b 67c6 83bc
000003d0: 1a73 623c 041d 97bd 8295 7c3a cedd 343c
000003e0: 108e 62bd ed93 8c3d 3187 91bc ae95 edbb
000003f0: 217c b5bc 7add 7b3d fb35 a13d f432 7f3c
0.07536347 -0.03735473 0.009663455 0.012357672 0.088049784 -0.03959427 0.023476735 -0.037431523
-0.054283664 -0.03770489 0.08348277 -0.0003906774 0.07045086 0.044744294 -0.03872134 0.02349848
0.06452535 0.09993286 0.10637341 0.08659139 -0.021292824 0.06021791 0.08750057 0.033279818
0.053197276 0.015951475 0.0818277 0.074554004 -0.011378329 -0.040204007 -0.07693301 -0.0046012965
-0.056913864 -0.054425605 0.007689316 -0.010953871 0.04153795 -0.026776256 0.046011508 0.047853533
-0.083109826 0.0040874872 0.030011978 -0.0339091 0.06858567 0.03326649 0.0013602582 0.05700586
-0.044862542 -0.045646206 0.093534075 -0.05616159 -0.0155279795 0.099896565 0.05426447 0.06867709
0.10148731 0.034435246 0.05467178 -0.013619671 0.06388105 0.10139604 -0.02588573 0.06630777
-0.027812112 -0.03781068 0.0822434 0.006382451 -0.0016359829 0.0008380681 0.065702625 -0.028874025
0.097899206 0.081471056 0.07660743 0.02541702 -0.0779302 -0.057197593 -0.0675613 0.090348504
0.022982629 0.035441354 -0.0019606038 0.0124704335 0.091836385 0.018817093 0.0063225687 0.09106531
0.050544962 -0.029932773 -0.050936084 0.016859267 0.018342333 -0.04392579 -0.011138114 0.026718525
-0.009703874 -0.05204664 0.007265216 -0.04977642 0.028926274 -0.060756795 0.023714261 -0.063095175
0.042456526 -0.004395745 0.008208821 0.06030125 -0.0171548 0.054062124 -0.0741037 -0.022971394
0.057247788 -0.057165325 -0.04281161 -0.042455193 -0.024183843 -0.0012525987 -0.0068322043 0.07722493
0.066410504 0.003919147 0.05379921 0.003783952 0.025276147 0.0021096345 0.072281756 0.059329003
-0.020559836 -0.06091246 0.030625036 -0.06043549 -0.07188826 -0.079151765 0.029991653 -0.02131944
0.0074172122 0.0664985 0.084822424 -0.078963086 0.04126431 0.0051600114 -0.0041539967 -0.05348751
0.0025106408 -0.05717389 0.055144545 0.07962434 -0.059462346 0.08046443 0.021249864 0.018776102
0.06243924 0.06443867 -0.05029924 0.017160058 -0.08556977 -0.008197837 -0.036849923 -0.030048907
-0.07410643 0.0699827 0.075493 -0.01679774 0.081278116 -0.06299124 -0.06436738 -0.06754426
-0.06415622 -0.026969597 -0.02432804 0.0044681174 -0.03492176 0.0046647675 0.009407234 -0.07275183
-0.061107453 0.061367203 -0.07313777 0.014514957 0.015951233 0.044001125 -0.010935105 0.06940031
-0.04009576 0.085335545 0.06302859 -0.05283643 0.05407009 0.058580965 0.017839437 0.06949137
0.09595349 0.061125707 0.02720329 -0.018399071 0.071309 -0.025117537 -0.004398304 0.033039853
0.012165311 0.058634873 0.0074077714 0.045945972 0.05473244 -0.05004353 0.07558902 -0.011929706
-0.018270724 0.02711232 0.013844244 -0.059257787 0.0531071 0.05292627 0.019720674 -0.015289017
-0.08254597 0.043856338 -0.080570534 -0.0323619 -0.0007196608 0.0472709 -0.099614866 -0.033833116
-0.051758837 0.0049277875 0.09160821 0.036348797 -0.006894711 -0.009682021 0.07848812 0.09891066
0.039965972 0.08323806 0.039373364 0.084833294 -0.010279549 0.073927335 0.050610255 -0.04610745
-0.052808434 0.0785146 0.0044015385 -0.016085817 0.013821388 -0.07378581 0.00096353155 0.0110392105
-0.055311263 0.06864152 -0.01776466 -0.007250509 -0.022153916 0.061490513 0.07871624 0.015576113

conv2.bias f4 [16]
00000000: 60c1 d5bc 61e9 8d3b fc62 36bc 1e5a 303d
00000010: 5885 31bc b70c 6dbd fa06 473c 91ed ddba
00000020: 7517 1ebd 68c8 39bd 6f9e 843d 005b 723c
00000030: f558 a63d 7188 463d a997 683d 6e3f e53d
-0.026093185 0.0043307994 -0.011131998 0.043054692 -0.010835014 -0.057873454 0.012147659 -0.0016931762
-0.03859659 -0.045357138 0.06475531 0.014792204 0.08122436 0.048469964 0.05678526 0.11193739

fc0.weight f4 [120, 400]
00000000: 8b72 64bc 1a78 a63c 4944 b63c 20b0 d43c
00000010: cd7a fbbc 3b16 fa3c 3d6b c6bc 8ac4 513d
00000020: 6e95 cdbc e2e0 393d fe26 223c 3f65 003c
00000030: 9dbe 583d 678a 083d d103 723c 3841 29bd
00000040: eb7e 2ebc e409 d13a f09d 7f3c 19a5 06bd
00000050: 9c4f 04bd e88d 903c c382 403d e72a 3d3d
00000060: a148 78bc 5d74 473a 05d3 903c 6ca4 ddba
00000070: a5b2 5d3c 8f0e 303d a667 b73c a27b 88bc
00000080: ce96 10bc d457 ecbb b9b9 033d 34ca 813b
00000090: aec2 8ebc 737a 5abc ca9b c7bc 419f 0d3d
000000a0: 081e d73c fb00 35bd 921c d5bc b0c1 b23c
000000b0: d2b6 333d ccfa 0f3d 1213 05bd 0806 e2bc
000000c0: 0e26 02bd 791e 90bb 438a f1bc a2f6 0ebd
000000d0: 6ba3 08bd 4746 903b 435c 943c 1cd6 1d3d
000000e0: f551 04bc ec11 1c3d 1cbe ecbc b8ac f2bc
000000f0: 2e76 443d 25c9 293d 3958 27bd 4c95 4fbc
00000100: 2901 39bd b6fe 2a3c d820 29bc 1e35 3a3d
00000110: be78 283b 1edc 22bc e551 3cbb 7773 e23c
00000120: ecff eabc 4ebf 1b3c 51c5 49bd 501d bc3c
00000130: b49a f53c f335 62bd 5d24 083d b403 ffbb
00000140: 1f7b 7d3c bc44 36bd 0965 08bd 4293 11bc
00000150: d590 ecbc 92a8 173d e03b 6bbc e92b 30bd
00000160: a10a 0a3d 59f0 a3ba c790 b53c f687 113d
00000170: d4a9 1dbd d12b bcbc 5f41 463c d79e 85bc
00000180: 6318 a5ba 1c2a 1fbd ff87 41bd d10e 5c3a
00000190: 42e0 efbc f708 583c a7c4 6d3a be76 dc3b
000001a0: 0f8c 173c dda1 083d d0e9 013d 8dc1 203d
000001b0: c18b e43b 3de3 f2bc e1b1 db3c 3e7a 663c
000001c0: e4a9 03bc 21e9 203d 4a8b 323d 9dd5 07bd
000001d0: 1b30 edbb 32f3 983a 03be e63c 19ea 3cbd
000001e0: 559e 0cbd eb32 7abb 6aeb 453d 496e 10bd
000001f0: 8451 47bc 7e06 323d 9386 e3bc 3098 893c
00000200: 66af c43c b29d 36bd 38e3 25bd 875e edbb
00000210: d867 70bd 5955 c7bb 61e9 47bd 969a 0bbd
00000220: dd8e d33b 2b7a 813c cb0c ee3b 3a95 2d3d
00000230: 5033 09bd f282 21bd f55e 003d c267 fb3c
00000240: f688 6d3d 07bc 18bc b39d c1bc c432 383d
00000250: 8321 9cbc 229b 92bc 766b 2fba 4a97 0fbd
00000260: b9f3 763c 2915 efbb 36ac 283d a1cf 8c3c
00000270: 0182 603d 2ee5 f73b 95f4 253d aa88 88bc
00000280: 339e 433d 3143 373c 01cf c43b cd8e 1ebc
00000290: 4258 203d b29f d23b 24c9 c5bc 9c88 96bc
000002a0: 9400 3a3d a6ec a53c 888c a6bc 05ae c7bb
000002b0: 96f5 40bc ed43 0a3d 09ff d53c 5500 a23c
000002c0: 59d9 093d 3e9b b83b e908 b5bc e514 83bc
000002d0: 7f12 c7bc 495e 44bc c4c0 f13b e9a0 113d
000002e0: 0a06 ec3c 6494 3e3d fc8b f63a 3d57 04bd
000002f0: 0829 afbc 3652 b03a 8c5a c53c 2a41 4c3d
00000300: 6692 febc 7cfd 8f3a c1ba 0d3d e2e2 cdbb
00000310: 6280 2b3d 4d96 253d 89f1 3e3d bfe5 103d
00000320: 0811 623c 8547 abbc 6745 2e3c fbfa 2d3c
00000330: f5fa 443d b7fa a63c 54f1 d8b8 1e29 083d
00000340: 6bdb f43b 960a 24bd b11f f63c 9780 cabb
00000350: 7f04 78bd c27c 25bd 42d8 af3c f099 b83c
00000360: d6c0 20bc ccf6 e23b 8f98 293d 7983 ee3c
00000370: c9f6 133d f7f4 3ebd 2829 653c 892a bebb
00000380: 37a9 68bc 21f9 253d 060a 2e3d f993 06bd
00000390: d10e 24bd a076 333d 07ca bd3c 7152 3b3d
000003a0: b132 b8bc d7af 903c 7861 fdbc 9166 433d
000003b0: b3f3 71bb c7ac e6ba 6ccb e53b 259a 213d
000003c0: a416 3bbc 5791 91bb 418b 363c 87c3 e0bc
000003d0: 05fe 3bbd 3a4c 0a3d ae93 b23b b0e3 2abd
000003e0: 4fe5 e0bc bce0 04bd ecf8 37bd 2b46 7d3b
000003f0: a05c 32bc 58f2 fa3a 02e5 c3bc f162 babc
-0.013943325 0.02032094 0.022249358 0.02596289 -0.030698204 0.030528178 -0.024221057 0.051212825
-0.025095668 0.04538048 0.009896992 0.007836639 0.052916158 0.033335116 0.014771418 -0.041321963
-0.010650377 0.0015948382 0.01560162 -0.032872293 -0.032302484 0.017645791 0.046999704 0.046183493
-0.015154035 0.0007608587 0.017678747 -0.0016909963 0.013531362 0.042982634 0.02238829 -0.016660515
-0.008825017 -0.0072126184 0.03215954 0.003960872 -0.017426815 -0.013334858 -0.024366278 0.034575704
0.026259437 -0.04419039 -0.0260146 0.021820873 0.043875523 0.035151288 -0.03248889 -0.027590767
-0.031774573 -0.004398164 -0.029484874 -0.034903176 -0.033358973 0.004402909 0.0181104 0.03853427
-0.008076181 0.03810303 -0.028899245 -0.029623374 0.047964267 0.041451592 -0.04085562 -0.0126698725
-0.045167122 0.010436704 -0.010322772 0.045460813 0.0025706734 -0.009940175 -0.0028735336 0.027642949
-0.028686486 0.00950606 -0.04926044 0.022963196 0.029980995 -0.05522723 0.033237804 -0.007782424
0.015471249 -0.044499144 -0.03329948 -0.008885207 -0.028877655 0.037025996 -0.014357537 -0.043010626
0.033701543 -0.0012507542 0.022163762 0.035530053 -0.03849204 -0.022970112 0.012100547 -0.016311092
-0.0012595769 -0.038858518 -0.047248837 0.0008394542 -0.02928174 0.013185731 0.0009070136 0.0067280224
0.009249701 0.03335749 0.03171712 0.039247084 0.006974668 -0.029649371 0.026818218 0.014067231
-0.008036111 0.03928483 0.043589868 -0.033162702 -0.0072384006 0.0011669158 0.028166777 -0.04612169
-0.034330685 -0.0038177322 0.04832021 -0.035261426 -0.012165431 0.043463223 -0.02777413 0.016796201
0.024009418 -0.044583984 -0.040499896 -0.0072439346 -0.058692783 -0.0060831723 -0.04880655 -0.03408297
0.0064562396 0.015805325 0.0072647086 0.04237864 -0.0334962 -0.03943152 0.031340558 0.030689124
0.057991944 -0.009322173 -0.023634767 0.04497029 -0.019058948 -0.017896239 -0.0006691733 -0.03505639
0.015072756 -0.0072962237 0.04117986 0.017188849 0.05481148 0.007565162 0.040516455 -0.016666729
0.047758292 0.011185453 0.006006122 -0.009677601 0.03914667 0.0064277286 -0.024143763 -0.018375687
0.045410708 0.020254444 -0.020330682 -0.006093743 -0.011777302 0.033756185 0.026122587 0.019775549
0.033654545 0.0056337407 -0.022098975 -0.016001174 -0.024300812 -0.01198537 0.007377716 0.035553847
0.028811473 0.046528235 0.0018810029 -0.03230976 -0.02138187 0.0013452235 0.024091028 0.049866833
-0.031075668 0.0010985578 0.03460193 -0.00628315 0.041870482 0.04042654 0.046617065 0.035375353
0.013798006 -0.020908127 0.010636664 0.01061892 0.048090894 0.020383222 -0.000103446335 0.033242337
0.0074724457 -0.040049158 0.030044409 -0.00617988 -0.060551163 -0.04040218 0.021465424 0.02253434
-0.009811601 0.006926393 0.041405257 0.029115425 0.036124025 -0.046620335 0.013986863 -0.0058034104
-0.0142005 0.04052079 0.042490028 -0.03285596 -0.040053193 0.0438143 0.023167623 0.04573292
-0.022485109 0.017661972 -0.030930266 0.047705237 -0.0036918938 -0.0017599099 0.007012775 0.039453644
-0.011418972 -0.0044423747 0.011141599 -0.027436985 -0.04589655 0.0337641 0.0054497337 -0.041721046
-0.027453093 -0.032440886 -0.044915125 0.003864656 -0.010886341 0.001914571 -0.02391291 -0.022752257

fc0.bias f4 [120]
00000000: 181d c1bb 068c abbc e966 babb 3dc0 53bc
00000010: 8906 423d 846a 273d d86a cc3c 0247 143d
00000020: c6da 19bd 32a2 19bc 2a9f bf3c 6f2b 9f3d
00000030: 7613 f5bc 3842 13bc 6860 8e39 ae6a 563d
00000040: fb14 b7bc 1251 b7bb 79fe 063c 7aa3 3abd
00000050: 8793 463d b3ed b4bc f930 773c c263 5fbd
00000060: 8840 0b3d d90b 043c eabe 6d3d c875 013d
00000070: d2fa 27bd 0c83 ab3b ccc5 6fbc 1e72 653d
00000080: ccf5 e93c 54eb 1a3d 9751 053c b280 d639
00000090: c564 dbbc 3e97 413d 24e6 2a3d 93ec d1bc
000000a0: 43dd 603d b9f5 a93b c658 16bd ef04 6abc
000000b0: 4e93 c03c 0e4c f8bb c100 cbbc 32ed abbc
000000c0: 0b8e 8abc 4a80 983c 6eb9 293b f39c eb3c
000000d0: 6bca 94bc cf4d babc 1988 8b3d 54e1 8abb
000000e0: f569 6f3c 4429 edbb ce12 b43c c06f 51bd
000000f0: 3271 c23c 255a 393d 7bd0 28bd d509 34bd
00000100: b278 af3c 2c48 213d c3e1 bb3c 9dc5 e73c
00000110: b20d 723d 4221 d33c a916 183d 60ab 313d
00000120: ebf2 bc3c cf94 f63c 3fe2 59bd 4ae3 193d
00000130: 7787 be3c 7c97 4dbb 26f6 d7bc 1e41 d1bc
00000140: bbab 6c3d 2714 39bd bde0 263d 83f8 023d
00000150: eb03 f7bc 3c34 853d d1e3 3f3d 4feb f53a
00000160: dbc0 0bbd 0ef2 9cbc b6fa ef3c 4496 f13c
00000170: fb63 18bd d709 37bd e96d 3d3b c784 45bd
00000180: ed41 8bbc 2363 5c3c 0eea 813c ee40 81bc
00000190: 9700 32bd 7480 adbb 6726 343d 2034 6c3d
000001a0: 0aa8 07bd dc79 563d 3d44 513d ace2 0bbd
000001b0: 0aa6 133d 56e7 4f3c 0aaf 153b b21f 833b
000001c0: 27f3 1dbd c236 c7bb 104b 1e3c e377 e33c
000001d0: cbde af3c 42b0 d0bc 1656 f23b 0c6a bbbb
-0.005893361 -0.020940792 -0.0056885374 -0.012924251 0.047369514 0.040873066 0.02495329 0.03620053
-0.037562154 -0.009377049 0.023391325 0.07771956 -0.029916506 -0.008987956 0.0002715618 0.05234783
-0.022348871 -0.005594381 0.008239382 -0.04556606 0.048480537 -0.022086 0.01508736 -0.054538496
0.03399709 0.008059465 0.058043398 0.031606466 -0.041010685 0.005234128 -0.014634561 0.056017034
0.028559588 0.037822083 0.008137128 0.00040913146 -0.02678145 0.047263376 0.041723385 -0.025625503
0.05489851 0.005186763 -0.036705755 -0.014283403 0.02350774 -0.007577426 -0.024780633 -0.020987127
-0.016913434 0.01861586 0.0025897878 0.028761363 -0.018162927 -0.02274218 0.06813068 -0.004238287
0.0146126645 -0.0072375853 0.021981623 -0.051131964 0.023735616 0.045251984 -0.041214447 -0.04395469
0.021419857 0.03937547 0.0229348 0.028292472 0.059095092 0.025772694 0.037130985 0.043376327
0.023065051 0.030100254 -0.05319428 0.037570275 0.023257954 -0.003137081 -0.02636249 -0.025543746
0.057780962 -0.045185234 0.04074167 0.03197528 -0.030153235 0.065041035 0.046848122 0.0018762144
-0.03411947 -0.01915839 0.029294353 0.029490598 -0.037204724 -0.04468712 0.0028904623 -0.04822233
-0.01699921 0.01345137 0.015858676 -0.015778031 -0.043457594 -0.005294854 0.043981936 0.057666898
-0.03311924 0.052362308 0.051090468 -0.034151718 0.03604702 0.012689432 0.0022839927 0.004001581
-0.038561966 -0.0060795257 0.009661451 0.027767127 0.02146854 -0.025474671 0.007395516 -0.005719429

fc1.weight f4 [84, 120]
00000000: 62e6 a93d 0e00 bf3d fd51 8b3d ac6f e9bc
00000010: 1e77 8cbd 67d6 4c3c 5bde a2bd 5a7a dd3c
00000020: ebe9 94bd fe61 45bd bf8c 873d 2424 45bd
00000030: 6263 38bd cebf 153d 5472 963d 239f 8f3d
00000040: 41e9 523d 4f4a b23d 2db9 bd3d 9165 e53c
00000050: e4a0 553b b793 b03b 478b 883b 99d5 9e3d
00000060: e5c0 8bbb 1ff8 213d 989e 29bd 3074 1bbd
00000070: 8d95 f93c 901e 243d bd6b 37bd f21a 8ebd
00000080: 9981 833d 0fd1 8fba 1ae8 ed3b e8c7 973c
00000090: d026 4c3c f4f1 20bb 4acd fd3c ba7c a53d
000000a0: fa45 a0bd 8454 2e3d 1cd6 e7bc aecb 3a3d
000000b0: 51c9 b83c 89fb ac3d e3c7 5ebd 99f8 a73d
000000c0: b19a 633d 536d 0f3c 0c20 d7ba 0536 043b
000000d0: fd70 30bc f0bb 68bc 8f30 afbd 1bb5 5cbd
000000e0: a9a2 ac3d c930 82bd c3bb 65bd 4e1f 823d
000000f0: bab9 39bd 3e47 b53d 51b3 983d 32ab b33d
00000100: 2bad 22bd 6e27 363d d922 a6bb 5b64 893d
00000110: 83d5 a4bd 3ddb 8abd 62d4 5ebd 24a2 b53d
00000120: 0fab 12bd e80e 65bd 24df b5bb 35a2 9f3d
00000130: 4f9a f83b 6414 afbd 8922 63bd 8bc6 873c
00000140: 0998 5abc 825e 873d 564c 423d 135e 84bc
00000150: 838a a7bc 7122 95bd 97e4 c03b cae7 8c3c
00000160: 6922 a6b8 7942 fcbc 269c 853c 2942 6b3d
00000170: a957 c5bc eb6e 9dbd e608 8a3d 75c0 7fbd
00000180: ebd8 b0bc da60 48bd 64c2 1e3d d5f4 91bd
00000190: 3963 8f3d badd b63c 6f24 8e3d ef76 fb3c
000001a0: 116c 63bd 2335 a5bd d79d b73c a308 a83d
000001b0: b1e3 2f3d c1f9 583c 4942 09bd 54a2 453d
000001c0: ca59 243d 613f 44bd 3497 a63d af92 a73d
000001d0: 162f 893d b78e 81bd 0c94 753c 6c5a fdbc
000001e0: affd 8b3d 47bd 83bd 86f6 883d e02f 57bd
000001f0: a6e3 43bd add5 17bd 4615 3abc e3f0 433c
00000200: e0bf c4bd 54f5 08bd 905a 9bbd d13c 0ebd
00000210: 1813 42bd 3dde 043d 1564 1e3d 9194 63bb
00000220: 5c24 aa3d 8c46 e93c 57cf 583d 097f 4dbc
00000230: de7d 963d 6f5f aabb 8772 a4bd 814a 81bb
00000240: dde0 2e3d 792e ac3d 2076 9abd 473b 8bbd
00000250: cf46 be3d 394e 85bd cd9c 9e3d 7fab cdbb
00000260: aeef c63d f3b4 4b3d 6d9d a0bd 71d7 663c
00000270: df02 52bd 3384 933d 3ba5 133d ed84 a2bd
00000280: a358 22bd 24e5 763d 29b1 623d dfcd 01bc
00000290: 4d99 a53d 0372 d33c ace8 ca3b 9d0b 4dbd
000002a0: d97c cc3d 8d5e c13c 1a0c 953d 5fb2 b6bd
000002b0: 7e49 9bbd 7ec6 3bbc 942c 563d ed6a a5bd
000002c0: 2f1f a3bd 5b43 913c 5429 bb3d 93de fe3c
000002d0: 25f8 58bd e504 c3bc b298 a33d d60e 7f3d
000002e0: 555f 7cbd 3925 b93c 857f 54bc f7e8 9f3d
000002f0: 5965 57bd 3d1a 893c 7536 7dbd cdf9 fdbc
00000300: c8d3 7fbd f59c ae3d 2838 9fbd 1eb6 983d
00000310: 3361 083d 0fc7 8dbd 6cf9 4f3d a0d2 0d3d
00000320: 8ce0 5cbd b71e 5dbd de44 80bd 53e9 743a
00000330: 7be0 2cbc ef64 04bc 568b 85bd acf9 48bd
00000340: cbdb 39bd ca2f 8a3d a2ed 23bd 1b3f cc3c
00000350: 514d b7bd e25e 9abd ca57 59bd 39d6 a33d
00000360: 2f1a 453a 6b13 9bbc a6f9 463c 84ca d8bd
00000370: 6185 503d 4d1c f53c 7933 18bd d7ef 97bb
00000380: 2517 9dbd b416 1abd 2cca 9cbd 974c 8e3d
00000390: 0e49 f6bc 8b0f 2c3d 9c2f 313d 613e aabd
000003a0: 212b c63d c0cc b8bd 0fa9 ae3d f43a 5b3d
000003b0: e8c1 93bc 9c2e ae3d 11de 9e3d 4024 b7bd
000003c0: 8abf b4bc ff63 0f3b ad67 0c3d fb8f 9dbd
000003d0: 8319 083d 5a53 a0bd ea68 2cbd a2ae adbd
000003e0: 55a6 113d ded0 643c e9cf 32bd 37e9 b33d
000003f0: 536b b63d a0e5 20bd 0c2d debc 270e 083d
0.08295895 0.09326182 0.068027474 -0.028495632 -0.06858657 0.012502289 -0.07952567 0.02703588
-0.07271179 -0.048189156 0.06618642 -0.04813017 -0.045016654 0.036559872 0.07346025 0.07012775
0.05149198 0.087055795 0.09263835 0.028002532 0.003259712 0.0053887027 0.004166994 0.07755584
-0.004264938 0.039543267 -0.041411012 -0.037952602 0.03046682 0.04006821 -0.04478048 -0.06938733
0.06421203 -0.0010972338 0.0072603347 0.01852794 0.0124604255 -0.0024558278 0.030981679 0.0808043
-0.07825847 0.04256107 -0.028300337 0.0456044 0.022556933 0.08446414 -0.054389846 0.08201713
0.055567447 0.008754092 -0.0016412749 0.00201738 -0.010769126 -0.014204964 -0.08554184 -0.053883653
0.084294625 -0.06356961 -0.056087267 0.06353627 -0.04534314 0.08851479 0.07456077 0.08772887
-0.039715927 0.044471197 -0.005070072 0.067085944 -0.08048537 -0.06780098 -0.054401763 0.088688165
-0.035807665 -0.05592242 -0.005550282 0.077946104 0.0075867544 -0.08548811 -0.055452857 0.016574165
-0.013341912 0.06609823 0.04743608 -0.01615814 -0.02045179 -0.0728196 0.005886625 0.01720037
-7.921906e-05 -0.030793415 0.016309809 0.057436142 -0.024089651 -0.076871715 0.067399785 -0.0624394
-0.02158781 -0.04892049 0.038759604 -0.07126776 0.07001347 0.022322524 0.06940543 0.03069636
-0.055522982 -0.08066776 0.022414131 0.08204772 0.042941753 0.01324314 -0.03351048 0.04825051
0.040124692 -0.047912005 0.081343085 0.081822746 0.06698434 -0.06326049 0.01498891 -0.030926906
0.06835496 -0.06432586 0.066876456 -0.05253589 -0.047824524 -0.03706901 -0.011357611 0.011959287
-0.0960691 -0.033437088 -0.07585633 -0.034725968 -0.04738149 0.032438505 0.038669664 -0.0034726004
0.08307716 0.028476022 0.05293211 -0.012542495 0.07348226 -0.005199365 -0.08029657 -0.003945649
0.042694915 0.084073015 -0.07542062 -0.06798416 0.092908494 -0.065090604 0.07744751 -0.0062765474
0.09713684 0.049733113 -0.078425266 0.014089451 -0.05127227 0.072029494 0.036046248 -0.0793551
-0.03963531 0.06027712 0.055344734 -0.007922619 0.080858804 0.025811201 0.0061922874 -0.050059903
0.0998475 0.023604656 0.07277699 -0.0892074 -0.07582377 -0.011460898 0.052288607 -0.08077035
-0.07964932 0.017732313 0.09138742 0.031111991 -0.052971024 -0.023806045 0.07988109 0.062270008
-0.061614353 0.022600757 -0.012969856 0.078081064 -0.052586887 0.016736144 -0.061819512 -0.031002903
-0.06245783 0.08526031 -0.07774383 0.07456611 0.03329582 -0.06922733 0.050774977 0.034624696
-0.053925082 -0.05398437 -0.062631354 0.00093426293 -0.010551567 -0.008080705 -0.06520717 -0.04906623
-0.045375627 0.06747396 -0.040021546 0.024932435 -0.08950294 -0.07537629 -0.053062238 0.07999844
0.0007518855 -0.018930158 0.012144482 -0.10585502 0.05090845 0.029920721 -0.037158463 -0.0046367454
-0.0767043 -0.037619308 -0.07655749 0.06948202 -0.030064132 0.04200701 0.043258294 -0.08312679
0.09676195 -0.09023428 0.08528339 0.05352302 -0.018036798 0.08504984 0.077571996 -0.08942461
-0.02206399 0.002187967 0.03427856 -0.07693478 0.033227455 -0.07828398 -0.04209224 -0.08480574
0.035559017 0.013965813 -0.04365531 0.087847166 0.08907189 -0.039281487 -0.02712109 0.03321662

fc1.bias f4 [84]
00000000: 286a dcbc 566b b83c fe6b 1cbd fad4 be3b
00000010: e96c 1c3d b9a8 1f3d 3d97 57bc 05c0 403b
00000020: 5845 24bd 7567 553d db81 86bd af16 be3d
00000030: 7d66 eebc 267f 03bd 163e 8abd a461 183b
00000040: 699f 923d a2fb 2fbb 6ff0 813d b60f 5d3d
00000050: bd33 c4bd b568 bc3d 48a3 ae3d 5e23 13bd
00000060: 334c 923b 36de 9b3d c918 5bbd 5764 573d
00000070: 31cc 81bd e0c4 683d b8ba c7bc 0662 7c3d
00000080: 8599 87bd 8d06 923d 875c bf3d 334e 5bbd
00000090: 059b 13bd a77f 8dbd 83d1 6fbb 622a d53d
000000a0: a1bc 94bc 8be1 703d e6ba 90bc 57c8 86bd
000000b0: be11 cabb dc6d c73c 5b11 30bd 1ed4 fb3c
000000c0: fa17 ae3c 7cd2 3abd 361c 623d dd59 b53d
000000d0: 59bb b73d c0c7 acbd 8dce c7bb 105d a13d
000000e0: 7ae7 a13c 34d8 b0bd cd7c 163d b742 c53c
000000f0: 69a6 953d fc77 45bd 90ec a1bd b3bb 81bd
00000100: 8d4a 5abd 63f4 4c3c b3b7 a13d c99d 8f3d
00000110: 8f92 1c3d f9c4 aabc c9f5 c8bc 5570 55bc
00000120: b6b4 2dbc efaf bd3c c6d8 58bd 6412 f63c
00000130: 5632 28bd c341 54bd 0da2 06bd a56a 3dbd
00000140: d48f 8abd f47b 853c 936d 403d f394 823d
-0.026906088 0.02251212 -0.038188927 0.0058237286 0.038189802 0.038979266 -0.013158617 0.0029411328
-0.040105194 0.052100617 -0.06567737 0.0928167 -0.029101605 -0.03210368 -0.06750123 0.0023251558
0.07159311 -0.0026852866 0.06344687 0.05397006 -0.09580181 0.09199659 0.08527237 -0.0359224
0.00446465 0.07610743 -0.053490434 0.052585926 -0.063377745 0.05682838 -0.024381027 0.06161692
-0.066210784 0.07130156 0.0934382 -0.053541373 -0.03603651 -0.069091134 -0.0036593385 0.104084745
-0.018156352 0.058808845 -0.017667245 -0.065811805 -0.006166666 0.024344377 -0.0429853 0.030740794
0.021251667 -0.04561089 0.055202685 0.08855031 0.089712806 -0.08436537 -0.006097621 0.078790784
0.019763697 -0.086349875 0.036740113 0.024079664 0.07307131 -0.04821013 -0.07906449 -0.06334629
-0.053293753 0.012509438 0.07896366 0.07012517 0.038225707 -0.020845877 -0.024531262 -0.01302727
-0.010602167 0.02315518 -0.052941106 0.030038066 -0.04106363 -0.051820528 -0.032869387 -0.046244282
-0.06765714 0.016294457 0.046979498 0.06376066

fc2.weight f4 [10, 84]
00000000: 4dab 9e3c 1825 9bbd 02c3 a43d a386 a93d
00000010: d24d eebd 7ee1 b8bd 6fe0 c9bd d5cf b4bd
00000020: e262 83bb 2c3f c33d 7de2 f7bc cce0 293d
00000030: 0e19 bfbd e9c2 363d 5138 51bc a65f e53c
00000040: d65a d5bc 8b32 433d 6b1d a43d 0d65 89bd
00000050: fec6 f73d 5bbf 983d ba56 c53d 5abc 1f3d
00000060: 6d8a dc3d 03d0 97bc 48fa a3bd d93d 3bbd
00000070: 93b2 d73c 6457 403b 5920 92bd d172 cebd
00000080: 3097 edbc 33af 4d3d b60d a0bb 7ab1 87bc
00000090: 0a1d 5c3d abfd 7a3d c59a f63c a713 033e
000000a0: b33d 90bc d979 213c 394c 04be 0fe1 c8bd
000000b0: f50c 043c 8f86 c4bd 789a bd3d 55f8 c13d
000000c0: e2df 42bd 6cd4 d23d 0318 b6bb 0716 6cbd
000000d0: 8f35 edbd 0a25 263d 09b7 5e3d dc23 3abb
000000e0: 0963 e43d 0fe5 5b3d 373f 763d d46a c03d
000000f0: 92a4 adbc b3bb 1dbd fee6 1c3d 16b3 973d
00000100: 16a0 20bd 0151 003e 84b3 c3bd b5b3 1c3c
00000110: 8041 033d 0f7b 90bd dbdb a9bc 08b0 8c3d
00000120: 5a1f ac3d 7b44 823d fc89 a63d f530 98bc
00000130: adcf dcbb a2ab 1abd 9e3b 923d c34e 8dbd
00000140: b569 adbc 672e df3d c7a9 ff3b c89c 27bd
00000150: 6860 af3b 7208 8d3d f600 2cbc 6e1a 4bbd
00000160: 16ab 4a3d aed6 133d 118d be3d 4e7f 143d
00000170: 2ec6 953d 411a 8cbc b339 293c 6ab3 f8bd
00000180: f967 673d 758f d03d 2add 403a c7d1 033d
00000190: 3a86 c13c ef7b 99bc 39b6 74bd fad1 353d
000001a0: 71c3 413d fe41 fb3c 7844 73bd d63e 963c
000001b0: c756 6c3d 510f 083d d53f aabd be8d 2dbd
000001c0: 980d 04be c6b4 2d3d 4275 c3bd 30cd 21bc
000001d0: 033e 6cbd 1096 2c3d b849 8d3d add9 c23d
000001e0: fa1e f0bc 74e1 b23d 4ea2 da3d 3f02 5fbd
000001f0: d2c9 d23d 2951 dc3d e60c d7bd 697f a13d
00000200: 7b0e 6fbc 6e3a 8c3d 6c8b aabc 9c72 b03d
00000210: 12f0 80bd f4b9 c1bd 3898 8b3d 53d3 37bd
00000220: 19d9 91bd 47bf 5d3c ed2d d2bc 0c76 253d
00000230: 3b65 1f3d 07db e0bc 7603 e4bd 93a4 47bd
00000240: 44b8 7ebd 7737 3cbd 1c60 91bc 8281 b23d
00000250: 1a70 bfbd 725f be3d ed98 dd3c f357 20bd
00000260: 5560 aabc 7e93 4cbd ffab 35bd 1588 773d
00000270: 23da 4fbd d621 253d 644f 1fbc 6901 c63d
00000280: cfed a13d 0a30 abbd 6b98 47bd 0149 823d
00000290: cf04 003d eb9f 90bd 1d1a d43d 0052 c63d
000002a0: 5fc9 f6bd f90d 90bc 90b9 2a3d 4bc4 fb3c
000002b0: 0882 963d ce4c 9e3d 936b 9b3d 7150 93bd
000002c0: 4141 fbbd f50e ddbc 2f53 bd3d 892d b53c
000002d0: e54d b13d 9c0d ff3c 62df 553d 341e 6f3d
000002e0: 32ef 2c3b 1ed7 6fbd 24d9 aaba a2d0 bfbc
000002f0: dca5 cdbd 523e b43b c41d c83d 0d2b a1bd
00000300: 4f18 843d 8a5e b5bc 9e79 933d 2395 bcbd
00000310: bd04 e73c dd20 8f3d f256 633d c5f6 ef3c
00000320: 80df a6bd 9ae6 bebb f066 b93d 4133 8fbc
00000330: d0cc 89bd 1907 d0bd 209c 7c3d 4f17 f8bc
00000340: 26e1 2dbd c0c9 9a3d 47c5 52bd 5b14 17bd
00000350: 437e 6a3d d6ad 59bd bd33 d4bd 2acd 16bd
00000360: f77d 833d b7ed 223c e672 353c daef cebd
00000370: 3c62 f53d e41a 69bb a210 bdbd 2321 a63c
00000380: 3520 a73d 01f1 ae3d a7d0 cd3d 6469 4abd
00000390: a133 683d 1e9f 4d3c 2e31 173d 9ed9 ad3d
000003a0: 017f b33d 70f9 85ba 2a0e 743c 85d4 aa3d
000003b0: d5b9 bdbd cb9a 2bbd 2670 8bbc 284f ae3d
000003c0: acaf 19bd a0dd 7f3d f3d0 debd 16c9 563d
000003d0: ece0 1bbc 83b6 633d 1b59 103d 8caa 12bd
000003e0: 5395 06bc 06f1 10bd 0410 993b 67a7 cbbd
000003f0: f62e 5c3d 4a8b a9bd 7b7c d23d 8023 923d
0.019368792 -0.075754344 0.08045007 0.08277633 -0.11635937 -0.09027384 -0.098572604 -0.08828703
-0.0040095905 0.095335335 -0.030259365 0.04147415 -0.09330951 0.044619475 -0.0127697745 0.02799971
-0.02604429 0.047655623 0.080134235 -0.06708727 0.120985016 0.07458373 0.096356824 0.038997985
0.1076859 -0.018531805 -0.08006722 -0.04571328 0.026330268 0.0029348964 -0.07135076 -0.10080493
-0.029002756 0.05021591 -0.004884447 -0.01656412 0.05373863 0.061277073 0.030103097 0.12800466
-0.017607545 0.009855711 -0.12919702 -0.098085515 0.00805973 -0.095959775 0.09257978 0.09471194
-0.047576793 0.102944225 -0.0055570616 -0.057638194 -0.11582481 0.040562667 0.054373775 -0.0028402722
0.11151702 0.053685244 0.06011888 0.09395376 -0.021196637 -0.038509082 0.03830623 0.07407205
-0.03921517 0.125309 -0.09555724 0.00956433 0.032044888 -0.070547216 -0.020734718 0.06869513
0.08404417 0.06360718 0.08131787 -0.018578032 -0.006738624 -0.037761338 0.07140277 -0.06899788
-0.02116857 0.108975224 0.0078022215 -0.040921003 0.0053520687 0.068863764 -0.010498276 -0.049585752
0.049479567 0.036093406 0.0930425 0.03625422 0.073131904 -0.017102363 0.010328698 -0.121435955
0.05649564 0.10183612 0.0007357175 0.03218248 0.023623575 -0.018735854 -0.059744094 0.044389702
0.047305528 0.030671116 -0.05939147 0.01834051 0.057699945 0.033217732 -0.08312956 -0.042371504
-0.1289581 0.042408727 -0.095438495 -0.009875581 -0.057676326 0.0421353 0.06898826 0.095141746
-0.029311646 0.08734408 0.106754884 -0.0544455 0.102924004 0.107576676 -0.10500507 0.0788563
-0.014590855 0.06847082 -0.020818435 0.0861561 -0.0629579 -0.09459296 0.06816143 -0.04487927
-0.07121486 0.013534374 -0.025656665 0.04039578 0.0389149 -0.02744819 -0.111334726 -0.048740935
-0.06218745 -0.045951333 -0.017746024 0.08716108 -0.093475536 0.092955485 0.02705046 -0.039146375
-0.020797888 -0.049945347 -0.04435348 0.060432512 -0.05074514 0.04031547 -0.009723518 0.09668238
0.079066865 -0.08358772 -0.04872934 0.06361581 0.031254586 -0.07061752 0.10356543 0.09683609
-0.12050127 -0.017584788 0.041680872 0.030733248 0.0734902 0.07729493 0.075888775 -0.07193077
-0.122683056 -0.026984671 0.09244382 0.02211644 0.08657435 0.03113442 0.052214988 0.058378413
0.0026387689 -0.05855476 -0.0013034684 -0.023414914 -0.10041401 0.005500593 0.09771302 -0.078695394
0.06449949 -0.022139806 0.07200931 -0.09208133 0.028200502 0.0698869 0.05550284 0.029292474
-0.08148098 -0.0058258297 0.09052837 -0.017480494 -0.06728518 -0.10157604 0.06167233 -0.030284552
-0.042451046 0.07558012 -0.05145767 -0.036884647 0.05724932 -0.0531443 -0.10361431 -0.036816753
0.0642051 0.009944371 0.011074757 -0.10104342 0.11981627 -0.0035569007 -0.09231688 0.020279473
0.0816044 0.085420616 0.10049563 -0.049416915 0.056689862 0.0125501435 0.036912136 0.08488773
0.087644584 -0.0010221433 0.014895955 0.08341316 -0.0926396 -0.04189567 -0.01702125 0.085111916
-0.03752105 0.062467217 -0.10879698 0.052437864 -0.009514075 0.05559398 0.035241228 -0.035807177
-0.008214313 -0.035386108 0.0046710987 -0.09944039 0.053755723 -0.082785204 0.10277649 0.07135677

fc2.bias f4 [10]
00000000: ec82 3ebd 1413 64bc 111c cc3c 4266 8b3d
00000010: 5418 a9bd af65 24bc 84ea 793d 2f6c d03c
00000020: e69b 343d 16ab 2dbd
-0.046511576 -0.013920564 0.024915727 0.068066135 -0.08256593 -0.010034009 0.061014667 0.025442211
0.04409399 -0.04239949

exp_avg f4 [6, 3, 5, 5]
00000000: 03e5 a93c 7158 073c 9509 d2bb acdb 01ba
00000010: bbeb ab3c 5af9 a23c 1c5d f03b 07d1 b8bb
00000020: 23b1 d8ba 6dae 3f3c 2da4 a03c df68 a63c
00000030: 8e9f be3b 304e f2ba bf3e f43b 8782 bc3c
00000040: c72a ad3c a8e7 df39 a963 ffbb fa26 f63a
00000050: 9499 be3c 67cb 843c c3ae bd3b 908a 8c3a
00000060: 4166 d73a 4849 da3b 667b e4bb 6079 afbc
00000070: cef3 60bc 9761 0f3c c362 a73b ef0e 09bc
00000080: a037 b1bc 66d3 86bc 5c2e 18bb 2914 823b
00000090: 243b 483b dc3a 54bc b6bd a0bc 19aa 1fbc
000000a0: ed51 b93b 0ef0 dd3a 4835 abbc c0b1 e9bc
000000b0: e87f 99bc 7667 8b3b b735 a6bb 874c 90bc
000000c0: 018e b8bc 08ab b0bc 26aa dab9 04e1 69bc
000000d0: bfff edbc 8836 b6bc fe31 70b9 7ae3 aeba
000000e0: 1cf1 7fbc d8a8 f7bc 61cf d6bc 2b96 48bc
000000f0: dd93 65bb c04c b0bb dd2b babc 380b fdbc
00000100: a9d6 b2bc bd88 56bb fe4d 06bc 41c4 02bd
00000110: 4659 24bd e71b ffbc 8ca9 88bb 72f8 6cbc
00000120: 6396 e9bc 314a 0bbd 067d 07bd f197 3e3c
00000130: 4d8b ba3b 9ee6 e93b 02e4 033c 0ab4 433c
00000140: fbf7 1e3c 448a 713b 09d9 fb3b e52e b93b
00000150: aea0 193c fefe 5a3b 315d 35bb 14be 12ba
00000160: a3c3 5fbb c837 5eba 9fd6 f3bb a7d1 64bc
00000170: f31c 95bc 1851 9abc 28e1 56bc 89b6 95bc
00000180: 5e0f bebc adf3 f2bc 28fe e7bc fb4f a3bc
00000190: 16c1 333c 9dff ac3b 7e9b f83b 3071 173c
000001a0: ac48 513c 52e6 033c 5614 003b e20c e13b
000001b0: 59d9 b33b 8a68 153c 5bee a33a 2b4d a8bb
000001c0: 6d16 feba 3300 78bb 8e60 a8ba 5b7e 03bc
000001d0: 4cc4 6abc 78c7 93bc e262 92bc a48a 45bc
000001e0: 9d24 87bc c6b3 a9bc 3a60 debc 42e5 d3bc
000001f0: 25e6 8cbc 6bd1 843c cb68 323c 7d58 5d3c
00000200: b1d1 7f3c 2fb9 9e3c da6f 643c eb7e 0f3c
00000210: 55f9 663c 8bf9 563c 3e9a 883c c8ac 083c
00000220: 3fe8 6c3b 4223 f83b d57f bd3b 4264 033c
00000230: 189d a038 fc28 8dbb 6bcd e0bb 4038 c9bb
00000240: e5bf b0b8 03e3 e7bb 8f09 24bc 4100 7cbc
00000250: 0d27 55bc a9c2 7cbb b0c6 d83a 139b 623b
00000260: 594c 9dba 676e aebb 383b 1abc 7d3b df3b
00000270: cbb9 c23b 6434 053a ce74 e0bb 74d6 07bc
00000280: 59e1 063c 3f9a 2c3b 600d a7bb 9269 20bc
00000290: 5aad 02bc 1f23 883a 7961 e3bb 4a0a 60bc
000002a0: e011 3bbc fcaf 2cbc 2f1d 78bb 19b3 23bc
000002b0: 6845 fabb a0f7 98bb faf4 06bc 0060 2fbc
000002c0: 5439 2ebc c041 84bc 968e a3bc 24d2 b7bc
000002d0: 7de2 e2bb 9717 1abc 51c2 70bc 54fb adbc
000002e0: 5e5b b0bc acc0 dfbb e71e 5dbc f6e3 a7bc
000002f0: 4f9a c7bc c88b b4bc ad7e 80bc 6432 c7bc
00000300: 6a7f f7bc 27fc ddbc 7960 d4bc 6647 afbc
00000310: 88f2 e5bc 19b4 cfbc 3942 b3bc fa9b cebc
00000320: 6743 fabb 03f7 05bc 9e12 6fbc b764 9bbc
00000330: 2c67 b5bc 5cf0 cabb 4a39 0fbc 5be8 67bc
00000340: e870 acbc 71fb b5bc 31d3 f5bb 484d 5fbc
00000350: bc65 a6bc 21e9 c8bc 3cfe bcbc f36f 87bc
00000360: 8cff c4bc 37b9 f6bc 43fc e3bc 861c dfbc
00000370: 6923 b4bc f900 eabc b77c d7bc 75f8 bfbc
00000380: a1a9 ddbc a043 f1bc 0b3e 00bd afd9 c3bc
00000390: 15cb 7cbc bf5c 67bc 50ac cfbc 844a d5bc
000003a0: 1439 a9bc bf72 59bc 656e 4cbc 5b16 94bc
000003b0: ae55 9bbc de6b 77bc 47fc 38bc 2b0b 27bc
000003c0: 7bb4 0dbc fa8e 1dbc 52b5 d3bb db70 4fbb
000003d0: 98f2 b8bb a83e 07bc 215c 0ebc 8b77 8dbb
000003e0: 9fb0 fdba 07fc b2bb c8d3 43bb 7812 9fbb
000003f0: 2d01 8a3a fb90 013c 514e 0b3c 0c0b 2539
0.020739084 0.008260832 -0.0064098337 -0.0004953693 0.020986428 0.01989429 0.0073353183 -0.0056401524
-0.0016532283 0.011699301 0.019609535 0.020313678 0.0058173602 -0.0018486436 0.007453769 0.023011459
0.021138562 0.00042706472 -0.007793863 0.0018779926 0.023266591 0.016210271 0.0057886555 0.0010722447
0.0016433672 0.006661568 -0.006972718 -0.02142018 -0.013730003 0.008751295 0.005108209 -0.008365377
-0.02163297 -0.016458225 -0.0023220992 0.0039696884 0.0030552829 -0.012953486 -0.019621711 -0.009745144
0.0056555183 0.0016932504 -0.02089943 -0.02852714 -0.018737748 0.004254277 -0.0050723213 -0.017614616
-0.02252865 -0.021565929 -0.0004170697 -0.014274839 -0.029052613 -0.0222428 -0.00022906807 -0.001334294
-0.01562145 -0.030231878 -0.026221933 -0.012242834 -0.003503076 -0.005380243 -0.022725994 -0.030889139
-0.021830874 -0.003273531 -0.008197306 -0.031925444 -0.0401242 -0.031141235 -0.004170602 -0.014463531
-0.028514093 -0.0340063 -0.033078216 0.011632905 0.0056928755 0.0071380874 0.008049967 0.01194478
0.009702678 0.0036856094 0.0076857847 0.005651342 0.009376688 0.0033416147 -0.0027673955 -0.0005597782
-0.0034143708 -0.000847694 -0.0074413563 -0.013966001 -0.01820228 -0.018837497 -0.013115205 -0.018275516
-0.023200687 -0.02965721 -0.028319433 -0.019935599 0.010971328 0.005279495 0.0075868955 0.009243295
0.012773674 0.008050518 0.001954337 0.006867991 0.0054885563 0.009119162 0.0012506949 -0.0051361523
-0.0019385346 -0.0037841916 -0.0012846158 -0.008025731 -0.014329027 -0.01803945 -0.017869417 -0.01205698
-0.01649695 -0.020715605 -0.027145494 -0.025866155 -0.017199585 0.01621314 0.010889242 0.013509867
0.015613959 0.019375412 0.013942683 0.008758287 0.014097531 0.013121019 0.01667511 0.0083419755
0.0036149172 0.0075725624 0.005783061 0.008019509 7.6586555e-05 -0.0043078642 -0.006860425 -0.0061407387
-8.428077e-05 -0.0070766225 -0.010012045 -0.01538092 -0.013009799 -0.0038568175 0.0016538706 0.0034577295
-0.0012000903 -0.0053232196 -0.009413533 0.0068125115 0.0059425584 0.0005081354 -0.0068498617 -0.008290876
0.008232438 0.0026337055 -0.00509803 -0.009790795 -0.007975901 0.0010386443 -0.00693911 -0.013674328
-0.011417836 -0.010540005 -0.0037859192 -0.009991431 -0.0076376684 -0.004668191 -0.008237118 -0.0107040405
-0.010633785 -0.016144633 -0.019965451 -0.02243907 -0.006923972 -0.009405038 -0.014694766 -0.021238007
-0.021527942 -0.006828388 -0.013496137 -0.020494442 -0.024365572 -0.02203931 -0.015685404 -0.02431602
-0.030212123 -0.027097775 -0.025924908 -0.02139635 -0.02806975 -0.025354432 -0.021882163 -0.02522086
-0.0076374295 -0.008176568 -0.014591841 -0.018968923 -0.022143923 -0.006193204 -0.008741686 -0.014154519
-0.021049932 -0.022214623 -0.0075019826 -0.013629265 -0.020312183 -0.024525227 -0.023070447 -0.016532874
-0.024047635 -0.030117614 -0.027830249 -0.02723528 -0.021989541 -0.028564917 -0.026304586 -0.023433903
-0.027058424 -0.029451191 -0.03130917 -0.02390751 -0.015429278 -0.0141212335 -0.02535072 -0.026036508
-0.0206571 -0.0132719865 -0.012477492 -0.018077066 -0.018961754 -0.015101401 -0.011290616 -0.010195534
-0.008648987 -0.009616608 -0.006460824 -0.003165296 -0.005644154 -0.0082546845 -0.008688957 -0.004317229
-0.0019355005 -0.005462173 -0.002988087 -0.0048544966 0.0010528915 0.007908101 0.008502559 0.00015739742
